quandrant_models/trained_model_topright.tflite (tflite, 341960 bytes, 12 tensors)

sequential_5/dense_11/BiasAdd/ReadVariableOp f4 [10]
00000000: 242b a53d 6f73 8f3e 0cf4 fb3c e45a 813c
00000010: e9cd 80be 2e19 0ebd 6d8c c7bd 95d3 ce3d
00000020: 0060 05be fc67 8d3c
0.08064869 0.28017756 0.030756019 0.01579041 -0.25157097 -0.034691982 -0.09743581 0.1009895
-0.13024902 0.017261498

sequential_5/dense_10/BiasAdd/ReadVariableOp f4 [256]
00000000: 6146 143d 7590 993d d4d8 4f3e 9b21 803e
00000010: 046a 703d 4c3f e23d a86b 1c3e f0c6 8e3e
00000020: 3452 e23d ad6a d43d 372e 363e 6bac 573d
00000030: 04f6 4c3e c2ed 5b3e 6988 90bc c421 773c
00000040: b389 193e 43ab ca3d 5117 7d3c ade5 4a3e
00000050: 2591 093e 19d8 a03d c10e 073e f7e6 513d
00000060: 5418 473d e672 9c3d 0b83 b43d 8512 013e
00000070: 3ecb 8f3b f841 e93d 133c 4d3d 3087 ea3d
00000080: 2708 4f3d c104 5ebc 2819 813d 1999 88bc
00000090: 5761 413e 8bb4 963d b5c2 3f3e 25e7 373d
000000a0: 75c5 a53d 0f54 833e 33a9 273e d199 833b
000000b0: 3130 153e 3a12 573e 85b4 203d 0acf ccbb
000000c0: 9c0a c63d ba68 1e3e 9ee3 433e 5eef d73d
000000d0: a79f 993d 77ad 1c3e ab1e 493e 4655 863e
000000e0: 393c 853d 81bc ea3d 737f 223e 5a1f b93d
000000f0: 67fc a33d 3ba8 b43d 8dba e83b 70c3 103e
00000100: c17e 843e 0c3e e03d dc0f 413e e6d4 0a3b
00000110: c8c5 0b3e 46fe 0d3e 6510 103e 8142 0a3e
00000120: 731b 113d 2057 823d 6fe9 333e 45f2 893c
00000130: 38f9 3a3d 77ce b63d 087e d63d 5f71 9c3d
00000140: 0c1d 0e3e 9c00 323e dc83 f13d 8db3 583d
00000150: 2ff4 653d 76a5 1f3e bbc9 393d be47 a13d
00000160: 235a 5a3d a550 7a3d 778d 643d ad33 ff3d
00000170: 96b4 473d 7ec5 313e 4073 1d3e caa2 bfbd
00000180: e567 a33d 0021 e43d c03b cfba 76b4 21bd
00000190: 3f3d e33d dd6d c23c 5d78 873d 0f12 703c
000001a0: bf76 3f3e e5db 8e3d 4e92 0e3e 6430 d73d
000001b0: 62e0 6d3d 3658 5f3d 8450 c93b fa26 983c
000001c0: b0fc 323d bd48 4e3e 7562 403e c204 053e
000001d0: 5c89 173e acb6 c33d b099 c0ba f45f e33d
000001e0: bae7 3e3e 9e30 363e 892a 923d c230 0f3e
000001f0: 72a9 e23d 4ed0 ba3d f0f5 d93d e670 b53c
00000200: c990 003d 6090 eb3d 7a5b 9a3d bd60 473e
00000210: 4264 643e 7bf7 473e 3d64 de3d 1f35 8f3d
00000220: 9059 233e 7e46 0b3e aca0 bb3d 8d60 7b3d
00000230: ab1f 723e dff4 503d 5d65 033d 407f 4d3e
00000240: ab5c 643d 66dc ed3b d2ce f93c 877e 3dbc
00000250: 16fd f93d e520 453e a6f0 363d ba8c e2bd
00000260: f22f 193e 08f6 043e b025 ab3b bbff d83d
00000270: 8aec 003e d31f 0b3e 5461 f23d 768f c13d
00000280: 8a10 8a3d 2917 8a3c a42c 473e 219d 9c3a
00000290: fc24 b93d fda5 373d 4014 493c d888 0abc
000002a0: 68fb c23d a26f ed3d 08da 373e fe7c 0f3e
000002b0: c6df 553e d0c0 583e 4600 f23d 0b9a 803d
000002c0: f667 753d 30f9 5bba 1c5a 0a3e bbb1 233e
000002d0: 40c2 973e fa73 443c 9d57 5c3e 05f4 253e
000002e0: dc1c 953d b926 93bb 5066 e83d d5ab 5e3c
000002f0: 51ba 1c3e af26 6d3e 7181 e33d 43fa 153d
00000300: 4808 e63d a460 2b3d a702 0b3e a248 e33d
00000310: bfe5 373e e22a b93d 798f 093e 6310 743c
00000320: de56 79bd ced9 bfbc 795a d63d 0cc3 ce3d
00000330: 6e6f 0e3e f8e3 d23d 524a cf3d ca41 713d
00000340: 7f9c 3e3e 7e00 b23d a8cd 553d 5d13 0c3e
00000350: 5f15 883d 4d3c 3a3e 3ba0 a53d 702b 84bc
00000360: 16eb 893d c495 213d 24a6 563e ceb0 a63d
00000370: 2434 5c3e 611a cb3c 1d6c 13bd bc9f 973c
00000380: a147 993c a0f0 2f3d efc9 003e 6691 f63c
00000390: d3cc b93d a3f8 3f3e 138e bd3d cf9d d63d
000003a0: 3bbc 0f3e 1ef7 7c3d d96f 5c3d d67f 4e3c
000003b0: 89e2 6a3d 5e8c 983e ee8f f83d 6954 d83d
000003c0: c1cc 4ebd 2f59 183e 98ba 003e edf8 e73d
000003d0: 16f5 053c 8d2b b83d bde6 dd3d 88cd 7bbd
000003e0: 0b2c ba3d 9d7e 8d3d 703c df3d c919 833d
000003f0: 768b 2cbd 0290 7a3e 8f67 a03e d2c3 4f3d
0.03619993 0.07498256 0.20297557 0.2502564 0.058694854 0.11047229 0.15275443 0.27886152
0.11050835 0.10371909 0.17791067 0.052654665 0.20015723 0.21477416 -0.01764317 0.015083734
0.14993934 0.09895947 0.015447454 0.19814177 0.13434274 0.07853717 0.13189222 0.051245656
0.048607185 0.07639103 0.08814057 0.12604721 0.004388242 0.11389536 0.05010612 0.11451566
0.050544884 -0.013550938 0.06303626 -0.016674565 0.18884788 0.073586546 0.18726619 0.04489817
0.080943026 0.2565007 0.16373138 0.004016139 0.14569165 0.21003047 0.039234657 -0.006250267
0.09669992 0.15469638 0.19129798 0.105437025 0.075011544 0.15300547 0.19640605 0.26236933
0.06505627 0.114617355 0.1586893 0.09039183 0.08007126 0.0882115 0.0071023167 0.14137053
0.25877956 0.109493345 0.18853706 0.0021184026 0.13649666 0.13866529 0.14068754 0.13501932
0.03542657 0.06364274 0.17569517 0.016839156 0.04564783 0.08926099 0.10473257 0.07638811
0.13878268 0.17383045 0.11792728 0.052905608 0.056141075 0.15590462 0.0453584 0.07875012
0.053308617 0.061112065 0.055798974 0.12461028 0.048756205 0.17360494 0.15375996 -0.093572214
0.07978801 0.11139107 -0.0015810654 -0.03947874 0.11095666 0.023734028 0.06614754 0.014652743
0.18697642 0.06975535 0.13922998 0.10507277 0.058075316 0.054527484 0.0061436314 0.018573273
0.043698013 0.20144935 0.18787558 0.12990096 0.14798492 0.09556326 -0.001469424 0.11102286
0.18643084 0.17791983 0.07137019 0.13983443 0.110674754 0.09121762 0.10642612 0.02214856
0.031388078 0.11502147 0.07536979 0.19470496 0.2230387 0.19528 0.10858963 0.06992554
0.15952134 0.1360111 0.09161505 0.061371375 0.23644893 0.051014777 0.03207909 0.20068073
0.055752438 0.0072589396 0.030494127 -0.011565811 0.122064754 0.1925083 0.044663094 -0.11061998
0.14959696 0.12984478 0.0052229986 0.10595652 0.12590232 0.13586359 0.1183497 0.09451191
0.06741436 0.016856747 0.19450623 0.0011948684 0.09040257 0.044836033 0.012272894 -0.008455478
0.09520608 0.11593558 0.17954266 0.14012524 0.20886144 0.21167302 0.118164584 0.06279381
0.059913598 -0.0008391319 0.13510936 0.15985768 0.29640388 0.011990542 0.21517797 0.16206367
0.07280895 -0.0044907 0.113476396 0.013590773 0.15305449 0.23159288 0.11108673 0.03661562
0.11232048 0.04184021 0.1357523 0.11097838 0.17958735 0.09041382 0.13433637 0.014896485
-0.06087386 -0.023419287 0.10466475 0.10095796 0.13909695 0.10297388 0.10121597 0.058900632
0.18614386 0.086915 0.052198082 0.13679262 0.06644701 0.18187065 0.08087202 -0.016133994
0.06734292 0.03944947 0.20961815 0.081391916 0.21504265 0.024792852 -0.035991777 0.018508784
0.018710913 0.042954087 0.12577032 0.030098628 0.0907227 0.18747191 0.09255614 0.10479318
0.14036648 0.061759107 0.053817604 0.012603721 0.057344947 0.29794592 0.121368274 0.10562975
-0.050488237 0.14877771 0.1257118 0.11326776 0.008176109 0.08992682 0.108350255 -0.061475307
0.09090432 0.06908915 0.109001994 0.064014025 -0.042125188 0.24468997 0.3132901 0.05072386

sequential_5/activation_20/Relu;sequential_5/batch_normalization_20/FusedBatchNormV3;sequential_5/conv2d_20/BiasAdd/ReadVariableOp;sequential_5/conv2d_20/BiasAdd;sequential_5/conv2d_21/Conv2D;sequential_5/conv2d_20/Conv2D f4 [32]
00000000: c83a 373f 4a87 bf3e 71b4 8a3e 937a 3d3e
00000010: 18fc 26bf ba25 6dbf 9993 0b3d dcab 3a3e
00000020: 106d ed3e 898e 5fbf a75f 8f3e 239f b63e
00000030: dc18 583e 34a7 f23e cb19 173f df68 2c3f
00000040: 2273 29bd a5bb 2abf ed56 9bbe b8b3 06bd
00000050: 19c1 3d3e e944 ca3e 9633 533d fe95 1cbf
00000060: 3e58 033e 2685 5b3e ce2b f33e 28c7 71bf
00000070: f70d 70bf ec4b 86bd 917c 4ebf a099 a1bd
0.7157407 0.37407905 0.2709079 0.1850379 -0.65228415 -0.9263569 0.034076307 0.18229622
0.4637227 -0.87326866 0.28002664 0.35668287 0.21103233 0.4739319 0.5902373 0.6734752
-0.041369565 -0.6669257 -0.30339757 -0.032886237 0.18530692 0.395057 0.051562868 -0.6116637
0.1282663 0.21437511 0.47494358 -0.94444513 -0.9377131 -0.0655745 -0.80658823 -0.0789063

sequential_5/activation_21/Relu;sequential_5/batch_normalization_21/FusedBatchNormV3;sequential_5/conv2d_21/BiasAdd/ReadVariableOp;sequential_5/conv2d_21/BiasAdd;sequential_5/conv2d_21/Conv2D f4 [32]
00000000: 9820 173f d85c b33e 5970 083e 8bef 783f
00000010: b810 193f e02e 303f c38d 7cbe 8461 a13e
00000020: f78c d43e fc50 ba3e c4fe 71bf 4951 843f
00000030: d9fa 61bf 5759 ce3e ecaa a6bd b4f0 5bbe
00000040: 7d24 84bd 8557 11be 0024 423f 5f81 bb3f
00000050: 31cb 8bbd b566 4e3f f754 e8bd 5a98 4a3f
00000060: 96e7 943f 15db 333f 541b 563f 8f03 f63e
00000070: d466 02bf 2106 4a3d db15 07be 2b77 0e3f
0.5903411 0.35031772 0.13324107 0.97240514 0.59791136 0.68821526 -0.24663453 0.3151971
0.41513798 0.3638991 -0.94529366 1.0337306 -0.8827339 0.40302536 -0.081380695 -0.2147854
-0.06452272 -0.14193542 0.7583618 1.4648856 -0.06825865 0.8062547 -0.11344331 0.7913872
1.1633174 0.7025617 0.8363545 0.4804959 -0.50938153 0.04932225 -0.13191931 0.55650586

sequential_5/activation_22/Relu;sequential_5/batch_normalization_22/FusedBatchNormV3;sequential_5/conv2d_22/BiasAdd/ReadVariableOp;sequential_5/conv2d_22/BiasAdd;sequential_5/conv2d_23/Conv2D;sequential_5/conv2d_22/Conv2D f4 [64]
00000000: 1e2b 2b3c e420 f5bd 755f 8cbe 5887 693f
00000010: 0be5 d9be b77f 433d e4d4 d2bf e51d 9cbe
00000020: 6b3f 9d3e 1b7c 40be c7d5 083f d0bd 8e3d
00000030: 6352 5a3e 6237 213d 2b66 8dbf cd40 353f
00000040: 9c9e 003f 0f93 12bf 9cb8 323e 5a5b 093f
00000050: 49e9 babe 14da bd3e c775 5bbf 91d7 383e
00000060: 3d5a 48bf 4baf 07bf 9a68 c1bf 1cbc 7abf
00000070: fb46 0ebe 2b84 02bf 2135 82bf 2b13 e83e
00000080: 58d5 403f 94a1 7d3e 9b5e b93e 5c64 98be
00000090: 2e9a 20bf 401f 75bf b437 28bf 5e93 97bd
000000a0: 0d2e 2f3f 728c e43d e3fd bfbf ca41 a93e
000000b0: 201c 02c0 b46c 8dbe 5f87 123f 746c 123f
000000c0: f5d5 7bbe 6686 2fbe 1088 1fbe 450f 63bf
000000d0: c9a8 ebbe 777e 593f 5c0d 073e a34f 28bf
000000e0: d0a1 d73e 9535 db3e 89fa e8bd 2d17 703d
000000f0: 0cab bc3e e26e cabe 7750 813e 6222 333f
0.010447292 -0.11969164 -0.27416578 0.91222143 -0.42557558 0.04772922 -1.6471219 -0.30491558
0.30712447 -0.18797342 0.534512 0.069697976 0.2132049 0.039359458 -1.1046804 0.70802003
0.5024202 -0.57255644 0.17453235 0.53655016 -0.36506107 0.37080443 -0.8572659 0.18050982
-0.7826269 -0.5300185 -1.5110047 -0.9794328 -0.13894264 -0.5098292 -1.0172464 0.45327124
0.75325537 0.24768668 0.3620499 -0.29764068 -0.6273526 -0.9575081 -0.65709996 -0.07401155
0.6842964 0.111596 -1.4999355 0.33058006 -2.0329666 -0.27621996 0.5723781 0.57196736
-0.24593337 -0.17141113 -0.15579247 -0.88695174 -0.4602721 0.84958595 0.1318869 -0.65746516
0.4211564 0.42814317 -0.11375911 0.058615852 0.36849248 -0.39537722 0.25256702 0.6997434

sequential_5/activation_23/Relu;sequential_5/batch_normalization_23/FusedBatchNormV3;sequential_5/conv2d_23/BiasAdd/ReadVariableOp;sequential_5/conv2d_23/BiasAdd;sequential_5/conv2d_23/Conv2D f4 [64]
00000000: 5234 7cbd 391d e9bd 3c8f 94be eb4f 00bf
00000010: a749 cabd 4abb 27bf f77d 12bf 4c23 16bf
00000020: 51f5 e73e 327c c7be 67ef f0be dfdc 93be
00000030: b3cf 22be 47a7 0dbf 73fb 93be 05a1 8dbe
00000040: 5bf6 603d 7408 41be 5e1e a2be 8037 f1be
00000050: 7253 00be 22c3 aa3d bf57 98be 7d85 92be
00000060: 8ac1 94bd 2ca2 e9bd cb4e 49be b0d0 96bc
00000070: 8496 b6be c87d 6ebd d423 7bbe 760d 12bf
00000080: 4def 81bd df3a 7e3d da73 a8be 5b5e 88be
00000090: e7af adbe 68fa 493d e207 9e3e c2c8 a43e
000000a0: bfa5 25bf b10b 22be d810 3cbf e0bd 86be
000000b0: ecfa bcbe faff ccbe 37fd 32bf 692f babe
000000c0: 9150 65bf cc50 243d 6f28 0abe 2103 1dbf
000000d0: 7b7a c93d b4af 75be da7d 00bf 8774 6f3e
000000e0: 66e5 5bbd 43ec 20be 79e5 c0be 73d3 02bf
000000f0: 042a 0cbe dc96 5abf 9435 a2be e459 00be
-0.061573334 -0.11382527 -0.2901553 -0.50121945 -0.09877329 -0.65520155 -0.5722346 -0.5864761
0.4530435 -0.3896194 -0.4705765 -0.2887945 -0.15899543 -0.5533337 -0.28902778 -0.2766191
0.054922443 -0.18850881 -0.31663793 -0.47112656 -0.12531832 0.08338 -0.29754445 -0.28617468
-0.07263477 -0.11407885 -0.19658963 -0.018410057 -0.3566171 -0.058225423 -0.24525386 -0.5705179
-0.06344471 0.062067863 -0.32900888 -0.26634488 -0.33923265 0.04931107 0.3086539 0.32184416
-0.64706033 -0.15824772 -0.734632 -0.26316738 -0.36910188 -0.40039045 -0.69917625 -0.36364296
-0.8957606 0.040116116 -0.13491987 -0.613329 0.098378144 -0.23992807 -0.50192034 0.23384295
-0.05368557 -0.15715127 -0.37675074 -0.51103896 -0.13687903 -0.85386443 -0.31681502 -0.1253429

sequential_5/dense_10/MatMul f4 [256, 64]
00000000: f6b1 0c3e 1cfd 77bd 5dac 483e a1fe d5bd
00000010: d43b 13be 1d92 9e3d d328 373e 9437 2fbe
00000020: 7c65 8c3d e941 9bbe 18f3 b2be 7c04 823c
00000030: b39d 57be 9654 c7be 9c20 56be faa8 0a3e
00000040: 7224 bf3d c5a2 123e 0013 073e 6598 3c3c
00000050: e79b 98be 504c 4b3b db79 41bf f05e 9a3d
00000060: 7857 dd3d a94e 8dbe 7faa a23d 35dd d4bd
00000070: 5f6e 47be f5c1 90be b365 06bd f535 753e
00000080: 1f17 debd aac7 ed3d 7111 bbbe dc4c d4be
00000090: 3d4b 0dbc 4d90 f73c 9f21 0a3e c330 e3bd
000000a0: bb0e 91be 9d28 4bbe 4edb bb3e 8439 f2be
000000b0: 07fc 64bd 75ae 123e 16c2 cdbc 387c 263e
000000c0: df87 92bc b701 3d3e 36c6 a0bd 4978 f63d
000000d0: 1d71 4a3e 6b8b 423d eedf f53d c876 4b3c
000000e0: e981 bdbd e5a9 98bd 45cc 25bb cf49 65bd
000000f0: 3757 8dbd 02d5 66be f1ae 31be d293 b13e
00000100: 3a4e 53be 7f0a b73d 84c1 c4bd fd6e d6be
00000110: de07 d5be 9f7a 08bf 3fd7 1bbd dbdf 2dbe
00000120: 66fe 453e 9d7b 453e 8b9e e63c 3a0c 233c
00000130: 00ed b83d 516c 20bd dbf8 463d 3452 29be
00000140: d5ed 8b3d 35ed 94be 6dbb cbbe e261 b03d
00000150: f616 333d 99ea fdbc 3222 d2bc a481 5d3e
00000160: 4e27 213d 5a89 883e 0a6f 56bd 175d 723e
00000170: 3948 75bc b86e 273e e4b3 eabe df29 853e
00000180: 590a bf3d c274 373e 4655 b5bd 9231 4e3e
00000190: 9486 21be c1fb 17be 8dc2 443c 6a81 7f3e
000001a0: 31a3 8a3c 93d5 64bc e6a6 0ebe 15bb ae3d
000001b0: 8a12 04bc 7fb1 c13c b8bb ae3d 6ba0 cebd
000001c0: 88ee fbbd 41fa 6c3d f519 cbbe 84da 0a3e
000001d0: c11e a13d da0c d1bd a820 c9be e9d6 85bd
000001e0: ad1f 133d 795c 9cbe 295c ae3d 6b27 0dbd
000001f0: f109 833e 2d07 6dbd c9cc 503e 98f0 fb3c
00000200: 146c a4be 01b1 153e 6913 cabd 76cd abbd
00000210: 860c 9cbe 1026 b5bd 0581 ca3e 8f85 3b3d
00000220: daf3 03be 3f3a 41bd d561 083e 2788 25be
00000230: 38c6 1fbf 61e7 a4bd a161 fc3d af50 623e
00000240: c1dc 91bd cfef 26be 5ca9 0ebd 120f fdbc
00000250: db98 833d efb8 e03d ecc8 30bd 78ff d33d
00000260: 3924 1abe a23f 3e3e 4f57 c63d d1d8 273e
00000270: 0af7 183e 6d4e 2d3d 1f72 bfbd 583b 463e
00000280: ad63 e2be 7ecd 62be 6929 10be 91b2 18be
00000290: 2232 95bd 40b4 f2bd 7de1 8a3e 0ae9 d1bd
000002a0: a257 1d3d 3920 c1bd a76d 93be d2c4 99bc
000002b0: a2ba a0bd e517 64be 60c6 dbbd 8740 e73a
000002c0: e12e 203e b1bc efbe aa9d 53be 1140 08bd
000002d0: cf6a 8dbd dede 4b3a c04d bdbe c850 243d
000002e0: c6f3 aebe c70e a8bd 303a 13be 561f 7ebe
000002f0: 0498 a93d f069 0cbe 96fb bd3d d22e 4dbe
00000300: 50c3 3fbd 98bf d93c aa13 8cbe bf81 e7be
00000310: 5bb4 2b3e 1111 cabb 8662 a0bd 7d5b 5cbe
00000320: 41f7 5ebd 4443 45bf c777 01be 2367 e9bc
00000330: 14c5 88be 3b51 04bf 4850 c1be eb8d e13c
00000340: 7bb9 e83d d15e 9cbc 2a7c 363e 7edd bcbd
00000350: 85b3 813e 3630 2fbe 2625 08be b7bf 64bd
00000360: 6eef f33b 426f f53d a13e 0cbc f3d1 963e
00000370: 3d2e 95be 3a21 1ebe 2591 0ebd 59a5 aebe
00000380: f503 303e a400 15bd 1e0c fbbe 9729 14be
00000390: 856e abbd e256 ed3c 02a7 4b3e 806d 58be
000003a0: 7187 303d 56ea 003e e1cb 87be 3de9 003e
000003b0: 1429 bcbd d041 c23d 014b 03bc 0bdb 213e
000003c0: 43ad 283d 7100 4abc ef6a 48bd 5c3f bcbd
000003d0: 5c52 a43c 98cd 113d b72d 52bd 2ad2 1f3d
000003e0: a309 033d b09c d03c f1b3 9b3e f914 46bd
000003f0: 7225 afbd f3b1 9abe 35c7 29be 2f15 aabd
0.13739762 -0.06054412 0.19597001 -0.10448957 -0.14378291 0.07742713 0.17886667 -0.17111045
0.06855294 -0.30323723 -0.3495109 0.015871279 -0.21056251 -0.3893172 -0.20910877 0.13541022
0.09333123 0.14319904 0.13190842 0.011510943 -0.29806444 0.0031020828 -0.7557656 0.07537639
0.10807699 -0.27599075 0.07942676 -0.103937544 -0.19475697 -0.28272977 -0.03281183 0.23946364
-0.10844254 0.116103485 -0.36536744 -0.4146489 -0.008623895 0.030220175 0.13489388 -0.11093285
-0.2833155 -0.19839711 0.36690754 -0.47309506 -0.055904415 0.14324363 -0.025116961 0.16258323
-0.017887054 0.18457685 -0.07850306 0.12034661 0.19769712 0.04749624 0.12005602 0.012418456
-0.09253294 -0.0745428 -0.0025298756 -0.055978592 -0.069014005 -0.22542194 -0.17351891 0.3468309
-0.2063531 0.08937549 -0.09607223 -0.41881552 -0.41607565 -0.53312105 -0.03804707 -0.16979925
0.19335327 0.19285436 0.028151771 0.0099516455 0.09029579 -0.0391658 0.04857717 -0.16535264
0.06832472 -0.29087225 -0.39791432 0.0861242 0.04372307 -0.030995654 -0.025651071 0.21631485
0.039344124 0.2666729 -0.05235199 0.23668323 -0.0149708325 0.1635083 -0.4584037 0.26008508
0.093281455 0.17915633 -0.08854155 0.20136097 -0.15773994 -0.1484213 0.012009275 0.24951711
0.016923519 -0.013966936 -0.13930854 0.08531777 -0.008061061 0.023644207 0.08531898 -0.10089191
-0.123013556 0.05785585 -0.3966824 0.1355992 0.07867194 -0.10207529 -0.39282727 -0.065351315
0.03591888 -0.305393 0.08513672 -0.03446142 0.25593522 -0.05786817 0.2039062 0.030754372
-0.32113707 0.14618303 -0.098669834 -0.08388798 -0.30478305 -0.088451505 0.3955156 0.04578167
-0.1288599 -0.04717469 0.1331857 -0.16165219 -0.6241183 -0.080519445 0.12323309 0.22101091
-0.071221836 -0.16302417 -0.034829482 -0.030890975 0.06425639 0.10972773 -0.043160364 0.10351461
-0.1505288 0.18578961 0.096846215 0.16391303 0.14937988 0.04231112 -0.09347939 0.19358575
-0.44216672 -0.22148702 -0.14078297 -0.14911868 -0.07284953 -0.11850786 0.2712516 -0.10249527
0.03841365 -0.09429974 -0.28794596 -0.018770609 -0.078480974 -0.2227474 -0.107311964 0.0017643132
0.15642883 -0.46823648 -0.20665613 -0.033264223 -0.06905138 0.0007777045 -0.3697338 0.0401161
-0.3417036 -0.082059436 -0.14377666 -0.24816641 0.08280948 -0.13712287 0.09276502 -0.20037392
-0.046817124 0.026580617 -0.27358752 -0.45216176 0.16768019 -0.0061665853 -0.07831292 -0.21519275
-0.05443502 -0.77055764 -0.12643348 -0.028491562 -0.2671286 -0.5168645 -0.37756562 0.027533492
0.113635026 -0.01908818 0.17820802 -0.09221934 0.25332275 -0.17108235 -0.13295421 -0.055846896
0.0074443137 0.11984111 -0.008559854 0.29457054 -0.2913684 -0.15442362 -0.03480639 -0.34110525
0.1718901 -0.036377564 -0.49032682 -0.1446899 -0.08370689 0.028972093 0.19887927 -0.21135521
0.043097917 0.12589392 -0.26522735 0.12588973 -0.091875225 0.09485209 -0.008013488 0.15806215
0.04118086 -0.012329207 -0.048930105 -0.09191772 0.020058803 0.03559646 -0.05131313 0.039018787
0.031991612 0.02546534 0.30410722 -0.048359845 -0.08552064 -0.3021389 -0.16579898 -0.08304822

sequential_5/dense_11/MatMul f4 [10, 256]
00000000: ed72 173e 76f9 32bf 11e6 ebbe 6a57 413e
00000010: 6160 23bd 116b 423e fe33 edbd 4ad0 bcbe
00000020: 8b92 263e bc7d 73be 8a05 d73d 55f8 32bd
00000030: 47ea 92bd 8de9 893d 6ebc 7c3e b9e7 2f3e
00000040: 4c89 03bd 2346 c2be dae9 f2be 870b 73be
00000050: c916 153e a1d2 163d a632 b5be 394c e93d
00000060: f817 573d 138e 82bd 1ae4 19be f889 58bf
00000070: 7aeb f23d bb48 3fbf d5ed a73c f515 193e
00000080: a074 2e3c 7593 8c3d 35d6 3b3c 5f76 3abe
00000090: a261 0e3e ace6 37be 9c21 6b3d dc10 50be
000000a0: c4c2 9a3d 2d95 2c3e 009a 033e bb2d afbe
000000b0: c820 ab3c 927a 083e 36be 7ebd 2991 3bbf
000000c0: 1e3a 4e3e 5d64 fcbe dfd5 21bf ff8b c03d
000000d0: 010e 6d3d b780 c0be ee90 aa3d f2ee 15bf
000000e0: 2f6d 03bf 24ca 263c 2646 873c 8f7a 07bf
000000f0: aabb 3cbe fa30 a0be 6713 6bbe f325 62be
00000100: df43 c3bd 26f0 8e3d b7d5 22be 6969 61be
00000110: 301e afbe 13e6 62be d38d 26bf e441 1a3e
00000120: 6262 e33d 92d3 00bf b374 aebd 6b81 acbe
00000130: d0e7 6bbe 4b32 e93d a5f6 cfbe e92d bebe
00000140: 6c83 d63d f16d 703e fac4 ecbe 32c2 c93d
00000150: 8050 e03d 20f7 5abf b533 20bf 3377 10bf
00000160: 830a 083e a3d4 f7be 98a3 81bd 617e e13d
00000170: 4a93 0d3d 26c6 eabe 2c08 093e 693b 343e
00000180: a91a 93bb 6fdb b1be f5c8 a1bc d4c5 e4be
00000190: 3e14 8fbb cee2 4bbe 86cb 05bf 9db1 203d
000001a0: 86c9 b53d e25f 8b3d 982f 74be e368 3bbe
000001b0: b392 f5bd dfb8 223e 162c 20be 7686 e63c
000001c0: 2d10 373d 0864 bd3d 765c c43d 510b 513d
000001d0: de34 90bd 489b a33d 5572 113d bc47 aebd
000001e0: f364 febd ddd8 65bd f5c0 bb3d 3464 6cbe
000001f0: a935 11be 59f0 dbbe a07c d3be a411 033e
00000200: c993 f63d f201 5fbe 3b9a 7ebe 7ed5 3cbf
00000210: 07e1 babe 4d98 b23d 72ed 37bd bdd7 93be
00000220: 76d4 583e 81b5 4f3e 6afe acbc 2e3e 92be
00000230: bcef e03d 0837 87be 5228 87bc 39bd 0c3e
00000240: bffe b6be b925 cebd bcc6 f33d 93fa 21be
00000250: 189c 2d3b ee9a 963d 787a 893d 9507 43be
00000260: 4c08 253e 9efc 1a3e dfa5 1cbf bc11 0abf
00000270: d36b 253e 3bf3 da3d 770e 22be 9e6f e33d
00000280: 4eb8 743d ca8d 19bf 14d0 b9be 0a3c 7e3d
00000290: 7cb9 e03d 4c50 40be 13a9 15bd 196e c03c
000002a0: 8198 7fbd fe4a 6f3a 7a69 f83c 0080 93be
000002b0: 4187 0a3e aa88 dfbe 4351 a0be 146a c73d
000002c0: 023f 053c f903 57bd 607c ffbe 9564 f83d
000002d0: 69d9 ea3c 9415 4cbc da26 98be 2793 44bf
000002e0: e517 5c3d fe6b f5be 996a 79be eb80 a63d
000002f0: 098f 9dbe 3604 debe 67a3 0abe 1bb4 943d
00000300: cf3c 1bbe 524d c23d 8c71 4b3e c9e7 26bf
00000310: 5fdd 203d 8f55 c7be 4616 da39 498f 073e
00000320: 7ec4 97be db53 d5be 0570 a83c 7d33 f6be
00000330: b898 0c3e 4518 1b3e 457f a2bd 982c c43d
00000340: e97b 9ebd bfbf ffba bb9c abbe 940d c4bd
00000350: b3a9 283e f6f2 62be 93b2 2bbe 531d a5be
00000360: bba0 babe d17f e2bd 350e 90be df1d 74be
00000370: fb5f 353e 069f 82bc d7cd e6bd e943 72bd
00000380: 1cc9 dabc 1220 f33d 89f5 063e 3762 013e
00000390: a97c ccbe 37ac da3d c53a 13bd f3ca 88be
000003a0: 287f db3d 6855 8bbe fcc7 0f3e b38f 8f3c
000003b0: dc8e f7be e972 28bf 9d25 cabc 087e 98be
000003c0: 6373 ccbe f0f4 f9be 3525 e43c e792 c3be
000003d0: 275e 80be b504 3e3e b58d 26be 8a7b fabe
000003e0: 9586 42be 5b01 8e3d 6989 80bd c527 29be
000003f0: 7613 9bbe 3d4e 9f3d eda8 12be 5d9b 84be
0.14789934 -0.699119 -0.46073964 0.18881002 -0.039886836 0.18986155 -0.11582182 -0.36877662
0.16266839 -0.23778433 0.10499103 -0.04369386 -0.07173591 0.067339994 0.24681255 0.17178239
-0.03211336 -0.37944135 -0.4744404 -0.23734866 0.14559473 0.036821965 -0.35390204 0.113914914
0.052513093 -0.06374755 -0.1502842 -0.84585524 0.1186132 -0.7472035 0.02049915 0.14949782
0.010647923 0.06864063 0.011464645 -0.18209217 0.13904431 -0.17959088 0.0574051 -0.20318931
0.0755668 0.16853781 0.12851715 -0.34214577 0.020889655 0.13328007 -0.062193118 -0.7326837
0.20139357 -0.4929532 -0.63216966 0.09401702 0.057874683 -0.37598202 0.083284244 -0.58567727
-0.51338476 0.01018003 0.016512942 -0.52921385 -0.18430963 -0.31287366 -0.2295662 -0.22084789
-0.0953443 0.069793984 -0.15901838 -0.22012867 -0.3420272 -0.22158079 -0.65060157 0.15064198
0.111027494 -0.5032283 -0.08518352 -0.33692488 -0.23037648 0.11386546 -0.40617862 -0.37144402
0.104742855 0.2347944 -0.4624403 0.09851493 0.10952854 -0.8553333 -0.625789 -0.56431884
0.1328526 -0.48404416 -0.06330031 0.11010433 0.034564294 -0.458543 0.13382024 0.17600788
-0.004489262 -0.34737727 -0.019749144 -0.4468218 -0.0043664267 -0.19910738 -0.5226368 0.039231885
0.08876328 0.068053976 -0.2384628 -0.1830173 -0.11990871 0.15890835 -0.15641817 0.028140288
0.04469316 0.09247595 0.09587948 0.051036183 -0.070413336 0.07988602 0.035509426 -0.08509776
-0.12421598 -0.05611502 0.09167663 -0.230851 -0.14180626 -0.42956808 -0.4130602 0.12799698
0.120399065 -0.21778086 -0.24863522 -0.73763263 -0.36499807 0.08720455 -0.04490418 -0.28875533
0.21174797 0.20284082 -0.021117408 -0.28563064 0.10983226 -0.26409173 -0.016498718 0.13744058
-0.3574123 -0.10065789 0.1190314 -0.15818243 0.0026490744 0.07353769 0.06712812 -0.19045861
0.16116446 0.15135428 -0.611906 -0.5393331 0.16154413 0.10690924 -0.1582583 0.11105274
0.05974608 -0.5998198 -0.36291564 0.062068976 0.10972878 -0.18780631 -0.036538195 0.023489999
-0.0624013 0.0009128301 0.030323733 -0.28808594 0.13528158 -0.43658954 -0.31311998 0.0973703
0.008132698 -0.052494023 -0.49899578 0.121285595 0.028668122 -0.0124563165 -0.2971714 -0.76787037
0.053733725 -0.47933954 -0.2435707 0.08130058 -0.3077319 -0.43362588 -0.13538896 0.07260915
-0.15159915 0.09487404 0.19867533 -0.65197426 0.039273616 -0.38932464 0.00041596795 0.13238253
-0.296421 -0.4166554 0.020561228 -0.48086157 0.13730133 0.15145977 -0.07934431 0.09578818
-0.07738478 -0.0019512101 -0.33518013 -0.09572902 0.16470985 -0.22162995 -0.1676734 -0.32248935
-0.36450753 -0.11059535 -0.2813584 -0.2383952 0.17712395 -0.015944969 -0.112697296 -0.059146795
-0.026707225 0.11871351 0.13179602 0.12635122 -0.39938858 0.106773786 -0.03594472 -0.26717338
0.107176125 -0.27213597 0.14041132 0.017524576 -0.4835118 -0.6580034 -0.024676139 -0.29783654
-0.39931783 -0.48819685 0.027849773 -0.38198015 -0.25071833 0.18556483 -0.16264994 -0.48922378
-0.18996651 0.06933852 -0.06276209 -0.16519077 -0.30288285 0.07778595 -0.14322253 -0.25899783

sequential_5/conv2d_20/Conv2D f4 [32, 3, 3, 1]
00000000: e840 f0ba e16f 1cba 2434 e23a 60d2 243c
00000010: e68e 123c 823d 2e3b d6f7 80bc 5f9d a23a
00000020: 1f42 23bc 6648 77ba 3b51 ec39 3134 ae3a
00000030: a47c 123c d5f5 4abb b7ef a5bb fb8b fcbb
00000040: bfe9 91bb a866 a7bb 070e dcba 7b07 a83b
00000050: 4db0 a03a b313 62ba 7232 593b 4f98 93bb
00000060: 9ebb 5ebc 44d1 323c 63a6 3f3b 3b72 04bb
00000070: f099 74bb 86da b3bb 0d28 edbb 914a cb3a
00000080: a1ad b538 518a a93b 2e90 cf3a 10f7 3fbb
00000090: 6f2e 23bc 4193 a23b 6a69 4cbb b96a 193b
000000a0: 7154 c03b d280 25bb 805b b73b 0d82 2dbb
000000b0: a798 47bb 9146 5e3b b4b6 06bb 9507 c7ba
000000c0: d18f b3bb 5dee 6c3b 9390 113b 5bc6 073c
000000d0: 5523 15bb c347 44b9 8871 063b 661e 27ba
000000e0: 2b58 5dba 5e0e 473a e061 69ba ecff 52bb
000000f0: 95ef adb7 cada 4b3a 2491 52bb 1596 30bb
00000100: 12b9 a63a b680 3b3a b521 3dbc 7502 01bc
00000110: 60ae 7b3b a220 8b3c 37a5 ebbb 88fa 25bc
00000120: 892f 9e3b 74d1 503b ba45 01bc 6cc3 24bb
00000130: 3ab8 033c bb72 1f3b c8fd 17bc e55d c1bb
00000140: cc03 dfbb 085d 9ab9 5eea cd3a c5b1 9339
00000150: 88f0 b839 9084 05bb 1410 1f3a 3ba8 df3b
00000160: 2bab 3ebb b083 6b3b 294a 38bc 41dd 6bba
00000170: ff35 a2bb bc39 a2ba 5d74 733a ec85 b6bb
00000180: 4fce af3b 3041 7d3b 0f80 39bb 80c6 ac3b
00000190: adfb 7d3b 6414 d63a f7c7 30bb 309d 803b
000001a0: 7953 2cba ab9c 45bc eb0b 17bb c14c d0b9
000001b0: b43b 613b b79a 9fbb 1798 583a bc86 8d3b
000001c0: 98b4 e53a 51cd f3ba 8eab 323b ee10 2cbc
000001d0: a1d6 a5bb acb4 22bc 9b18 92bb 9593 913b
000001e0: ea8b 7b3b ca66 453b 2058 9d3b 2c3a 4cbc
000001f0: f582 9dbb 05bc c23a 1e72 b239 35ee 0d3a
00000200: fb3c ee3a cf19 bc3b 9b59 08bc de13 bfbb
00000210: b241 9fbc f5ba 773b 29cc 6a3b 7a80 9dba
00000220: efd8 983b 0ce0 27ba e9d6 35bb 8150 3d3c
00000230: 64ad a63b 3ff5 adbc 8a43 e03a 7bee 42ba
00000240: 0846 ea3a 90dc c23b 5f0f 87bc cf7c 28bc
00000250: 8a86 193c cf55 a53a 8cc2 c13b 9d5e 5cbc
00000260: aa4e 583c e269 f0bb 6b34 643b c26b 17bb
00000270: 8db2 a6ba c8ec 273c b3f1 743b fbb4 7d3c
00000280: 8b5c 55bc df12 81bb c5f2 353b 5a41 a6bb
00000290: 2ea0 96b9 f842 433c 3ef1 5a3b ce48 2939
000002a0: 4854 75bc e8f7 893b a216 243b 95e0 683b
000002b0: a3a0 bc3b 9cbe 653a abdd 75bc 3d26 16bc
000002c0: 7d61 6cba d4bc 5f3c 5e46 86b9 4244 8239
000002d0: 36ce e3ba 2b76 3c3b aa7c 7f39 845b 09bc
000002e0: 271d c8bb 6217 1ebb 8cb1 5bbb e565 f83b
000002f0: 2efb 703a 21e5 18ba a816 5abb 9bb2 adba
00000300: 3867 f4bb 7db7 1b3a d074 99bb b253 47bc
00000310: 23b8 0d3c 5bf1 123c ddcf 4738 5861 e3ba
00000320: 68e6 d7ba 736e 773a cbd6 7935 1237 7dbb
00000330: f0f4 1c3b 8e01 83b9 1218 b4bb a269 523a
00000340: d0f1 26ba 230e ef3a d6fb db3a 5679 b3b7
00000350: d156 0b39 29b0 bd3a 6bc1 bcb9 9b7c 7fba
00000360: 170c 2fbc 3c4a 863b b210 f23b 6b5d 423b
00000370: 9158 fdbb 0cd3 7739 4de0 0e3c e7d1 b3bb
00000380: 6f20 2e3a ffb1 33bb 0824 7aba 3a29 1b3a
00000390: 4f47 75bb 9a11 b8bb 8830 91bb b3ba 4c3c
000003a0: 4cef a43a 93e6 803b 4de6 31bc a58a 9fbb
000003b0: 44b7 8ebb e50f c5bb 41f3 c53b bb0c 96bb
000003c0: 35cc 26bb c1a8 dd3b c7d7 0d3b 2be5 063b
000003d0: 8b16 e0ba 53f6 a43a 612d 7f3a e859 5abb
000003e0: 7822 94b9 4b92 f43b 2279 9c39 b836 bf39
000003f0: 6205 e73a 1be6 65ba f707 8b3a c87a 503a
-0.001832989 -0.0005967599 0.0017257971 0.010059923 0.008945202 0.0026586954 -0.015743177 0.0012406519
-0.009964495 -0.00094330905 0.0004507395 0.0013290701 0.008940849 -0.0030969281 -0.0050639766 -0.0077071167
-0.0044529135 -0.005108673 -0.0016788848 0.005127845 0.0012259573 -0.0008624151 0.003314164 -0.0045042406
-0.013594536 0.010914151 0.0029243461 -0.0020209688 -0.00373232 -0.0054886965 -0.0072374404 0.0015509893
8.6630935e-05 0.0051739593 0.0015835816 -0.0029291548 -0.009959801 0.0049614017 -0.0031190761 0.002340956
0.005869441 -0.0025253785 0.0055956244 -0.0026475221 -0.0030455978 0.0033916573 -0.0020555677 -0.0015184755
-0.0054797907 0.0036152818 0.0022211417 0.008287038 -0.0022756655 -0.0001871875 0.0020514447 -0.0006375074
-0.0008443619 0.00075933884 -0.0008902829 -0.0032195998 -2.0734771e-05 0.00077764376 -0.0032129968 -0.0026944925
0.001271995 0.00071526633 -0.011543681 -0.007874121 0.0038403496 0.016983334 -0.007191326 -0.010130532
0.004827444 0.0031863125 -0.007890159 -0.0025140895 0.0080395285 0.002432986 -0.009276815 -0.0059010857
-0.0068058725 -0.00029442483 0.0015710106 0.00028170474 0.00035274425 -0.0020373203 0.00060677645 0.0068254746
-0.0029093723 0.0035936646 -0.01124815 -0.0008997508 -0.0049502845 -0.0012376825 0.0009287054 -0.005570164
0.00536517 0.003864359 -0.0028305089 0.0052726865 0.0038754747 0.0016332981 -0.0026974657 0.003924988
-0.00065737177 -0.012061278 -0.0023047875 -0.00039730038 0.0034367861 -0.0048707384 0.0008262409 0.00431904
0.0017525135 -0.0018600618 0.00272629 -0.010502083 -0.005060986 -0.009930771 -0.0044584996 0.004442642
0.0038382956 0.0030121082 0.004801765 -0.012465041 -0.004806871 0.001485706 0.0003403583 0.0005414219
0.0018176133 0.0057403813 -0.008322145 -0.005831226 -0.019440506 0.0037800644 0.0035827255 -0.0012016438
0.0046645324 -0.000640393 -0.0027746505 0.011554838 0.0050865877 -0.021235107 0.0017109972 -0.0007436049
0.0017873654 0.0059467033 -0.016486822 -0.010283663 0.0093704555 0.0012614074 0.0059130844 -0.013450292
0.013202349 -0.007336841 0.0034821283 -0.0023105 -0.0012718007 0.010249324 0.003737551 0.015485044
-0.013022552 -0.003939017 0.002776311 -0.0050737085 -0.00028729573 0.011917822 0.0033407952 0.00016144218
-0.0149737075 0.004210461 0.0025037904 0.0035534252 0.005756454 0.000876406 -0.015006463 -0.00916439
-0.00090172124 0.01365586 -0.000256109 0.00024846388 -0.0017380181 0.0028756957 0.00024365136 -0.008383635
-0.006106991 -0.0024122824 -0.0033522574 0.007580506 0.0009192702 -0.0005832483 -0.0033277664 -0.0013252081
-0.0074585937 0.00059401226 -0.0046831146 -0.012165951 0.008649859 0.008968676 4.7638885e-05 -0.0017347736
-0.0016471865 0.00094387605 9.3072293e-07 -0.003863756 0.0023949705 -0.00024987425 -0.0054960335 0.0008026605
-0.00063684303 0.0018238466 0.0016783427 -2.1394964e-05 0.00013288415 0.0014472055 -0.00036002262 -0.00097460457
-0.010684035 0.004098205 0.007387244 0.0029657732 -0.007731505 0.00023634377 0.00872047 -0.005487669
0.0006642406 -0.0027419326 -0.0009542112 0.0005918924 -0.0037426536 -0.0056173326 -0.004430834 0.012495684
0.0012583523 0.0039337366 -0.010858131 -0.0048688226 -0.004355343 -0.0060138577 0.006040961 -0.0045791543
-0.0025451307 0.006764502 0.0021643506 0.0020583372 -0.0017096562 0.0012585617 0.000973424 -0.0033317748
-0.0002825444 0.0074637285 0.0002984489 0.00036471128 0.0017625506 -0.0008769945 0.0010607232 0.0007952866

sequential_5/conv2d_21/Conv2D f4 [32, 3, 3, 32]
00000000: f759 a0bd 2045 183d bb8b 4f3a 2a7c a23d
00000010: 39e1 7ebc 1e05 3e3d 649c 8639 eadd 913d
00000020: e28d a3bd 9eeb 13bc 658c 833d 5cd2 32bd
00000030: 8a1d 173b af2b e7bd 3acd f7bc b577 cbbd
00000040: b6cd 3a3c 5466 d63d 46b8 17be 2406 603d
00000050: 413a aabd 705a 22be 299f 183d 0628 1abd
00000060: 9bd6 113d 7397 0b3d ea88 cfbb b092 30bd
00000070: 1d09 5739 0f98 ed3a eabc b03c d9fc 81bc
00000080: 92c1 1d3d 354a f73c 74e1 c13c b0ce e4bd
00000090: b758 e8bc 4548 913c 4ccb 713b 0d3c a73c
000000a0: 6569 1bbd 4d29 a93c 0b33 59bd f689 fcbc
000000b0: 865c 723c 8c75 9a3d c191 00bb bd55 dfbc
000000c0: 14eb 423d e10a 193c 5c51 943b 7344 07bd
000000d0: 76a5 b53b 9d2f 443d 9d7e 44bc eb69 fdbc
000000e0: c40a 89bd ea84 3dbd 0734 873c 67d6 ca3c
000000f0: d940 993c 0091 79bd 43be c8bc eda7 bc3d
00000100: 9e77 ab3c 5506 05bd 2770 423d 1d03 afbd
00000110: 5959 e3bc 3965 98bd 34a3 593d 77bd ddbd
00000120: b6e0 563b f80b aabd 44c5 bfbb 0ccd 09bd
00000130: 8d42 d8bc 0969 813d 36eb 8b3d 1da4 d03c
00000140: aaa5 87bc fc6a 4fbd b2bf 343d 87ac 03be
00000150: f91a 1f3d 21c6 803d 842e 1b3d d114 ef3c
00000160: 5da8 d6bb 4b23 93bc c1ec fb3c 8d56 8a3c
00000170: 3d74 c3bb 6b48 153d e3ba 48bd 653e bb3c
00000180: aafd a33c 14be 56bc 3a9a c7bd 0362 3abc
00000190: 8b62 943c e8be 58bd 82f2 d73c 7947 38bc
000001a0: df25 31bd 085c 9f3c db63 2c3d 6550 b2bd
000001b0: c959 39bd fbab 403b c617 46bc 4de3 d3bd
000001c0: f2f4 0d3d 7d77 533d b67a 873d 01ce 5d3c
000001d0: e733 2ebe 7cf8 2dbe fc29 ae3c 6a4f c73c
000001e0: 8be6 053d 6ffe 9bbc 9a43 09be 5959 f63b
000001f0: f498 1dba 7658 573d 8b56 603d 5859 34ba
00000200: 81b3 753d 639a ab3c 9857 623d 87f4 bb3a
00000210: cabb b3bd 4c9c 27bd c206 0ebc e611 003d
00000220: bde6 85bc 3e30 a8ba 2a66 b4bd 2cba f63c
00000230: 2fc4 c23b 2bfb 50bd 0f1b 82bd d24c ca3d
00000240: 91b7 093e 574d 8abd a620 d53c 1f90 703d
00000250: cd68 90bd 040d 70ba 338c 2dbd d4cb d5bb
00000260: 4398 803c 02ec c93c 23f7 cabd 83dd 623c
00000270: 266a 443c 1fe4 a8bd a99f 9b3c 3980 02bc
00000280: d33b 01bd 0970 53bd e39a 63bc 80a8 3a3d
00000290: bd70 163c eb58 d93d 474e afbb a6a7 d1bd
000002a0: 7881 4bba d870 4ebd ffb2 183c 6053 0a3c
000002b0: 7b8f ffbd 7ca7 bbbc 898b 063b b118 0fbd
000002c0: d18a 9f3c 2ec6 72bd 191c 19bd 6ceb abbc
000002d0: ec14 9b3c 7661 4b3d 72ed 69bd 6749 9dbd
000002e0: 1510 0cbe 053a 5abd 863b 133e 0fea debc
000002f0: fee1 7cbd 8b26 ebbb c5c8 1bbd 91bb 21bd
00000300: 2d1e 363d 26fe 913d 91ff 92bd bcbd 2c3d
00000310: 6307 ef3c 3196 9fbd 829f 21bd c808 d1bd
00000320: 1f6f 9b3d 664a 3dbd c211 aabc 4c44 683c
00000330: 3b38 43bd 09af a2bd 4535 883d e7da 0dbe
00000340: aaaa 183c a0df 47bc fbd1 903d ce55 61bc
00000350: 1dc6 a5bd 30e3 c4bd 85a1 ecbd c47e a4bd
00000360: 456b 70bd f2d0 0abe 4d87 5bbe 2d36 efbd
00000370: 254a 99bd 68ad 563d d865 c03c 0957 263c
00000380: 73a1 813d b62f 273d 08a2 c0bc c7c6 11ba
00000390: aca2 d8bd 6732 873d de59 88bd e382 89bd
000003a0: 8c6f d7bc 94cd afbc 219f 50bd 522f e23c
000003b0: 9e09 98bd 5ce7 0bbd 6f30 873d 05a6 bb3c
000003c0: fafc 3cbd 0f14 babd f8b8 933d 7b7d 383d
000003d0: a118 ddbb ab58 9cbd 261c 93bd 5f85 8b3c
000003e0: 6cb9 79bc ff13 1b3d 9c59 9bbd 24e3 0bbd
000003f0: df3d 8abb 2e69 a2bd fa29 873c 7815 f73c
-0.078296594 0.037175298 0.0007917245 0.07933839 -0.015556627 0.0463916 0.00025674992 0.07122405
-0.079860464 -0.0090283435 0.064232625 -0.043657646 0.0023058378 -0.11287629 -0.030249227 -0.09934942
0.011401584 0.10468736 -0.14816388 0.054693356 -0.08311892 -0.15854812 0.037261162 -0.037635826
0.035605054 0.03407998 -0.00633346 -0.043108642 0.00020507393 0.0018126982 0.021574456 -0.015867637
0.03851468 0.030186752 0.023667075 -0.11172235 -0.028362615 0.017734656 0.0036894856 0.020414377
-0.03794231 0.020649577 -0.053027194 -0.030827504 0.014792567 0.075419515 -0.0019618126 -0.027262563
0.04758747 0.009340973 0.0045263004 -0.033024263 0.005543406 0.04789697 -0.011993078 -0.030934295
-0.066915065 -0.046269335 0.0165043 0.024760438 0.01870768 -0.0609293 -0.024504786 0.09211717
0.020931061 -0.03247674 0.047470238 -0.08545516 -0.027752565 -0.07441182 0.05313416 -0.10827153
0.0032787747 -0.08303064 -0.0058523733 -0.033642814 -0.026398921 0.06318862 0.06831972 0.02546888
-0.016558487 -0.050639138 0.044128127 -0.12858783 0.038844083 0.0628779 0.037886158 0.02918473
-0.006550832 -0.017961165 0.030752541 0.016886974 -0.0059647844 0.036446016 -0.049006354 0.0228569
0.020018417 -0.013106842 -0.09746213 -0.011375907 0.018113395 -0.052916437 0.026360754 -0.011247509
-0.043249007 0.019453064 0.042087417 -0.0870674 -0.04525164 0.0029399383 -0.012090629 -0.103460886
0.034657426 0.051627625 0.06615202 0.013537885 -0.17011987 -0.1698932 0.021260254 0.02432986
0.032690566 -0.019042222 -0.13404694 0.0075179753 -0.00060118665 0.052574597 0.054770034 -0.00068797683
0.05998564 0.02094764 0.055259317 0.0014339843 -0.08776052 -0.04092054 -0.008668603 0.03126707
-0.016345376 -0.001283176 -0.08808549 0.03011807 0.005943797 -0.051020782 -0.06352817 0.098779336
0.13448931 -0.06753033 0.026016545 0.058731195 -0.07051239 -0.0009157213 -0.042370033 -0.0065245423
0.015697604 0.02464867 -0.09910419 0.013846758 0.011988198 -0.08246636 0.01899703 -0.007965141
-0.031551193 -0.051620517 -0.013891908 0.04557085 0.009182152 0.10612663 -0.0053499076 -0.102370545
-0.0007763128 -0.050400585 0.00932002 0.00844273 -0.124785386 -0.022907011 0.0020529947 -0.034935657
0.019475373 -0.05927103 -0.03738031 -0.020986281 0.018930875 0.049653493 -0.05711121 -0.07680016
-0.1367801 -0.053277988 0.14378175 -0.027211217 -0.06173896 -0.0071762255 -0.038033266 -0.039485518
0.04446237 0.07128553 -0.07177652 0.042173132 0.029178327 -0.077923186 -0.03945876 -0.10206753
0.07589554 -0.04621353 -0.02076042 0.0141764395 -0.047661047 -0.079435416 0.06650785 -0.13853036
0.009318033 -0.012199312 0.070713006 -0.013753368 -0.08094428 -0.09613645 -0.11554245 -0.08031991
-0.05869605 -0.13556269 -0.21438332 -0.11680255 -0.07484845 0.052411467 0.023486063 0.010152587
0.06329622 0.040816985 -0.023514763 -0.0005560931 -0.10577902 0.0660141 -0.06657766 -0.06714418
-0.026298307 -0.021460332 -0.050933007 0.027610455 -0.07423709 -0.03415619 0.06601035 0.022906313
-0.046139695 -0.09085857 0.07213014 0.045041543 -0.0067473208 -0.076340996 -0.07183103 0.01703137
-0.015241962 0.037860867 -0.07585451 -0.034152165 -0.0042188014 -0.07930218 0.016499508 0.030161604

sequential_5/conv2d_22/Conv2D f4 [64, 3, 3, 32]
00000000: a4c1 0cbd a753 0cbd 9370 03bd 5705 19bb
00000010: 740d af3d 3a96 603b 0311 88bc 643d a43d
00000020: 6a3b 043e 370f a3bc dda0 4fbd 7d8b c03d
00000030: a163 4fbe dfb2 423d 530b bf3d bc0e ee3c
00000040: 4c0d 07be 6885 38be 44a2 023c fa1a 0b3e
00000050: 79ff 31be fd0b 77bd 6c43 9abc df73 e43d
00000060: 331e febc 3442 4c3d cac5 02be 5e37 333d
00000070: 51df d63d 7f0e 113e 0d74 9dbd 608a a93d
00000080: d7e2 cbbc 585b 1dbc ee28 4fbd 7da4 ed3d
00000090: 0de0 99bb d84a a13d 626c ea3c d9a4 8a3d
000000a0: 0cbf ef3c 7932 b4bd 14a4 10bd c3f4 9b3d
000000b0: 5062 a1bc cf83 06bc 0e08 0dbb 87d5 b0bc
000000c0: da2e 953d 2ef1 1c3c b7ef f53c a3a1 e43b
000000d0: 8b0c 8abd f107 44bd ea56 e6bc 5581 bebc
000000e0: d0c1 953c 99a2 f03b 7279 72bc 5ef0 5abd
000000f0: 56c7 5c3d 5b8c 853d 2f96 02be 439e f43d
00000100: 970e 81bc 3ecf 1fbd ee0e 61bd fdbb 913d
00000110: 35b9 ccbd 12de 523c 92d0 53bc fe0e 353d
00000120: 7b64 cf3c 1746 eabc 24c0 7f3c cb03 d53d
00000130: e4c8 ef3b b488 8ebd 2b37 ad3c 5ea8 db3c
00000140: ee38 3c3d e974 acbd abf5 213c d69f b43d
00000150: a002 03be deed 023d 177a 0c3e 6986 afbd
00000160: a9a8 d83c 219e 7a3c 3224 18be deb1 c6bc
00000170: a781 423d 8a15 593d d29b c7bd f6ff 9e3d
00000180: c56a 8c3c e648 a13d 6a63 aabd dd1a 7ebd
00000190: f41b d73b f963 22bd 1eba 343d 1fb8 083d
000001a0: 2c6c e63c 1bea 64bc e566 15bd f5a1 86bb
000001b0: 28a7 fdbd c734 bcbc 37f0 85bd 3ea4 083d
000001c0: 1ac0 2ebe 8c81 bfbd 4e67 0bbd b570 663d
000001d0: c950 c7bd f372 0c3c acbc a23b 3afd f7bc
000001e0: a7f8 c9bc 4f8c 9a3a 1a83 5dbc 52e0 be3c
000001f0: e9f8 fe3c 159d 143d 25b3 cd3c 1364 873c
00000200: aa16 80bc d6b4 733c 27f6 95bd f447 94bd
00000210: ebf0 1f3d 3776 853c 22f7 9a3d d400 243d
00000220: e0d9 b53c 23a2 55bc a764 df3c 85d0 e0bb
00000230: 659d 97bd 8582 d93b f81b b3bb 44aa 1e3d
00000240: f6aa 623c 0492 abbd aa3b d9ba 2358 e23d
00000250: d3ab 1e3d 4e30 fc3d f40e 5cbe 1540 e23c
00000260: ecdd 483b 250f c1bc ffb0 d2bc 6feb aabc
00000270: b52a 1d3c 87ae 7f3d fce6 2f3d 9dd2 8a3d
00000280: 2d90 00bd c4ed 9bbd b752 cabc 89b4 df3c
00000290: 1ed0 82bb 3c5d 32bc aa6f 10bd a192 60bd
000002a0: 3bc1 1ebc afdf b43c a3f5 243d 0c10 cabc
000002b0: ffa9 dd3b e0d9 b33d 997e 053c 6b6e d8bc
000002c0: 6dc2 ffbb 7597 cbbc ed29 96bd d7e3 623d
000002d0: 4133 2c38 1a7d 6fbc 7643 5cbc 72e6 80ba
000002e0: b3f4 113c d7f0 553d bb0c 0bbd 0b18 0abc
000002f0: 6e71 233d 5fff 963a 01b2 ba3c 7f70 3b3c
00000300: b51f aebd 8078 b53b 861e 00be ba52 09bd
00000310: 16fc 493c 91f1 ddbd 668f 233d 5d19 1f3d
00000320: 4daa 0a3e a259 2cbd c3ba c5bc 1814 653d
00000330: a9b6 123c 136a 0ebd d5f4 1e3c c63c 57bc
00000340: 27c0 3abe 66d8 a2be 5cba adbd 6319 833b
00000350: d5f5 66bd 35bd 26bc 04e3 b2bd 3cef 23bd
00000360: 2a76 43bd 7c00 4f3d 159f fabd 4084 c03d
00000370: e4e4 663d f330 5bbc ec53 24bd d2cc 463d
00000380: 1ada ed3a db0f 743d 875e 363c da7c 85bd
00000390: 744a 0bbe 9d92 e73c b564 fa3c 748d b33c
000003a0: d010 5ebc 55e8 d23c fee2 a83c 6d66 27bd
000003b0: d2d0 ca3c 5fb1 febc 00ce b23c 9074 dabc
000003c0: 0b42 53bc c3ca 43bc af7c 083d 84a8 43bd
000003d0: 0843 7a3d 3217 973c 564b b83c 5ad1 223d
000003e0: 35cd 663b f4b1 f4bc afd0 ec3c c847 a2bc
000003f0: 9a9a cfbb 832e 06bd 2bce 143d 9052 473b
-0.034364358 -0.034259465 -0.03208978 -0.002334913 0.08547488 0.003426923 -0.016609674 0.08019522
0.1291329 -0.019904716 -0.05069052 0.09401605 -0.20252849 0.047533866 0.09328332 0.02905976
-0.13188666 -0.1801964 0.007973257 0.1358451 -0.17382611 -0.060314167 -0.018830977 0.11154913
-0.03102026 0.049867824 -0.12770763 0.043753974 0.10491813 0.14165686 -0.076881506 0.08278346
-0.02488844 -0.009604298 -0.050576143 0.11603639 -0.0046958984 0.078756034 0.028616134 0.067697234
0.029265903 -0.087986894 -0.035312727 0.07615044 -0.0197002 -0.008210137 -0.0021519694 -0.021586193
0.07284327 0.009578986 0.030021532 0.0069772764 -0.06740674 -0.047859136 -0.028117616 -0.02325503
0.018280894 0.007343602 -0.014799463 -0.05345189 0.05390104 0.06520911 -0.12752603 0.119442485
-0.015754027 -0.039016 -0.05494588 0.07115934 -0.09996263 0.0128703285 -0.012928145 0.04420375
0.025316468 -0.028597875 0.015609775 0.10401114 0.007317649 -0.06959668 0.02114447 0.026813682
0.04595273 -0.08420736 0.009885232 0.08819549 -0.1279397 0.03196513 0.13718449 -0.085705586
0.02644761 0.01529649 -0.14857557 -0.024254736 0.047486927 0.052999057 -0.09746517 0.077636644
0.017140755 0.078752324 -0.08319743 -0.062037338 0.0065646116 -0.039646123 0.044122808 0.033378717
0.028127752 -0.013971831 -0.03647508 -0.0041086623 -0.12385398 -0.022974385 -0.06539958 0.03335976
-0.17065468 -0.09350881 -0.034034066 0.05625983 -0.097322054 0.008572328 0.004966339 -0.030272115
-0.0246547 0.0011791083 -0.013520027 0.023300324 0.031124549 0.036282618 0.025109837 0.016527211
-0.015635807 0.014874658 -0.073223405 -0.072402865 0.039048117 0.01629172 0.07566668 0.040039852
0.022198617 -0.013039145 0.027269674 -0.006860795 -0.074030675 0.0066378736 -0.0054659806 0.038736597
0.013834706 -0.0837746 -0.0016573567 0.11051967 0.038738083 0.12313901 -0.21490079 0.027618447
0.0030649854 -0.023566792 -0.025719164 -0.020864217 0.009592702 0.0624223 0.042944893 0.067784525
-0.031387497 -0.076137096 -0.024697645 0.027307766 -0.0039920947 -0.010886487 -0.03526274 -0.054827336
-0.009689624 0.022079317 0.04027332 -0.024665855 0.00676465 0.08781791 0.008147859 -0.026419839
-0.00780516 -0.024852494 -0.073322155 0.055393066 4.105573e-05 -0.014617229 -0.013443818 -0.0009834303
0.0089084385 0.052231636 -0.033947688 -0.008428584 0.039903097 0.0011520198 0.022789957 0.011440395
-0.085021414 0.0055380464 -0.12511644 -0.03352616 0.012328168 -0.10837091 0.039931677 0.038842548
0.13541527 -0.042077668 -0.024136906 0.055927366 0.008954682 -0.03476913 0.009701927 -0.013137048
-0.18237363 -0.31805724 -0.08482811 0.004000829 -0.056386787 -0.010176946 -0.08734706 -0.040023074
-0.047720112 0.05053757 -0.12237374 0.09400225 0.05637063 -0.01337837 -0.040119097 0.048535176
0.0018146664 0.059585433 0.0111309355 -0.06517954 -0.1360262 0.028268153 0.030565599 0.021918036
-0.013553813 0.02574555 0.02061605 -0.040869165 0.024757776 -0.031090437 0.021826744 -0.02666691
-0.012894164 -0.011950198 0.033322033 -0.04776813 0.061099082 0.018443678 0.02249686 0.039750434
0.0035217528 -0.02987001 0.028908102 -0.019809619 -0.0063355686 -0.0327592 0.03632943 0.0030414201

sequential_5/conv2d_23/Conv2D f4 [64, 3, 3, 64]
00000000: f911 1a3d 9edd 1a3d d37a d4bd 8417 1e3d
00000010: 83c3 9d3c 76e6 703d 45de f43c 2517 1c3c
00000020: b0dd 2abd 1cd2 53bd 4a4f 1f3d 921b 5fbd
00000030: e46a ad3c 6e0a 913d 4195 0f3d ac25 9fbd
00000040: bf51 703d 9aaa acbd df7a b5bc a47d 9bbd
00000050: 2810 6c3d 7594 07bc 4bb4 9f3d b096 a43c
00000060: adcb 14bd 7700 87bd ec84 523d 7d98 d13c
00000070: 89d9 2fbd a04d 61bd 6aa4 473d 965a e73c
00000080: 51cc f6bd 38b9 023e 29f1 b13a 39b6 0dbc
00000090: aa31 523c 66f4 433d 2354 1ebe 66d6 9b3c
000000a0: 9688 d6bc b74c 7c3b 55c0 b33d 0a59 263d
000000b0: 3759 49bc 02da 0bbd 7398 043d 2a6c 24bd
000000c0: 073b 1a3b 6cd1 51bc d4a0 203d 0f85 19bc
000000d0: 3126 0f3e b055 eebc 69cb 923d 06ec cabd
000000e0: 5685 ef3c edc1 643d d7e7 08bd 3457 47bd
000000f0: b6ec d2bd dbcf d13d 220a 183b 0990 dabd
00000100: baa8 9fbc 5e76 2c3d 3bd9 50bd 2250 cd3c
00000110: 64d9 03bd 66a0 ac3d 8e62 40bc f3c4 b83c
00000120: 2ca5 cabd 0f22 f13c 166e a33c ac4c db3c
00000130: d3f5 a43d 61ab 773c 9ddd 333d 0a1d 09bd
00000140: 6b83 553d 1266 a0bc 9759 363b 33d6 1d3c
00000150: c614 ab3a 4a13 aabd b5e5 dfbb 8b2c cd3b
00000160: 0e7d 293d b730 863c 5ae5 a43d 6244 a13c
00000170: 7b67 dcbb 7423 b53d b73e 9abd adc5 163c
00000180: c341 0f3d 0481 e53b 0560 4fbd e933 3fbd
00000190: 8343 413c ca6a 2bbc ab4f 8abd ab9f 3ebd
000001a0: 0403 eabc 35f5 a83c be9b 633c 2838 75bc
000001b0: 6544 95bd 1c82 c0bc 0c49 1fbc 7a20 bcbc
000001c0: 7599 18bd d60c eabc a272 253b bf98 87bd
000001d0: d069 033d 60bf b7bc 395e e7bc fccc 1bbd
000001e0: adcc 54bb 08e8 f2bc e5bd f63b f7bb 083d
000001f0: 255f 863c 2125 803c 0c05 0ebc a1f4 c6bd
00000200: a00e 883c e131 7b3d 8712 dfbb fb80 603c
00000210: 8fc3 0fbd 3c23 9b3c 2adb 383d 06bb fd3c
00000220: 3dbd 4c3d 7c8a 09bd ab34 3e3d eea8 153d
00000230: d37b 473d ef72 ed3c dee3 f83c d43b ec3c
00000240: 9980 7d3c 5097 ebbb 1a22 86bc d767 f8bb
00000250: c2d2 9039 c2d6 a33b a979 03bd b647 cc3c
00000260: 3cae 3c3d 2796 263c 9709 b03d 9059 123d
00000270: 814e 2d3c 251a 023d 8f43 dabc 94d8 3a3d
00000280: 419c 64bc 8a6e 613a e3e6 b03d 6c40 533d
00000290: 7334 7b3d 752a 2ebc 449d bdbd a323 4d3c
000002a0: 60ad ee3c 11e9 3c3d 1041 f73c c46d 85bc
000002b0: b3e8 0e3d a4af 2e3d 4e56 68bd 11b8 1fbd
000002c0: c692 3b3c 8b0f 1b3d 8314 143a 15c5 1dbc
000002d0: c3f7 673a bef0 c23c eb12 023d 3e80 adbd
000002e0: b643 1dbd df8a dfbc 32a4 3d3b 359e d73c
000002f0: 2251 4bbd 6c92 a1bd 3d33 1a3b 5cf3 1a3d
00000300: 758c 983d 5fa3 91bd 2d25 8fbd 7d8a a6bd
00000310: d25e a9bc 5c65 e63c 975e d53c f7e9 b93d
00000320: 1844 64bb 6dbf 44bd 30e0 593d ec67 9f3d
00000330: f83a a43c b936 1d3c bbe6 0bbd 9055 7f3c
00000340: 5648 09bd 125c a33c 0d68 9cbb ace4 0b3d
00000350: ce33 03bb acc8 acbd 939c 863d f2cf 773d
00000360: 571f ba3d 2e92 46bc efa5 e63c 9a0b 9f3c
00000370: 1274 193d 4ed5 2bbd f88a 4d3c 44e9 b2bb
00000380: 2c3d 73bc a02e 223e 3a17 f03c c84a 8a3c
00000390: 6e50 7cbc 8ae0 333d 2a63 e4bd 0263 75bd
000003a0: 0a28 3d3d 407c 41bd 0646 8a3c 597d 873d
000003b0: e7f4 623c ec91 f13c 770c 99bd 3a71 74bb
000003c0: 9c46 7cba 1489 89bd 4346 b8bd 045e ccbc
000003d0: bb02 d43b c311 2ebd de2d 7c3d 00e2 98bd
000003e0: 2dea eeb8 46fc 813d cfe0 d0bd b1b2 2fbd
000003f0: 40c8 76bd 48b1 3cbc 26bf 21bd b072 313b
0.037614796 0.037809007 -0.10374989 0.038596645 0.019258266 0.058813535 0.029891143 0.009527002
-0.041715324 -0.051714048 0.038893975 -0.054469652 0.021169133 0.070820674 0.03505445 -0.07770857
0.05867171 -0.08430977 -0.022153316 -0.075923234 0.057632595 -0.008275141 0.0779806 0.020091385
-0.036327053 -0.065918855 0.051396295 0.025585407 -0.042932067 -0.05500567 0.04874078 0.028241437
-0.12050689 0.12765968 0.00135759 -0.008649402 0.012829224 0.0478405 -0.15461783 0.019023132
-0.026188176 0.0038497874 0.08776919 0.040612258 -0.012289337 -0.034143455 0.03237195 -0.040142216
0.0023533718 -0.012806278 0.039215878 -0.009370103 0.13979413 -0.029093593 0.07167704 -0.09908299
0.029238384 0.055849005 -0.033424225 -0.048667148 -0.10299055 0.102447234 0.00231994 -0.10672004
-0.019489635 0.04210507 -0.050988417 0.025062624 -0.03218974 0.08429031 -0.011742247 0.02255485
-0.09894785 0.029435186 0.019949954 0.026769958 0.080547 0.0151165435 0.04391252 -0.03347496
0.052127283 -0.01957992 0.0027824396 0.009633589 0.0013052456 -0.0830446 -0.006832803 0.0062614135
0.041379027 0.01638065 0.08051558 0.019685928 -0.006726203 0.08844653 -0.07531493 0.009202403
0.034974825 0.0070039053 -0.05062868 -0.046680365 0.011795881 -0.010462472 -0.06753477 -0.04653899
-0.028565891 0.020624736 0.013892112 -0.014967002 -0.07288436 -0.023499541 -0.009722006 -0.022964705
-0.037255723 -0.028570574 0.0025245328 -0.06620931 0.032083333 -0.022430122 -0.028243171 -0.038037285
-0.003247063 -0.029651657 0.0075299614 0.033382382 0.01640279 0.015642704 -0.008668195 -0.09714628
0.016608536 0.061326865 -0.0068076286 0.013702626 -0.03509861 0.0189377 0.045130886 0.030972969
0.04998516 -0.033579335 0.046436947 0.036538057 0.048702072 0.028985469 0.030382093 0.028837122
0.015472555 -0.0071896687 -0.016373683 -0.007580738 0.00027622847 0.0049999664 -0.032098446 0.024936538
0.0460646 0.010167635 0.08595579 0.035729945 0.010577799 0.031763215 -0.026643543 0.0456167
-0.013953269 0.00085995405 0.08637788 0.05157511 0.061329316 -0.01063024 -0.09258512 0.0125207035
0.029135406 0.046120707 0.030182391 -0.016287692 0.034889888 0.042647973 -0.05672293 -0.0389939
0.011448568 0.03785662 0.00056488084 -0.009629508 0.000884887 0.023796435 0.031756323 -0.08471726
-0.038394652 -0.027287899 0.002893698 0.026320556 -0.04963792 -0.07889256 0.0023529076 0.03782974
0.07448665 -0.07111239 -0.069895126 -0.08131883 -0.020675097 0.028124504 0.02604608 0.090778284
-0.0034830626 -0.04803412 0.053192317 0.077834934 0.02004765 0.009595566 -0.03415559 0.0155843645
-0.03351625 0.019941363 -0.004773146 0.034153625 -0.0020019892 -0.084367126 0.06572833 0.060501046
0.09088009 -0.012119813 0.028155295 0.019414712 0.03746421 -0.04195147 0.01254534 -0.0054599363
-0.0148461275 0.15838099 0.02930795 0.016881362 -0.015400035 0.04391531 -0.111517265 -0.059908874
0.046180762 -0.047237635 0.016879093 0.06615705 0.013852335 0.029488526 -0.074730806 -0.0037298934
-0.0009623559 -0.06715599 -0.08997776 -0.024947174 0.006470052 -0.042497408 0.06156718 -0.07464981
-0.00011392343 0.063469455 -0.10199129 -0.042895023 -0.060249567 -0.0115168765 -0.039488934 0.0027076416
