quandrant_models/trained_model_bottomleft.tflite (tflite, 341960 bytes, 12 tensors)

sequential_6/dense_13/BiasAdd/ReadVariableOp f4 [10]
0.006468632 0.1884102 -0.11575946 0.07137429 0.04810037 -0.2015862 0.1851823 0.08075488
-0.023081737 -0.099108756
00000000: d1f6 d33b 9aee 403e 4c13 edbd af2c 923d
00000010: e504 453d 9d6c 4ebe 6ea0 3d3e d162 a53d
00000020: e915 bdbc 88f9 cabd

sequential_6/dense_12/BiasAdd/ReadVariableOp f4 [256]
0.17617439 0.07013549 0.072559796 0.0049506547 0.10478671 0.033683065 0.156629 0.21263951
0.020891383 0.18736637 0.23707373 0.12300664 0.055467963 0.030174967 0.22658959 0.15336226
0.14479244 0.009150289 0.061811727 0.03760792 0.13889092 0.008458504 0.14683692 0.21147689
0.091282934 0.1438366 0.08251304 0.1289239 0.08708246 0.10732965 0.11298779 -0.01591336
0.24257463 0.1995938 0.10761832 0.059325494 0.023413647 0.12184739 0.17339599 0.17087345
0.16424307 0.13355097 0.13415179 0.029066889 0.011391622 -0.037264027 -0.041054025 0.106661014
0.11354052 0.098861076 -0.009367299 0.07042357 0.10693351 0.086229585 0.006384147 -6.154398e-06
0.099208124 0.017203568 0.09283654 0.11462626 0.07469536 0.059569284 -0.047600284 0.18018568
0.10219272 0.17744133 0.13870852 0.1921359 0.09092966 0.039582364 0.14361733 0.22540523
0.020459091 0.0969556 0.085863456 0.15072188 0.17420793 0.039416004 0.047042616 0.03216044
0.15663111 0.15623589 0.06431982 0.1982074 0.09964736 0.028021753 0.060636092 0.16461436
0.117980614 0.076283984 0.13468589 0.023542402 0.23642898 0.03526258 0.16015182 0.24916947
0.13545023 0.061616432 0.15280956 0.16661468 0.16131654 0.25440747 0.2590693 0.15512273
0.1771619 -0.057825796 0.028856467 0.096418 0.11349557 0.10944709 0.021465369 -0.03243972
0.011358616 0.13529731 0.10792158 0.072898164 0.13609314 -0.048348296 0.09390123 0.03943678
0.08837695 0.228657 0.21522398 0.20870754 0.26666805 0.0904557 0.033501547 0.03144105
0.0018339765 0.29971886 0.175046 0.11519143 0.26018766 0.13706589 -0.0033847895 0.044896267
0.11309648 0.21808231 0.07329907 0.13299118 0.17506702 0.102897115 0.157681 0.117423244
0.087882124 0.25613725 0.11107568 0.12280239 0.047288794 0.14777865 0.044650372 0.19707796
0.15941979 0.19687857 0.06636557 0.19312426 0.13721894 0.15584151 0.08255461 0.10472054
0.0065563386 0.043151468 0.14701848 0.1723464 0.103461 0.083105765 0.06194923 0.004870426
0.10961396 0.18879776 0.039354444 0.103044875 0.15246482 0.16450635 0.07611253 0.12214152
-0.0100291 -0.010437168 0.07739256 0.11425279 0.1284033 0.013151257 0.17370413 0.051785525
0.11831534 0.18800959 0.12941536 0.055298284 0.12370629 0.26093525 0.07718378 0.13915516
0.06264542 0.118260026 0.093900986 0.08755865 0.08693011 0.019425262 0.15125406 0.1724552
0.16810629 0.022863176 0.18410558 0.07965014 0.026508804 0.17928219 0.042810105 -0.015802393
0.008306521 0.011191092 0.13116843 0.08448558 0.04951103 0.20907682 0.019498805 0.1369396
0.06945291 0.088379934 0.12076321 0.08638716 0.15109748 0.08477488 0.10031537 0.1652042
0.19179279 0.20015043 0.1377873 0.123949215 0.046910465 0.03349155 0.097545624 -0.10022523
0.004046379 0.13030183 0.21157293 0.05255795 0.062690176 0.12098754 0.19794264 0.1731237
0.13824633 0.13985491 0.19285204 0.10950274 -0.12964149 0.0018241154 0.07904611 0.20494722
0.17378065 0.010511629 0.0871834 0.18163992 0.06610979 0.07319667 -0.013475485 0.05422697
00000000: 0f67 343e 32a3 8f3d 3b9a 943d 1a39 a23b
00000010: 6a9a d63d 41f7 093d 5a63 203e 2cbe 593e
00000020: 6824 ab3c f8dc 3f3e 75c3 723e e8ea fb3d
00000030: 6032 633d 7e31 f73c 1a07 683e ff0a 1d3e
00000040: 7844 143e 18eb 153c 4b2e 7d3d c30a 1a3d
00000050: 6c39 0e3e 8a95 0a3c 6b5c 163e 668d 583e
00000060: 8cf2 ba3d e749 133e 99fc a83d a004 043e
00000070: 4a58 b23d a6cf db3d 2466 e73d bc5c 82bc
00000080: 7c65 783e 5162 4c3e fe66 dc3d 4aff 723d
00000090: facd bf3c 208b f93d b88e 313e 73f9 2e3e
000000a0: 562f 283e 96c1 083e 165f 093e af1d ee3c
000000b0: eda3 3a3c 2aa2 18bd 4428 28bd 1771 da3d
000000c0: ef87 e83d ad77 ca3d 4d79 19bc 3c3a 903d
000000d0: f5ff da3d 2399 b03d 1b32 d13b e081 ceb6
000000e0: a12d cb3d 7fee 8c3c 1521 be3d 2cc1 ea3d
000000f0: e2f9 983d ecfe 733d 84f8 42bd 9882 383e
00000100: 6b4a d13d 2eb3 353e 9b09 0e3e 46bf 443e
00000110: 5439 ba3d 1e21 223d 6c10 133e a1d0 663e
00000120: d399 a73c a890 c63d 2ed9 af3d d656 1a3e
00000130: 9063 323e ad72 213d c2af 403d aaba 033d
00000140: e863 203e 4dfc 1f3e 1cba 833d e1f6 4a3e
00000150: ea13 cc3d e08d e53c 8d5d 783d ab90 283e
00000160: d29f f13d c73a 9c3d 19eb 093e ffdb c03c
00000170: 701a 723e 7f6f 103d d7fe 233e 4826 7f3e
00000180: 77b3 0a3e 8361 7c3d 1c7a 1c3e 0a9d 2a3e
00000190: 2a30 253e b241 823e bba4 843e 7ed8 1e3e
000001a0: ee69 353e beda 6cbd 6664 ec3c cd76 c53d
000001b0: 5e70 e83d cc25 e03d 24d8 af3c 83df 04bd
000001c0: 7d19 3a3c 618b 0a3e fd05 dd3d a24b 953d
000001d0: 005c 0b3e dd08 46bd 4a4f c03d 7688 213d
000001e0: f9fe b43d 1025 6a3e ad63 5c3e 6eb7 553e
000001f0: b788 883e d740 b93d eb38 093d 55c8 003d
00000200: 0a62 f03a c074 993e 423f 333e 7ce9 eb3d
00000210: 5137 853e 005b 0c3e 58d3 5dbb 26e5 373d
00000220: 219f e73d f850 5f3e d31d 963d d72e 083e
00000230: c544 333e b9bb d23d 2177 213e 997b f03d
00000240: 8bfb b33d 6c24 833e a57b e33d d27f fb3d
00000250: e5b1 413d 4953 173e 4fe3 363d cece 493e
00000260: f13e 233e 899a 493e acea 873d 5ec2 453e
00000270: 1f83 0c3e eb94 1f3e 6412 a93d b977 d63d
00000280: 8ed6 d63b 98bf 303d 038c 163e 937b 303e
00000290: 5ce3 d33d 5b33 aa3d 7abe 7d3d 1898 9f3b
000002a0: 497d e03d 3354 413e 2032 213d 3109 d33d
000002b0: bd1f 1c3e 5a74 283e e3e0 9b3d 5525 fa3d
000002c0: 1851 24bc a800 2bbc fe7f 9e3d 5efd e93d
000002d0: 287c 033e 5f78 573c 7fdf 313e 0f1d 543d
000002e0: 504f f23d 9685 403e 7685 043e 7480 623d
000002f0: b959 fd3d 4e99 853e 8812 9e3d b17e 0e3e
00000300: 3e4c 803d 5032 f23d 294f c03d f351 b33d
00000310: 6a08 b23d ba21 9f3c 58e2 1a3e 1998 303e
00000320: 0e24 2c3e 8e4b bb3c 2c86 3c3e 9d1f a33d
00000330: fe28 d93c c095 373e a659 2f3d 0574 81bc
00000340: 1318 083c d85a 373c 0451 063e c706 ad3d
00000350: 14cc 4a3d 3c18 563e f5bb 9f3c e539 0c3e
00000360: 543d 8e3d 8a00 b53d b452 f73d c0eb b03d
00000370: 4cb9 1a3e 749e ad3d 2572 cd3d 4a2b 293e
00000380: 5465 443e 3cf4 4c3e 1d18 0d3e 16d9 fd3d
00000390: 3025 403d 6f2e 093d 00c6 c73d e342 cdbd
000003a0: 7d97 843b d86d 053e 93a6 583e 0147 573d
000003b0: b563 803d 51c8 f73d 7ab1 4a3e 5747 313e
000003c0: 7290 0d3e 2036 0f3e 017b 453e f942 e03d
000003d0: bdc0 04be 2817 ef3a ede2 a13d afdd 513e
000003e0: 8ef3 313e f838 2c3c 368d b23d d1ff 393e
000003f0: 9264 873d 23e8 953d 48c8 5cbc 191d 5e3d

sequential_6/activation_24/Relu;sequential_6/batch_normalization_24/FusedBatchNormV3;sequential_6/conv2d_24/BiasAdd/ReadVariableOp;sequential_6/conv2d_24/BiasAdd;sequential_6/conv2d_25/Conv2D;sequential_6/conv2d_24/Conv2D f4 [32]
0.37515816 0.14436084 0.37143368 0.15551904 0.85527235 0.21297257 0.36097494 0.25546855
0.21677178 0.28194356 0.2204434 0.507519 0.13393937 -0.95624226 -0.612511 -1.0403477
0.15513629 0.34587651 0.2880543 0.44710112 -0.88711804 -0.3032807 -0.8723957 0.2792339
0.24187842 0.15372036 -0.102554254 -0.034899965 0.46596038 -0.10766033 -0.5508267 -0.8504157
00000000: bb14 c03e 54d3 133e 8e2c be3e 6240 1f3e
00000010: 21f3 5a3f 7b15 5a3e b5d1 b83e c6cc 823e
00000020: 6cf9 5d3e e85a 903e eabb 613e c4ec 013f
00000030: 6727 093e 4bcc 74bf 85cd 1cbf 1d2a 85bf
00000040: 0cdc 1e3e ba16 b13e da7b 933e 70ea e43e
00000050: 2b1a 63bf 9c47 9bbe 5355 5fbf bff7 8e3e
00000060: faae 773e df68 1d3e f707 d2bd 44f3 0ebd
00000070: 5c92 ee3e 057d dcbd fb02 0dbf d8b4 59bf

sequential_6/activation_25/Relu;sequential_6/batch_normalization_25/FusedBatchNormV3;sequential_6/conv2d_25/BiasAdd/ReadVariableOp;sequential_6/conv2d_25/BiasAdd;sequential_6/conv2d_25/Conv2D f4 [32]
1.0232948 -0.070130244 -0.20811562 1.9141564 0.58480084 -0.19990295 -0.110792115 -0.06871121
0.77546823 1.1112336 0.34983873 0.43285367 0.714352 0.35879758 0.51721656 -1.3795979
0.318655 0.6317626 0.4730997 -0.6704079 -0.21058036 0.81787837 0.70915014 0.49232152
0.9695219 1.1199038 0.097027704 0.5975856 0.5130652 0.6186825 1.1158131 0.5404674
00000000: 53fb 823f 72a0 8fbd 431c 55be 1403 f53f
00000010: 82b5 153f 5cb3 4cbe fae6 e2bd 76b8 8cbd
00000020: 1685 463f e73c 8e3f 101e b33e ff9e dd3e
00000030: c6df 363f 51b4 b73e 4e68 043f aa96 b0bf
00000040: c026 a33e 32bb 213f 203a f23e da9f 2bbf
00000050: 61a2 57be 7a60 513f dd8a 353f 9111 fc3e
00000060: 9632 783f 0259 8f3f 76b6 c63d 5ffb 183f
00000070: 3e58 033f fa61 1e3f f7d2 8e3f 125c 0a3f

sequential_6/activation_26/Relu;sequential_6/batch_normalization_26/FusedBatchNormV3;sequential_6/conv2d_26/BiasAdd/ReadVariableOp;sequential_6/conv2d_26/BiasAdd;sequential_6/conv2d_27/Conv2D;sequential_6/conv2d_26/Conv2D f4 [64]
0.6066173 -1.0257038 -1.278161 0.67454636 0.07610719 -0.1745549 0.32586524 0.17113806
-0.09329054 0.029918306 -0.06842085 0.4616817 -0.13842082 -0.20335162 -0.078116 -0.9494728
0.05406481 -0.91243863 -0.18122798 0.085039884 0.8676281 -0.16428338 -0.83372295 -0.07179277
-0.5324794 0.12606883 -0.25519162 -1.3733848 -1.0009595 0.8453071 0.013381081 0.41803592
-0.6173896 0.10446028 0.23459601 -0.27165732 0.32370865 0.58243436 0.12450238 0.47640544
-0.1894063 -0.13464399 0.63508236 0.9166576 -0.48267803 -0.7909172 0.46115205 0.5472592
-0.0135517595 -0.68531847 0.36610752 -1.152044 0.84721446 0.44984928 -0.66179276 0.2764549
-1.6715741 0.10978601 -0.40193126 -0.25711727 0.4384639 0.25908613 -1.248878 -0.71456945
00000000: 454b 1b3f 434a 83bf c89a a3bf 12af 2c3f
00000010: 16de 9b3d 85be 32be cfd7 a63e d13e 2f3e
00000020: 1c0f bfbd 3c17 f53c 3b20 8cbd 8b61 ec3e
00000030: 30be 0dbe 683b 50be 48fb 9fbd a610 73bf
00000040: 1073 5d3d 9495 69bf d493 39be 6429 ae3d
00000050: e01c 5e3f e739 28be de6e 55bf 1608 93bd
00000060: 9250 08bf 3018 013e 7aa8 82be 13cb afbf
00000070: 711f 80bf 0c66 583f 523c 5b3c ce08 d63e
00000080: 3f0d 1ebf 45ef d53d f039 703e ab16 8bbe
00000090: 24bd a53e 6b1a 153f 1bfb fe3d 6aeb f33e
000000a0: baf3 41be 1de0 09be c294 223f 13aa 6a3f
000000b0: 9321 f7be 8d79 4abf 1f1c ec3e 2e19 0c3f
000000c0: 3308 5ebc 0871 2fbf 7272 bb3e 2e76 93bf
000000d0: 0ce3 583f a552 e63e 406b 29bf 7f8b 8d3e
000000e0: 24f6 d5bf 7dd7 e03d efc9 cdbe e0a4 83be
000000f0: 577e e03e f0a6 843e 3cdb 9fbf 06ee 36bf

sequential_6/activation_27/Relu;sequential_6/batch_normalization_27/FusedBatchNormV3;sequential_6/conv2d_27/BiasAdd/ReadVariableOp;sequential_6/conv2d_27/BiasAdd;sequential_6/conv2d_27/Conv2D f4 [64]
-0.07748261 -0.20371789 -0.052230895 0.028017417 0.050589453 -0.25047222 -0.3394863 -0.24726668
-0.006822415 -0.492808 -0.78638095 0.08037725 -0.22519106 -0.20836338 -0.26134846 0.0048292233
-0.5045465 -0.10521471 -0.059200175 -0.14429411 0.0045300103 -0.35986826 -0.26184735 -0.38377738
-0.2052872 -0.24592112 -0.3772913 -0.010860513 -0.4392115 0.24371803 0.3600521 -0.1309748
-0.24685621 0.29598287 0.1747347 -0.16041416 -0.03720487 -0.073947385 0.016044406 -0.18314886
0.11105214 -0.36164868 0.1320491 -0.5370251 0.19445728 -0.3127006 -0.6156045 -0.04170083
-0.44567978 0.14742559 -0.3009347 0.058358543 -0.3001008 -0.36322764 -0.027140606 -0.16806899
-0.049261827 -0.036225908 0.33166394 -0.36741892 -0.48784393 -0.28584605 0.20627974 -0.56333137
00000000: 34af 9ebd 6c9b 50be 10f0 55bd c884 e53c
00000010: e336 4f3d e53d 80be 26d1 adbe 7a33 7dbe
00000020: 918e dfbb 5551 fcbe 4350 49bf d49c a43d
00000030: 7c98 66be 365d 55be 77cf 85be 763e 9e3b
00000040: f629 01bf cf7a d7bd e27b 72bd d6c1 13be
00000050: 7b70 943b a740 b8be db10 86be 787e c4be
00000060: cf36 52be bfd2 7bbe 532c c1be 4bf0 31bc
00000070: 54e0 e0be 3891 793e c058 b83e 421e 06be
00000080: e0c7 7cbe 118b 973e a7ed 323e 9c43 24be
00000090: 2264 18bd ba71 97bd 8f6f 833c 608b 3bbe
000000a0: 4e6f e33d 042a b9be e137 073e 7a7a 09bf
000000b0: cf1f 473e 4b1a a0be 4298 1dbf 7dce 2abd
000000c0: 2430 e4be bcf6 163e 1d14 9abe 5e09 6f3d
000000d0: d0a6 99be f9f8 b9be fa55 debc 471a 2cbe
000000e0: c5c6 49bd 9e61 14bd dbcf a93e 551e bcbe
000000f0: aec6 f9be 6a5a 92be ff3a 533e 7c36 10bf

sequential_6/dense_12/MatMul f4 [256, 64]
0.28766903 -0.18866272 0.055173114 -0.06367703 -0.33292535 -0.049547624 -0.008913354 -0.105164394
-0.01663759 0.08928017 0.081511915 0.23639871 -0.13205503 0.16237034 0.14450575 -0.011337784
-0.30228385 -0.030687345 0.1148502 0.05228428 -0.18258837 0.24299796 0.029926617 0.13013884
0.017669847 0.16494706 -0.09333713 -0.079508394 0.074527316 0.018341135 -0.3457461 -0.066818185
0.0031461855 -0.3538673 0.01702724 0.19774923 -0.26331276 -0.09039891 0.055890385 -0.5050846
-0.12488138 -0.093361005 -0.13142522 -0.5746558 0.07959889 0.038273275 0.1152474 -0.065021314
-0.33682013 -0.084580734 -0.18007122 -0.52636874 0.16420153 0.046751745 -0.34088352 -0.10150472
-0.41659003 -0.09660604 0.10885793 -0.19164129 -0.120881066 -0.06023874 0.16914088 0.03271413
-0.19041209 -0.49916717 -0.024600318 -0.4043323 -0.18313956 -0.14659873 -0.19715217 0.12759466
-0.0052747508 0.05521813 -0.23856057 -0.38657677 0.016812492 0.07193928 -0.19813578 -0.4392497
0.019166075 -0.18118961 -0.1881583 0.04734145 0.11342971 0.040941358 0.12092299 0.0925086
0.052441493 -0.2682236 -0.0136359455 0.121034406 0.020513529 0.044274934 -0.3022963 -0.061455365
-0.06809508 -0.18200862 0.05862316 -0.35563186 0.030697947 -0.5948436 -0.11984169 0.018873625
0.075354524 -0.16271193 -0.010053161 0.19205691 -0.11437606 0.044269428 0.10195666 -0.017380487
0.17996015 0.09965576 0.22215556 0.17996484 0.13862325 -0.09851267 -0.08456191 -0.042232238
0.35457745 0.30724576 0.0042521297 0.1817803 0.0032901093 0.0637147 -0.46590662 -0.20464219
-0.2896021 0.160682 -0.034618527 0.15421166 0.1504236 0.4154555 -0.008548852 0.087494
-0.05966818 0.0013306652 0.072708294 -0.042465232 0.30306876 -0.10922937 0.063545376 -0.074502155
0.0071852063 -0.015021347 -0.008093941 0.07744267 0.029549962 -0.17613238 -0.051689718 0.028114956
-0.319954 -0.16475858 -0.17537495 0.12754974 -0.2688595 -0.1330862 0.113678955 0.057465144
-0.17089017 0.16441336 -0.06919664 -0.013068698 0.20534347 0.09257386 0.017380387 0.45052305
-0.1448393 -0.039317016 -0.296951 0.30729258 0.07681786 -0.128724 0.011153147 0.1732828
0.27218008 -0.1566703 -0.0413498 0.1359146 0.07421315 0.18592288 0.24951433 0.21554972
0.033167724 0.049423065 -0.36970943 -0.0164186 0.051315457 -0.117856614 -0.18673278 0.11086384
-0.73400676 0.022626482 0.00696135 -0.052590404 0.12695645 -0.004159309 -0.018625785 0.17212147
-0.30422357 -0.047099415 -0.062008023 0.038289927 -0.28981888 -0.2548862 -0.052447572 -0.33250612
-0.013628425 -0.17321138 0.104223 0.12091861 -0.032543655 -0.10903081 -0.19657412 -0.2721776
-0.024690824 -0.2188352 -0.2930677 -0.12346893 -0.17083693 -0.15242992 0.10959956 -0.34955877
0.014373912 -0.011568292 0.21845183 -0.0883223 0.056275766 0.19263934 0.09424111 -0.35231838
0.05154311 0.13404658 0.010843813 -0.009250153 0.26286075 -0.10161069 0.082046434 -0.3968507
0.22399476 -0.016287297 0.20130916 -0.12279632 0.00732389 -0.0857091 0.3487324 -0.25256714
-0.07679703 0.06633236 -0.3119464 0.039519034 -0.2868191 -0.28294712 -0.21567804 0.068607435
00000000: 5b49 933e cd30 41be 34fd 613d 1a69 82bd
00000010: 3175 aabe 73f2 4abd 5109 12bc 6e60 d7bd
00000020: 8e4b 88bc 86d8 b63d b8ef a63d 8112 723e
00000030: 6f39 07be 6944 263e 51f9 133e 1dc2 39bc
00000040: f3c4 9abe 0764 fbbc 9536 eb3d 0b28 563d
00000050: 72f8 3abe 75d4 783e aa28 f53c 1e43 053e
00000060: 5bc0 903c e2e7 283e 8a27 bfbd 4cd5 a2bd
00000070: c7a1 983d 2640 963c a205 b1be f9d7 88bd
00000080: 3c30 4e3b 182e b5be b67c 8b3c c67e 4a3e
00000090: eed0 86be 1023 b9bd 51ed 643d 394d 01bf
000000a0: cfc1 ffbd 0e34 bfbd 5594 06be a41c 13bf
000000b0: be04 a33d 70c4 1c3d d406 ec3d e529 85bd
000000c0: b073 acbe aa38 adbd 9764 38be 1ac0 06bf
000000d0: 7224 283e c27e 3f3d 4988 aebe b5e1 cfbd
000000e0: 4a4b d5be 63d9 c5bd e8f0 de3d 9d3d 44be
000000f0: 7e90 f7bd e6bc 76bd 4433 2d3e 40ff 053d
00000100: 63fb 42be d792 ffbe 9b86 c9bc a504 cfbe
00000110: f088 3bbe fa1d 16be 42e2 49be 2da8 023e
00000120: d1d7 acbb 682c 623d 3949 74be 64ed c5be
00000130: 5aba 893c e754 933d 1be4 4abe 56e5 e0be
00000140: 2c02 9d3c c589 39be 92ac 40be 1ce9 413d
00000150: d64d e83d 20b2 273d 79a6 f73d 2675 bd3d
00000160: e4cc 563d 9b54 89be 4d69 5fbc e3e0 f73d
00000170: fd0b a83c a259 353d 95c6 9abe 9fb8 7bbd
00000180: 6f75 8bbd 7860 3abe d71e 703d 6115 b6be
00000190: 437a fb3c ac47 18bf 8f6f f5bd dc9c 9a3c
000001a0: 7953 9a3d f59d 26be 03b6 24bc 91aa 443e
000001b0: ff3d eabd dc53 353d a7ce d03d 8661 8ebc
000001c0: 7947 383e 5218 cc3d bf7c 633e b448 383e
000001d0: 41f3 0d3e 03c1 c9bd cb2e adbd b6fb 2cbd
000001e0: 2d8b b53e 514f 9d3e 7355 8b3b 9d24 3a3e
000001f0: e09e 573b da7c 823d 508b eebe b98d 51be
00000200: ba46 94be d289 243e 28cc 0dbd a9e9 1d3e
00000210: a508 1a3e 95b6 d43e 7c10 0cbc 0e30 b33d
00000220: 9f66 74bd b769 ae3a 16e8 943d 06f0 2dbd
00000230: d42b 9b3e a6b3 dfbd 1424 823d 9694 98bd
00000240: e171 eb3b 191c 76bc 739c 04bc 439a 9e3d
00000250: c312 f23c 0c5c 34be 99b8 53bd 5651 e63c
00000260: 03d1 a3be 79b6 28be 7e95 33be 669c 023e
00000270: f4a7 89be c047 08be 83d0 e83d 9260 6b3d
00000280: d5fd 2ebe fa5b 283e f8b6 8dbd 181e 56bc
00000290: 8f45 523e 5d97 bd3d 5061 8e3c f5aa e63e
000002a0: c150 14be e10a 21bd f609 98be 7455 9d3e
000002b0: af52 9d3d 39d0 03be b0bb 363c 0c71 313e
000002c0: 305b 8b3e 2e6e 20be 685e 29bd 322d 0b3e
000002d0: 10fd 973d 9162 3e3e af80 7f3e 11b9 5c3e
000002e0: e1da 073d d76f 4a3d 8e4a bdbe 4d80 86bc
000002f0: 2830 523d cf5e f1bd e136 3fbe 950c e33d
00000300: dee7 3bbf 2c5b b93c 091c e43b 0969 57bd
00000310: df00 023e d04a 88bb 1a95 98bc 9c40 303e
00000320: 31c3 9bbe 51eb 40bd 20fc 7dbd e6d5 1c3d
00000330: 2463 94be 7280 82be 44d3 56bd 3e3e aabe
00000340: c249 5fbc 535e 31be de72 d53d 2da4 f73d
00000350: 7f4c 05bd 8c4b dfbd ba4a 49be dd5a 8bbe
00000360: 6944 cabc 5616 60be f80c 96be 47dd fcbd
00000370: e0ef 2ebe 9716 1cbe bc75 e03d 5ef9 b2be
00000380: 8e80 6b3c ef88 3dbc d6b1 5f3e 52e2 b4bd
00000390: 6b81 663d 3f43 453e 7c01 c13d 1363 b4be
000003a0: de1e 533d 8243 093e 40aa 313c f48d 17bc
000003b0: af95 863e 4419 d0bd f607 a83d 0430 cbbe
000003c0: e25e 653e f06c 85bc fd23 4e3e a37c fbbd
000003d0: 3efd ef3b 4188 afbd 0e8d b23e 7b50 81be
000003e0: c347 9dbd 43d9 873d 70b7 9fbe b6de 213d
000003f0: f4d9 92be 72de 90be b4da 5cbe 0e82 8c3d

sequential_6/dense_13/MatMul f4 [10, 256]
0.16840862 0.091547236 -0.37816912 -0.3807522 -0.64280814 -0.32108745 -0.10966485 0.04166017
-0.50894016 0.12542902 -0.50727063 -0.24594721 0.10148618 -0.09251933 0.123991504 -0.4990575
0.2013677 0.022978615 -0.46207717 -0.0013053416 0.015887206 -0.041672584 -0.15670434 -0.46232772
-0.4184788 0.2105053 -0.43510365 0.15287845 0.10526445 -0.6211956 0.111060634 0.14603637
0.024829412 -1.1950452 0.011101859 -0.65384924 -0.79722875 0.05359657 0.08861208 0.16972807
0.08786915 -0.12544042 0.033828232 -0.043623053 0.030869903 0.103830986 0.050395586 -0.5017584
0.042322975 -0.24298729 -0.2905568 -0.16850498 0.09671307 -0.30196568 -0.13144952 -0.31746176
0.00716598 -0.4699319 0.12334781 -0.13939562 -0.43977627 0.17296454 -0.46963602 0.12289607
0.22007668 -0.28180972 0.08392314 -0.33541888 -0.465654 -0.09511325 -0.07248757 -0.2156043
-0.4766733 0.1234315 0.09853265 -0.30814338 -0.6188078 0.05039829 -0.5335406 -0.39603883
-0.29435995 0.14538701 -0.30424917 0.24040887 -0.11321796 -0.33954173 0.049618404 -0.11623303
-0.08229962 -0.31609914 -0.23042123 -0.19159728 0.08320484 0.020939251 -0.53768355 -0.13130847
-0.7334385 -0.3657023 -0.9638261 -0.32752866 -0.07535819 0.19931306 0.009729399 -0.5546682
0.25743246 -0.05167976 -0.039370377 0.002860129 -0.37276223 0.14485857 -0.40572655 -0.19653524
0.02243568 0.1694141 -0.68186593 0.063732766 0.11211136 0.21529761 -0.1791977 -0.33993423
-0.06711055 0.15799561 0.07567351 0.01784158 0.029033951 -0.42791814 0.0034010068 0.18112248
0.23357435 -0.3378808 -0.27231795 -0.1998375 -0.027227512 -0.15609044 -0.2034037 0.07692085
-0.27367046 0.17813961 -0.5650694 0.11470772 0.21012735 0.18822846 0.16372052 0.006490621
-0.8741412 0.0027671685 0.13715543 0.23511146 -0.0048281895 -0.5727086 -0.101950474 0.12853114
-0.19828184 0.10941568 -0.691291 -0.37814495 0.05407074 -0.06876761 -0.65480614 -0.32523677
-0.72589785 -0.41414267 -0.32973737 -0.7104801 -0.12537281 0.046831317 -0.11627685 0.010538495
0.099099204 -0.07847664 -0.1639216 -0.24254318 -0.63590866 0.24771577 -0.2070124 -3.0534415e-05
0.17992611 -0.50777954 -0.5188226 0.17719242 -0.63032556 -0.30375376 0.010610298 -0.5605012
0.11767978 -0.25049165 -0.39763632 -0.3062964 -0.44081065 -0.61580527 -0.27735296 -0.16164853
-0.9323569 0.2089452 0.14319892 0.115235 -0.30875522 -0.35952863 0.08469651 -0.7399912
0.0058229724 -0.2578648 -0.083986506 -0.2525579 -0.40955052 0.031697523 -0.57387537 0.038061146
-0.10566311 -0.9525706 -0.16390555 0.12169941 0.14842509 -0.86933947 0.09414971 0.12527534
-0.14375749 0.035645485 -0.2604857 0.05414199 0.1545365 -0.42808747 0.14859161 0.03026897
-0.101377346 -0.7149154 0.06701024 0.23593003 -0.77796894 -1.1177876 -0.7332685 0.100786075
-0.11925767 -0.28409514 -0.45373765 -0.18710905 -0.34957802 -0.37669134 0.06611469 0.043507736
-0.6015302 -0.056778688 0.008361675 -0.47315383 -0.09550788 -0.024324086 -0.17789088 0.16181341
-0.07693871 -0.39151633 -0.41508183 -0.09970632 -0.17071465 -0.115762755 -0.23379827 -0.24682257
00000000: 4f73 2c3e 1e7d bb3d 629f c1be f4f1 c2be
00000010: 138f 24bf 9365 a4be f797 e0bd dba3 2a3d
00000020: e749 02bf 7770 003e 7ddc 01bf 96d9 7bbe
00000030: fdd7 cf3d c67a bdbd 42ef fd3d 7784 ffbe
00000040: 5633 4e3e a63d bc3c 6195 ecbe ff17 abba
00000050: e325 823c dfb0 2abd 1a77 20be 38b6 ecbe
00000060: da42 d6be b48e 573e e8c5 debe 2b8c 1c3e
00000070: e394 d73d ad06 1fbf c273 e33d 8f8a 153e
00000080: 0d67 cb3c 3ef7 98bf 92e4 353c aa62 27bf
00000090: 2f17 4cbf 1488 5b3d 407a b53d 32cd 2d3e
000000a0: bef4 b33d 7473 00be 798f 0a3d 16ae 32bd
000000b0: e1e2 fc3c 57a5 d43d 9a6b 4e3d 3d73 00bf
000000c0: db5a 2d3d a9d1 78be dcc3 94be 928c 2cbe
000000d0: 8111 c63d 3f9b 9abe b49a 06be 598a a2be
000000e0: 99d0 ea3b ea9a f0be c79d fc3d babd 0ebe
000000f0: 5b2a e1be 9e1d 313e 2274 f0be efb0 fb3d
00000100: c85b 613e 5d49 90be e5df ab3d 06bc abbe
00000110: 336a eebe bcca c2bd 5d74 94bd 60c7 5cbe
00000120: 860e f4be a7c9 fc3d 7ccb c93d f8c4 9dbe
00000130: 306a 1ebf 706e 4e3d 1e96 08bf 9ac5 cabe
00000140: 59b6 96be 55e0 143e 8cc6 9bbe be2d 763e
00000150: d1de e7bd 6ad8 adbe ab3c 4b3d 950b eebd
00000160: b48c a8bd bfd7 a1be 8bf3 6bbe 1432 44be
00000170: 4d67 aa3d cb88 ab3c a1a5 09bf ba75 06be
00000180: a0c2 3bbf 553d bbbe 4fbd 76bf d6b1 a7be
00000190: 6555 9abd b918 4c3e 0f68 1f3c bcfe 0dbf
000001a0: 30ce 833e 28ae 53bd d542 21bd 0171 3b3b
000001b0: b1da bebe ce55 143e 64bb cfbe 8940 49be
000001c0: 08cb b73c e47a 2d3e c48e 2ebf 5386 823d
000001d0: a49a e53d fa76 5c3e 9a7f 37be dc0b aebe
000001e0: 4271 89bd 9ac9 213e b7fa 9a3d 8128 923c
000001f0: 9cd8 ed3c 1618 dbbe 6de3 5e3b 2c78 393e
00000200: 1d2e 6f3e b6fe acbe 426d 8bbe 34a2 4cbe
00000210: 3b0c dfbc 2cd6 1fbe 0f49 50be ae88 9d3d
00000220: 891e 8cbe 3b6a 363e 63a8 10bf e2eb ea3d
00000230: a02b 573e f6be 403e 5aa6 273e 46af d43b
00000240: b8c7 5fbf 6259 353b 7972 0c3e 0fc1 703e
00000250: ca35 9ebb 089d 12bf 69cb d0bd ab9d 033e
00000260: 650a 4bbe 5415 e03d 72f8 30bf 379c c1be
00000270: 4879 5d3d 08d6 8cbd 60a1 27bf 6f85 a6be
00000280: 71d4 39bf 820a d4be 56d3 a8be 06e2 35bf
00000290: bb61 00be 32d2 3f3d 8f22 eebd a7a9 2c3c
000002a0: 86f4 ca3d 5cb8 a0bd 10db 27be 3d5d 78be
000002b0: e9ca 22bf 34a9 7d3e 0ffb 53be 1412 00b8
000002c0: 8d3e 383e d7fd 01bf 8fd1 04bf ee71 353e
000002d0: 045d 21bf 9d85 9bbe d1d6 2d3c 027d 0fbf
000002e0: 1902 f13d 7140 80be fd96 cbbe e2d2 9cbe
000002f0: efb1 e1be 6aa5 1dbf 3501 8ebe 3187 25be
00000300: f1ae 6ebf bbf5 553e bda2 123e 5400 ec3d
00000310: 2a15 9ebe 2314 b8be 5d75 ad3d 1070 3dbf
00000320: a2ce be3b db06 84be 1e01 acbd 454f 81be
00000330: 9bb0 d1be 43d5 013d 7fe9 12bf 01e6 1b3d
00000340: e765 d8bd abdb 73bf dbd6 27be 8a3d f93d
00000350: bffc 173e 088d 5ebf 90d1 c03d 2e48 003e
00000360: 2a35 13be 0001 123d 625e 85be fec3 5d3d
00000370: d13e 1e3e 482e dbbe 6628 183e a2f6 f73c
00000380: ed9e cfbd b204 37bf aa3c 893d a497 713e
00000390: f928 47bf aa13 8fbf 7cb7 3bbf ee68 ce3d
000003a0: 5e3d f4bd eb74 91be 4d50 e8be 8499 3fbe
000003b0: e4fb b2be b0dd c0be 2367 873d 2b35 323d
000003c0: e2fd 19bf c590 68bd 68ff 083c 3841 f2be
000003d0: a399 c3bd 4e43 c7bc 0729 36be 6ab2 253e
000003e0: 0b92 9dbd d474 c8be 9b85 d4be d432 ccbd
000003f0: d2cf 2ebe 0615 edbd d068 6fbe 0ebf 7cbe

sequential_6/conv2d_24/Conv2D f4 [32, 3, 3, 1]
-0.0079031065 0.014945595 -0.0072257677 -0.0072957533 0.01095905 -0.008064004 0.0006586942 -0.013820128
-0.0018549958 0.0025568053 -0.0002955477 -0.010375724 0.0012843059 -0.0007441392 -0.0025920384 0.0022561434
0.000617718 -0.00050897355 0.006852545 -0.0025962403 -0.014964245 0.0037688082 0.004809306 0.0014103622
-0.0010227659 0.0007443373 -0.009276503 -0.0005261012 0.0017126269 -0.009838308 0.0033248337 -0.0005225471
-0.001056811 0.0042538475 -0.0046191025 0.0007026616 -0.0026609248 0.013295121 -0.026560528 0.0035212399
0.011083004 -0.0014409454 -0.0029029015 0.0033908933 -0.0034867495 0.004208753 -0.0101729045 0.014792322
-0.0009645607 -0.014572797 -0.00899651 0.0016221113 0.0020414193 -0.0018296727 -0.00034033717 0.00872502
0.00053788215 -0.0062758643 -0.0045483685 -0.016013889 -0.002636241 0.0013562734 0.0021923957 0.0022531399
-0.00509427 -0.008273197 0.0051092817 -0.009477652 0.005342122 -0.0011954542 -0.0067200772 0.005023922
0.0034491718 -0.0032096049 0.003192899 -0.0025754578 -0.00115895 -0.01354682 -0.010149053 0.00551008
0.005723164 -0.0004355875 -3.7424952e-06 0.0027024015 0.0018349044 8.391423e-05 0.00072589365 -0.0061749644
-0.0016155229 -0.009350031 0.0020039624 -0.011651513 0.0012627507 -0.0035851542 0.0009801579 0.007316902
-0.0058393287 -0.0041802563 -0.0011614937 -0.0020664532 -0.00018698875 -0.017561106 -0.004157941 0.004612439
-0.0055570407 0.0024134428 0.0006070633 0.003563367 0.004388716 -0.004480155 0.0012848461 -0.0010572993
-0.0065128263 0.00026842786 -0.001288438 -0.0065343543 0.0016411836 0.0006594036 -0.00016351993 0.00756705
0.00044677968 -0.001791821 -0.002380498 0.00038238 2.6584077e-05 0.0022147947 3.0872605e-05 0.0014224689
0.0047108787 0.0009797008 -6.47373e-05 -0.0013069697 0.00054722646 -0.0018268185 -9.6307755e-05 -0.0007110606
-0.0019703242 0.0113798445 0.0010419667 -0.00016160442 -0.0010276653 0.00078086136 -0.001481079 -0.00023961351
-0.00017948828 -0.0010918068 -0.008833962 0.0012799337 -0.0013897533 -0.0011540676 0.0006381778 0.0049821087
0.004080302 -0.007854742 -0.0050693597 -0.0132215135 -4.3364587e-05 0.00300443 0.00941241 0.0018003356
-0.0030168379 0.004902182 0.0005619169 -0.0036935802 0.0023000392 -0.007425378 0.0010907729 0.01088409
-0.0007433971 -0.0071665645 -0.012079847 0.004084265 0.012163036 -0.013165016 -0.0007877885 -6.96316e-05
-0.0066631376 -0.002820247 0.004207508 -0.006050163 0.003003352 0.00054217904 -0.0021732324 0.0020156896
2.9494788e-05 0.0048548453 -0.0020834794 -0.0028435888 0.0034350557 0.002405155 0.0009076311 -0.006486504
0.002086377 0.0013408539 -0.0007669138 0.0024903372 -7.816459e-05 0.0017632379 0.0005694497 0.00073842873
0.0039522047 -0.0019531111 -0.0015867947 0.00078682083 -0.00034278378 -0.0009400328 0.0032693634 0.0029359467
-0.00077154976 -0.016270597 -0.0038978127 0.01031584 0.0068680234 0.0018939042 -0.0050562685 0.003631483
-0.004959428 -0.006532904 -0.0031599926 0.005589694 0.003994218 0.008840125 0.0022176376 -0.005981523
-0.010702393 -0.0012807836 -0.0065328777 0.0074667335 0.0051123383 -0.003609666 -0.0069719823 -0.004451506
-0.0071062716 0.004118349 0.00062809326 -0.004011641 0.015252291 -0.005461323 -0.0049368446 -0.005796107
-4.582666e-05 -0.0009321002 0.0025810709 0.0021792382 0.0018184873 -0.0020765162 -0.00085125334 -0.0033153358
0.0025489342 -0.0029274651 -0.0030780938 -0.0040657446 -0.0052039623 -0.0038777061 -0.011494058 0.0066805026
00000000: 087c 01bc 5ede 743c 22c6 ecbb 3711 efbb
00000010: 968d 333c e21e 04bc 38ac 2c3a d16d 62bc
00000020: 5523 f3ba 1390 273b bef3 9ab9 f1fe 29bc
00000030: 2856 a83a 5612 43ba 30df 29bb cedb 133b
00000040: 5aee 213a a36c 05ba 508b e03b af25 2abb
00000050: 982c 75bc 1cfe 763b 6297 9d3b e7db b83a
00000060: 540e 86ba a11f 433a 79fc 17bc 0eea 09ba
00000070: 397a e03a db30 21bc 74e5 593b 8bfb 08ba
00000080: b184 8aba dc63 8b3b d75b 97bb d232 383a
00000090: e962 2ebb c7d3 593c 7795 d9bc 9ac4 663b
000000a0: 7d95 353c 1bde bcba 9b3e 3ebb c039 5e3b
000000b0: f381 64bb 94e9 893b 41ac 26bc 7f5b 723c
000000c0: 93da 7cba bec2 6ebc 1966 13bc 069d d43a
000000d0: 55c9 053b a1d1 efba 486f b2b9 63f3 0e3c
000000e0: a900 0d3a c4a5 cdbb 7b0a 95bb 8f2f 83bc
000000f0: c9c4 2cbb fcc4 b13a 4cae 0f3b 6aa9 133b
00000100: d6ed a6bb 4e8c 07bc c36b a73b 2748 1bbc
00000110: f80c af3b c9b0 9cba 1834 dcbb b69f a43b
00000120: 800b 623b 3c58 52bb f53f 513b 03c9 28bb
00000130: e9e7 97ba 7bf3 5dbc 3748 26bc e78d b43b
00000140: 6189 bb3b 915f e4b9 9427 7bb6 c61a 313b
00000150: 2d81 f03a 1cfb af38 e649 3e3a 5b57 cabb
00000160: f4bf d3ba df30 19bc e954 033b fde5 3ebc
00000170: e282 a53a e8f4 6abb a478 803a 9fc2 ef3b
00000180: d757 bfbb 88fa 88bb 433d 98ba 556d 07bb
00000190: 6912 44b9 4fdc 8fbc 563f 88bb f123 973b
000001a0: d617 b6bb da2a 1e3b 5423 1f3a 6187 693b
000001b0: 38cf 8f3b 44ce 92bb 4868 a83a 1495 8aba
000001c0: 8c69 d5bb c7bb 8c39 cee0 a8ba 231e d6bb
000001d0: fc1c d73a d4db 2c3a 8c76 2bb9 04f5 f73b
000001e0: c13d ea39 89db eaba 2102 1cbb 2d7a c839
000001f0: df00 df37 1726 113b 357d 0138 2372 ba3a
00000200: b75d 9a3b 4e69 803a 93c3 87b8 a04e abba
00000210: bf73 0f3a db71 efba d5f8 c9b8 7866 3aba
00000220: 8e20 01bb 8772 3a3c 9a92 883a 5b74 29b9
00000230: bab2 86ba b8b2 4c3a c420 c2ba c340 7bb9
00000240: 0535 3cb9 f51a 8fba 52bc 10bc 73c3 a73a
00000250: 6228 b6ba 1544 97ba 634b 273a f540 a33b
00000260: 0eb4 853b 2db1 00bc df1c a6bb 0c9f 58bc
00000270: 5fe2 35b8 f9e5 443b 8236 1a3c 3df9 eb3a
00000280: 24b6 45bb 7ca2 a03b 9b4d 133a fe0f 72bb
00000290: 41bc 163b 9650 f3bb 44f8 8e3a 2f53 323c
000002a0: 89e0 42ba 80d5 eabb 8dea 45bc 4cd5 853b
000002b0: 7847 473c 14b2 57bc 9783 4eba 2e07 92b8
000002c0: 7356 dabb e5d3 38bb 23df 893b 7240 c6bb
000002d0: e3d3 443b 0521 0e3a ca6c 0ebb a919 043b
000002e0: 936b f737 6515 9f3b fc8a 08bb 815b 3abb
000002f0: ac1e 613b ce9f 1d3b 18ee 6d3a bd8c d4bb
00000300: 99bb 083b 97bf af3a b70a 49ba ed34 233b
00000310: 4bec a3b8 721c e73a 1f47 153a 1d93 413a
00000320: 7f81 813b 89ff ffba fffb cfba a742 4e3a
00000330: a9b7 b3b9 896c 76ba d142 563b 0369 403b
00000340: d441 4aba ea49 85bc 7272 7fbb c503 293c
00000350: 280d e13b e13c f83a 0eaf a5bb 2dfe 6d3b
00000360: b382 a2bb f911 d6bb e117 4fbb c029 b73b
00000370: eee1 823b 2cd6 103c c955 113b a700 c4bb
00000380: 1759 2fbc f7df a7ba c011 d6bb 80ab f43b
00000390: 6785 a73b 2590 6cbb 3a75 e4bb f0dd 91bb
000003a0: badb e8bb 37f3 863b a0a6 243a 1574 83bb
000003b0: bfe4 793c e6f4 b2bb 41c5 a1bb 45ed bdbb
000003c0: 0036 40b8 3058 74ba 2f27 293b 8dd1 0e3b
000003d0: 4f5a ee3a 2916 08bb a526 5fba 1b46 59bb
000003e0: 050c 273b b7da 3fbb d8b9 49bb f039 85bb
000003f0: 0086 aabb 1d21 7ebb 9351 3cbc 1ee8 da3b

sequential_6/conv2d_25/Conv2D f4 [32, 3, 3, 32]
0.0081573045 -0.0868115 -0.0813046 0.017488422 0.049399275 0.073818564 -0.15606093 -0.12803337
0.05112592 -0.031671703 0.16509704 -0.0966889 -0.036695894 0.04471087 0.02193897 0.06596424
-0.044573136 -0.12618448 0.09575768 0.08865824 0.07647049 0.086281784 0.082531326 0.025907435
0.0846099 -0.006111109 0.04516544 -0.049390502 -0.113053754 0.05533678 0.0793196 0.08405796
0.037321664 -0.028088262 -0.01370617 -0.03364328 0.0587425 0.1183359 -0.15948538 -0.13920787
-0.058334693 0.04085507 0.057698015 -0.15440428 0.12305972 0.053822022 0.1017692 0.068716615
1.718396e-05 -0.09128825 0.03508405 0.07014125 -0.05850758 0.084331155 -0.021369433 0.070687085
0.0431593 0.16373755 0.055860616 0.0040214676 -0.13505645 0.09531226 0.13909325 0.0034795664
0.27296183 0.114578456 0.06743117 0.066884644 -0.12995955 -0.37934935 0.1703582 -0.043730013
0.081345685 0.038992252 0.009221766 -0.17280452 -0.02026754 -0.017761026 0.057459325 -0.05790183
-0.08772139 -0.090923496 -0.105706096 0.23865862 -0.16089374 -0.047638144 -0.09734849 -0.28284398
-0.045792557 -0.26185784 -0.14163235 -0.0071328706 -0.089740545 0.076278396 0.16069844 0.02107349
0.09284577 -0.049630754 0.013541541 0.059434652 0.073602535 0.059888832 -0.07024047 -0.06100997
-0.14701203 0.10579286 -0.1820445 -0.031348333 -0.28848115 0.06401328 0.052753918 -0.010049521
-0.086464025 -0.07002222 0.075466275 0.01641717 -0.02556113 0.047233712 0.021724818 -0.02639362
-0.16705991 -0.0076711825 0.11290677 0.07083157 -0.09214452 0.07585487 -0.13927928 -0.02039666
-0.077869855 -0.088012114 -0.027751237 -0.13614388 -0.076317236 -0.004817374 -0.019742364 0.045051537
0.068319015 0.08514296 -0.12936871 -0.06798239 0.13275681 0.017786508 0.0046451828 -0.011585918
-0.05951253 0.0025511459 0.073414505 0.004938365 -0.025380848 -0.1288788 -0.0686793 -0.11424393
-0.073011115 -0.02762876 0.003428757 0.063799314 -0.03051182 0.05569908 -0.11451562 0.051396865
0.09527957 0.15873872 0.1572684 0.10805148 -0.027071023 -0.25458643 0.10098169 0.02776082
0.0009165356 -0.2024702 -0.006747874 0.0051162574 -0.17789009 -0.089889824 -0.09994704 -0.17278273
-0.0013278121 0.02118365 -0.13043275 0.122716516 0.07745866 -0.03156626 -0.08647385 -0.0038232198
0.08145645 -0.1446215 -0.1883649 0.009179742 0.070472464 -0.099130146 -0.1448991 -0.15760385
0.057852823 -0.11457462 0.0025003643 -0.11982755 -0.06673611 0.024264146 0.19756539 -0.04486806
0.06719272 0.11743994 -0.11662281 -0.10078536 0.07288315 -0.15678415 -0.03428937 -0.1011391
-0.069513075 0.004863314 0.038663592 -0.08671358 0.008522097 -0.05074153 -0.17311808 0.05287011
0.010169425 -0.027795589 -0.025066024 0.10692018 0.0055333986 -0.03349372 -0.003769987 -0.16467829
0.031143075 -0.09869627 0.05798865 -0.05783775 -0.0148223415 -0.108717926 0.0011564298 0.111129284
0.06032609 0.008466268 -0.08127617 -0.061207082 0.117512584 -0.120950446 -0.16869901 -0.18750183
-0.08794471 0.053035207 -0.10432821 -0.03627342 -0.0012565679 -0.078535676 -0.007949636 0.08128415
0.028013775 0.016855799 -0.09332894 -0.00074409187 0.07886927 -0.04831032 -0.2099741 -0.11379953
00000000: 37a6 053c 3aca b1bd 0783 a6bd e143 8f3c
00000010: e556 4a3d 302e 973d 70ce 1fbe 2e1b 03be
00000020: 6a69 513d 30ba 01bd 330f 293e d404 c6bd
00000030: 6f4e 16bd bf22 373d 5bb9 b33c 4218 873d
00000040: 5292 36bd 8136 01be 9a1c c43d 7492 b53d
00000050: 8f9c 9c3d 81b4 b03d 2f06 a93d d43b d43c
00000060: f547 ad3d b33f c8bb 65ff 383d b24d 4abd
00000070: ba88 e7bd d2a8 623d 5072 a23d 9426 ac3d
00000080: 9ade 183d 5b19 e6bc d88f 60bc 89cd 09bd
00000090: fa9b 703d 185a f23d 2350 23be 828c 0ebe
000000a0: 5cf0 6ebd a557 273d c154 6c3d 281c 1ebe
000000b0: bc06 fc3d 7b74 5c3d 5f6c d03d 4cbb 8c3d
000000c0: 4626 9037 56f5 babd 4bb4 0f3d 37a6 8f3d
000000d0: a5a5 6fbd d0b5 ac3d f30e afbc 64c4 903d
000000e0: cec7 303d d1aa 273e 1ace 643d 84c6 833b
000000f0: 3d4c 0abe 1333 c33d 766e 0e3e 7009 643b
00000100: a7c1 8b3e 1ca8 ea3d 5a19 8a3d d1fa 883d
00000110: 1e14 05be 143a c2be 6172 2e3e 3e1e 33bd
00000120: 9198 a63d 57b6 1f3d e416 173c abf3 30be
00000130: 1d08 a6bc 927f 91bc 785a 6b3d 782a 6dbd
00000140: 46a7 b3bd 1936 babd 707c d8bd ed62 743e
00000150: 54c1 24be 3720 43bd a55e c7bd edd0 90be
00000160: fa90 3bbd 3b12 86be 1208 11be dbba e9bb
00000170: e4c9 b7bd d937 9c3d 228e 243e 50a2 ac3c
00000180: ec25 be3d 9e49 4bbd 57dd 5d3c c071 733d
00000190: edbc 963d fe4d 753d 3cda 8fbd 97e5 79bd
000001a0: 528a 16be eda9 d83d e069 3abe 1c67 00bd
000001b0: cdb3 93be 6519 833d 7e14 583d bfa6 24bc
000001c0: 0d14 b1bd cf67 8fbd 108e 9a3d 4d7d 863c
000001d0: 9365 d1bc 2378 413d 3ff8 b13c 6f37 d8bc
000001e0: c111 2bbe 8b5e fbbb aa3b e73d 2410 913d
000001f0: 44b6 bcbd cc59 9b3d 3a9f 0ebe e516 a7bc
00000200: 3b7a 9fbd b23f b4bd 9056 e3bc 4d69 0bbe
00000210: 364c 9cbd 10db 9dbb bdba a1bc f687 383d
00000220: d7ea 8b3d 6f5f ae3d 3b79 04be 5a3a 8bbd
00000230: 67f1 073e 03b5 913c 9e36 983b ddd2 3dbc
00000240: 69c3 73bd 2031 273b 585a 963d 02d2 a13b
00000250: 7feb cfbc cef8 03be bca7 8cbd b9f8 e9bd
00000260: da86 95bd b655 e2bc ffb4 603b 37a9 823d
00000270: edf3 f9bc b824 643d 2a87 eabd 8585 523d
00000280: ef21 c33d 678c 223e f80a 213e 184a dd3d
00000290: 0dc4 ddbc 2759 82be 7dcf ce3d a96a e33c
000002a0: aa43 703a 5954 4fbe 451d ddbb 47a6 a73b
000002b0: d228 36be 2818 b8bd 09b1 ccbd f5ed 30be
000002c0: fb09 aeba 5589 ad3c 2a90 05be cc52 fb3d
000002d0: a5a2 9e3d 9f4b 01bd 3419 b1bd fc8e 7abb
000002e0: a4d2 a63d a917 14be bae2 40be a166 163c
000002f0: de53 903d bf04 cbbd 6e60 14be e762 21be
00000300: 15f7 6c3d 19a6 eabd 27dd 233b 2668 f5bd
00000310: f1ac 88bd 9ac5 c63c 954e 4a3e 92c7 37bd
00000320: 569c 893d 5a84 f03d f1d7 eebd 8e68 cebd
00000330: c343 953d 068c 20be 0373 0cbd 0422 cfbd
00000340: df5c 8ebd 6f5c 9f3b b75d 1e3d e496 b1bd
00000350: 44a0 0b3c 5ad6 4fbd de45 31be 548e 583d
00000360: a99d 263c 93b3 e3bc 4357 cdbc f8f8 da3d
00000370: 8351 b53b b630 09bd e311 77bb 6da1 28be
00000380: c31f ff3c 4521 cabd 8285 6d3d 47e7 6cbd
00000390: 68d9 72bc 81a7 debd 5893 973a c097 e33d
000003a0: 7d18 773d 1ab6 0a3c 1f74 a6bd 47b4 7abd
000003b0: 70aa f03d deb4 f7bd 6fbf 2cbe 7b00 40be
000003c0: 5b1c b4bd 723b 593d 07aa d5bd 7093 14bd
000003d0: 6cb3 a4ba 50d7 a0bd 313f 02bc 4e78 a63d
000003e0: 257d e53c 2c15 8a3c 3e23 bfbd 290f 43ba
000003f0: 3686 a13d 0be1 45bd 7303 57be ba0f e9bd

sequential_6/conv2d_26/Conv2D f4 [64, 3, 3, 32]
-0.07066052 -0.045041487 0.063262574 -0.102219686 0.0733241 -0.06314569 0.08463405 -0.14415382
0.047680374 0.17678215 0.029465193 -0.031167394 0.027714714 0.0751711 0.08810622 -0.16553707
-0.09766971 0.08561823 0.016754128 0.051689006 0.11046126 0.13861993 0.044876356 0.107406184
0.1290584 -0.12926964 -0.080032356 -0.032557134 -0.02950221 0.23015702 -0.02488645 -0.15202853
-0.026820835 -0.0067982934 -0.015723772 0.072585076 -0.0047895764 0.024958646 0.0411067 -0.0660897
0.04005261 -0.14565119 0.030535266 -0.06761296 -0.024012316 -0.013654295 -0.13382056 -0.014443661
0.05593179 0.03401256 0.0538061 -0.0065406295 0.09668644 -0.03463416 -0.061051708 0.13198581
0.035932846 -0.15803705 0.006553623 -0.045741793 -0.07469154 0.0017812821 -0.00706741 -0.13406645
-0.0112745045 -0.0772701 0.04697111 -0.033830453 0.011803065 -0.061604775 -0.06617615 -0.07549048
0.076001495 0.055113416 -0.07246918 0.025993478 -0.0202996 -0.1070488 -0.1268692 0.024903942
-0.04906559 -0.1365974 0.03165412 -0.013667115 -0.04245846 0.00956326 -0.09831051 -0.0370487
-0.08401195 -0.09977071 0.093235485 -0.014757506 -0.06392025 -0.035531662 -0.026248349 -0.059036937
0.065259635 -0.03689587 -0.046987902 0.036121912 0.011973255 0.0038059733 0.01636603 -0.08318641
0.123924695 0.116401196 0.048037022 0.050257508 0.0062913443 -0.10864516 -0.027669024 -0.09045813
-0.023528228 -0.04250403 -0.017320469 0.020405589 -0.05675157 0.042496026 0.06947724 0.03729164
0.016316758 -0.08418946 0.037130415 -0.034800015 0.018028397 0.044876873 -0.07564035 -0.041085534
0.065537356 -0.008306706 0.0040056724 0.0138433045 0.0284685 0.04142123 0.003370866 -0.030701505
0.05533945 -0.009014347 0.023278918 -0.035748985 -0.056890544 -0.065494426 -0.02138766 0.011746514
-0.026066707 -0.027760772 0.008497644 0.02841241 0.010182941 0.015180272 0.02382575 0.009548285
0.05306729 -0.055371042 -0.014913196 -0.021582177 -0.0702924 -0.028254455 -0.009554097 0.016015287
-0.124893814 0.023759697 -0.04563637 -0.038886745 -0.00397728 -0.03238939 0.010525663 0.031186873
0.02644389 0.030193724 0.02640466 -0.021652892 0.032326333 -0.06680923 -0.10205663 -0.07518452
-0.029733835 -0.08810793 0.07076086 0.08590979 -0.052893613 -0.022787502 0.07032627 0.0479992
-0.03453722 0.019166224 0.04305231 0.00043307015 -0.010182329 -0.04914587 -0.044215612 -0.053717755
-0.049385913 -0.007338132 0.015404844 0.12422541 -0.10778613 -0.0737536 -0.0042960597 -0.066311814
-0.063535385 -0.024458023 -0.10147608 -0.09374955 0.027227733 -0.04098913 0.038480073 0.00037947358
0.023902893 0.023132365 -0.046546366 -0.006781127 0.080017775 0.0852793 0.052182335 -0.04609379
0.05483263 0.010888512 -0.081835285 0.075027786 -0.07565991 -0.052739162 -0.09713355 -0.019816697
0.019193418 -0.029123597 -0.032830495 0.09078397 -0.03516689 -0.09791015 0.07477304 0.05974222
0.013361417 -0.031147815 -0.0035955792 0.074420705 -0.12551394 -0.04265773 -0.0033130108 -0.047001287
0.022066481 -0.003202858 0.0032788096 -0.056464802 -0.002826614 0.02281733 -0.002609289 -0.02754132
-0.023953473 -0.04983093 -0.06489913 0.065885104 -0.11769488 -0.043880243 0.029183323 0.104679406
00000000: 76b6 90bd 6c7d 38bd cf8f 813d 8e58 d1bd
00000010: f22a 963d 8752 81bd 9e54 ad3d 0f9d 13be
00000020: 7f4c 433d 6106 353e fd60 f13c c352 ffbc
00000030: f809 e33c 4ef3 993d 0971 b43d 8d82 29be
00000040: 0f07 c8bd 9c58 af3d f43f 893c dab7 533d
00000050: 8339 e23d 62f2 0d3e 45d0 373d c6f7 db3d
00000060: e327 043e 435f 04be 01e8 a3bd a15a 05bd
00000070: 9eae f1bc 48ae 6b3e abde cbbc 5ead 1bbe
00000080: 5eb7 dbbc 38c4 debb 24cf 80bc 7ca7 943d
00000090: e1f1 9cbb 1376 cc3c 805f 283d 095a 87bd
000000a0: 350e 243d 9625 15be 1825 fa3c aa78 8abd
000000b0: 7ab5 c4bc 44b6 5fbc 4208 09be 1ba5 6cbc
000000c0: bc18 653d c150 0b3d c963 5c3d c752 d6bb
000000d0: 8a03 c63d 8ddc 0dbd 5b11 7abd 4a27 073e
000000e0: 522e 133d 77d4 21be c6bf d63b bf5b 3bbd
000000f0: e1f7 98bd e979 e93a bb95 e7bb b748 09be
00000100: b3b8 38bc c93f 9ebd c764 403d cd91 0abd
00000110: a561 413c 4a55 7cbd 5d87 87bd c19a 9abd
00000120: aca6 9b3d 9bbe 613d b96a 94bd 46f0 d43c
00000130: 594b a6bc 673c dbbd 00ea 01be 5a03 cc3c
00000140: 00f9 48bd 30e0 0bbe c0a7 013d 09ec 5fbc
00000150: ece8 2dbd 38af 1c3c 0557 c9bd 61c0 17bd
00000160: 750e acbd 9654 ccbd 3ff2 be3d 77c9 71bc
00000170: 9fe8 82bd a689 11bd c706 d7bc b7d0 71bd
00000180: d8a6 853d 2020 17bd 6376 40bd 92f4 133d
00000190: 792b 443c a36d 793b 0d12 863c a35d aabd
000001a0: 3bcc fd3d c063 ee3d 78c2 443d d1da 4d3d
000001b0: 9f27 ce3b 5b81 debd 26aa e2bc 1d42 b9bd
000001c0: 45be c0bc b518 2ebd a8e3 8dbc 9f29 a73c
000001d0: 5674 68bd 5010 2e3d 154a 8e3d 1ebf 183d
000001e0: b9aa 853c 866b acbd 1016 183d 768a 0ebd
000001f0: 4ab0 933c d0d0 373d 54e9 9abd 4e49 28bd
00000200: 7338 863d da18 08bc 0442 833b 07cf 623c
00000210: c636 e93c 4fa9 293d bfe9 5c3b b981 fbbc
00000220: 9eab 623d e9b0 13bc 6eb3 be3c 876d 12bd
00000230: 0f06 69bd f121 86bd 2d35 afbc 7374 403c
00000240: d989 d5bc 8f6a e3bc b439 0b3c 24c1 e83c
00000250: 5ad6 263c adb6 783c 382e c33c 6970 1c3c
00000260: 165d 593d bfcc 62bd 7a56 74bc 1bcd b0bc
00000270: 76f5 8fbd e375 e7bc ca88 1cbc 7e32 833c
00000280: 54c8 ffbd b2a3 c23c 34ed 3abd b547 1fbd
00000290: d853 82bb bdaa 04bd d573 2c3c 9d7b ff3c
000002a0: dba0 d83c d458 f73c 964e d83c 6861 b1bc
000002b0: 9e68 043d 47d3 88bd 1103 d1bd 57fa 99bd
000002c0: 5f94 f3bc ee71 b4bd 12eb 903d 79f1 af3d
000002d0: f9a6 58bd dbac babc 3807 903d cf9a 443d
000002e0: e676 0dbd 7c02 9d3c 9e57 303d b10d e339
000002f0: c9d3 26bc 2e4d 49bd 6e1b 35bd 2607 5cbd
00000300: e248 4abd b674 f0bb 9964 7c3c e469 fe3d
00000310: f9be dcbd 210c 97bd f6c5 8cbb 7dce 87bd
00000320: d71e 82bd 315c c8bc b1d2 cfbd c4ff bfbd
00000330: b20c df3c 38e4 27bd 489d 1d3d 15f4 c639
00000340: 00d0 c33c 1680 bd3c 67a7 3ebd 3734 debb
00000350: 5ce0 a33d eaa6 ae3d 25bd 553d d8cc 3cbd
00000360: 2e98 603d bb65 323c 4299 a7bd 2ba8 993d
00000370: 95f3 9abd 0505 58bd f4ed c6bd a056 a2bc
00000380: 843b 9d3c 9c94 eebc 4579 06bd f2ec b93d
00000390: 280b 10bd 1e85 c8bd 9c22 993d 42b4 743d
000003a0: d8e9 5a3c b429 ffbc cfa3 6bbb e269 983d
000003b0: ba86 00be dfb9 2ebd 191f 59bb 6c84 40bd
000003c0: c4c4 b43c 0ae7 51bb 4ce1 563b a347 67bd
000003d0: b73e 39bb 69eb ba3c 9b00 2bbb 569e e1bc
000003e0: 133a c4bc 841b 4cbd d6e9 84bd c5ee 863d
000003f0: 030a f1bd c5bb 33bd dd11 ef3c 2862 d63d

sequential_6/conv2d_27/Conv2D f4 [64, 3, 3, 64]
0.01425704 0.02729773 0.048827846 0.033460952 -0.025318647 0.025643038 -0.0017449122 0.0018615796
0.030792682 0.019971415 0.034989946 0.0010815081 -0.035810012 0.004266089 0.035289668 -0.024746656
0.027235672 -0.033118077 0.018188348 -0.018873379 0.05733537 -0.0109802885 -0.0574939 0.0069441875
0.018969283 0.027746027 0.10738895 0.00801969 0.016328609 0.056605387 -0.033576284 0.0018426421
-0.0028482764 -0.0014250226 0.019289346 -0.056528546 -0.013609339 -0.012328171 0.0145907365 0.033321984
0.00017500276 0.0117487535 -0.018636217 0.05510134 0.01727678 -0.005379935 -0.018060423 -0.011660826
-0.0031217402 0.025239684 0.06341728 -0.07449714 0.020205997 0.0048515364 -0.0030232554 -0.0017544965
0.009508208 -0.008651093 -0.0012716317 0.032302633 0.013165754 0.043538455 -0.04613525 0.046141773
0.023234682 0.05691226 -0.008794456 0.0268914 0.0070403684 0.0046982686 0.033595413 -0.039578207
0.05478521 0.04852993 0.012852873 0.011062715 -0.021799674 -0.017887874 0.004146857 -0.08671818
0.01903309 0.026705889 -0.01358139 -0.022915613 0.060079627 -0.01575546 -0.039859775 -0.06243838
-0.036651056 0.057009812 -0.0044748927 -0.05472979 0.022380542 0.07741502 0.050865065 0.029474761
0.0007698925 -0.043684505 -0.00027826498 -0.015731893 0.011852182 -0.016941693 0.008995327 0.033113237
-0.015199634 0.030895652 0.008112051 -0.016785825 0.030668108 0.07417359 0.008961053 -0.0025687406
-0.04224884 -0.010343791 0.050491422 0.026164144 0.007121033 -0.019502373 0.007211212 0.012491112
0.034258984 -0.033694398 -0.022776961 -0.00022856887 -0.018993415 0.018425593 -0.046669025 -0.010325723
0.049665716 0.014017103 -0.0023943954 0.06570963 -0.018675724 -0.08984515 0.007393299 -0.028265612
-0.080690764 0.005468287 -0.008867389 -0.06905373 -0.09528486 -0.023748279 -0.021256315 0.024293566
0.0028126915 0.1288437 0.012640042 -0.0015465932 0.049514793 -0.082107544 -0.046069328 -0.10086033
-0.051568642 0.018704174 0.024682699 -0.08329958 -0.01249809 0.08944882 -0.0038295498 -0.087354794
-0.028170789 -0.10376431 0.0029545014 -0.05366572 -0.033128627 0.006846689 -0.007840803 0.0485852
-0.012929142 -0.054213952 -0.027817475 0.0005838563 0.027910316 0.0645971 0.020715764 0.0193836
0.07079756 0.0022020978 0.008822413 0.05185486 0.055031333 0.011559652 0.07478674 0.0513647
-0.021758541 -0.001423068 -0.030568505 0.05654228 0.039795358 0.03743935 -0.037240542 -0.024029186
0.044318713 -0.022958351 0.040480964 0.02339049 0.006190856 -0.0033199089 0.011938197 -0.02917288
-0.040869433 0.009552737 -0.0141536845 0.011265219 -0.027311807 0.008245633 -0.00054160226 0.010790852
0.018188588 -0.015588645 0.00089122506 -0.014957241 0.037329618 -0.048069257 0.047355797 0.02696494
-0.0016506608 0.07518005 0.04241499 0.017550888 -0.0050552012 -0.02353167 -0.008180969 0.03965968
-0.014309057 0.011847139 0.0075452197 0.010115344 0.021676999 -0.0050656814 0.015888523 0.012969262
-0.07214335 -0.0084820045 0.007785511 0.053269625 0.040923566 0.003242784 -0.034292113 -0.019643394
0.045913003 0.036131073 0.039982542 0.00069147546 0.01907643 -0.026089083 0.05872624 -0.024297949
-0.013095407 -0.030252054 0.027761502 0.0093208095 0.017972324 0.012031061 0.004558863 -0.031320095
00000000: 5c96 693c 7d9f df3c b5ff 473d 5a0e 093d
00000010: 0d69 cfbc 5911 d23c 8ab5 e4ba 3f00 f43a
00000020: ef40 fc3c 189b a33c 9e51 0f3d 64c1 8d3a
00000030: 85ad 12bd 8cca 8b3b e68b 103d 80b9 cabc
00000040: 581d df3c d2a6 07bd bbff 943c 589c 9abc
00000050: 7ed8 6a3d abe6 33bc b97e 6bbd 118c e33b
00000060: 7865 9b3c a34b e33c bdee db3d 0565 033c
00000070: 93c3 853c 0ddb 673d 4987 09bd cf84 f13a
00000080: 26aa 3abb d3c7 baba b104 9e3c 7a8a 67bd
00000090: b4f9 5ebc 19fc 49bc fc0d 6f3c a27c 083d
000000a0: f280 3739 d87d 403c fbaa 98bc f1b1 613d
000000b0: 0988 8d3c 2a4a b0bb 74f3 93bc 0d0d 3fbc
000000c0: 1c96 4cbb 74c3 ce3c ebe0 813d f591 98bd
000000d0: 0c87 a53c a3f9 9e3b cf21 46bb 22f7 e5ba
000000e0: 51c8 1b3c 50bd 0dbc e1ac a6ba c44f 043d
000000f0: 2db5 573c 6155 323d 51f8 3cbd 28ff 3c3d
00000100: a956 be3c d41c 693d 9f16 10bc 5a4b dc3c
00000110: e4b2 e63b eff3 993b 589b 093d c21c 22bd
00000120: 7566 603d 52c7 463d db94 523c 6440 353c
00000130: 3b95 b2bc 9789 92bc 5ce2 873b 4d99 b1bd
00000140: 48eb 9b3c 4fc6 da3c 7a84 5ebc 86b9 bbbc
00000150: 0e16 763d 9811 81bc 0144 23bd 63bf 7fbd
00000160: 6b1f 16bd 1f83 693d 1fa2 92bb 582c 60bd
00000170: 6657 b73c c48b 9e3d e357 503d 0e75 f13c
00000180: 9cd2 493a 86ee 32bd 18e4 91b9 2ce0 80bc
00000190: a82f 423c 4ec9 8abc 2361 133c bfa1 073d
000001a0: e307 79bc e118 fd3c 68e8 043c 6d82 89bc
000001b0: af3b fb3c 53e8 973d 61d1 123c 5158 28bb
000001c0: 1f0d 2dbd 0179 29bc 18d0 4e3d 3056 d63c
000001d0: 8e57 e93b 71c3 9fbc 084c ec3b 85a7 4c3c
000001e0: 2653 0c3d 2303 0abd c096 babc fdab 6fb9
000001f0: 1498 9bbc 45f1 963c 0528 3fbd 392d 29bc
00000200: 476e 4b3d fea7 653c 4aeb 1cbb c592 863d
00000210: d5fd 98bc bc00 b8bd 7d43 f23b 498d e7bc
00000220: 3341 a5bd 512f b33b 8648 11bc 0b6c 8dbd
00000230: b524 c3bd c08b c2bc b921 aebc 4d03 c73c
00000240: 2255 383b 9aef 033e 2e18 4f3c 0eb7 caba
00000250: 06d0 4a3d 0028 a8bd 31b3 3cbd dc8f cebd
00000260: a439 53bd 7f39 993c 5f33 ca3c f898 aabd
00000270: cac4 4cbc f130 b73d 2ff9 7abb 12e7 b2bd
00000280: 6dc6 e6bc 6282 d4bd 4fa0 413b 96d0 5bbd
00000290: e2b1 07bd 315a e03b b676 00bc 4601 473d
000002a0: c1d4 53bc 730f 5ebd 79e1 e3bc ef0d 193a
000002b0: 2da4 e43c 7c4b 843d 1bb4 a93c 5bca 9e3c
000002c0: 50fe 903d 1251 103b e28b 103c c365 543d
000002d0: 8968 613d b264 3d3c ca29 993d cb63 523d
000002e0: f83e b2bc 3d86 baba cd6a fabc e198 673d
000002f0: 7500 233d 015a 193d 8a89 18bd dbd8 c4bc
00000300: 8a87 353d 2713 bcbc 5ecf 253d 6a9d bf3c
00000310: aadc ca3b d492 59bb 6d98 433c f7fb eebc
00000320: b566 27bd 1583 1c3c dbe4 67bc c191 383c
00000330: 03bd dfbc b118 073c 50fa 0dba 1dcc 303c
00000340: 3c00 953c 8467 7fbc 1aa1 693a 370f 75bc
00000350: f1e6 183d 45e4 44bd 27f8 413d 94e5 dc3c
00000360: fc5a d8ba 00f8 993d 57bb 2d3d e1c6 8f3c
00000370: 1aa6 a5bb 7dc5 c0bc 7909 06bc 3072 223d
00000380: 8970 6abc 811a 423c e43d f73b d4ba 253c
00000390: f693 b13c 04fe a5bb a628 823c 077d 543c
000003a0: e5bf 93bd 1bf8 0abc 9a1d ff3b 4031 5a3d
000003b0: 789f 273d e384 543b e375 0cbd 2feb a0bc
000003c0: 460f 3c3d 2dfe 133d bcc4 233d 2244 353a
000003d0: 2c46 9c3c c6b8 d5bc ed8a 703d 7e0c c7bc
000003e0: 1e8e 56bc 28d3 f7bc 176c e33c 4fb6 183c
000003f0: b23a 933c ed1d 453c 8462 953b 8049 00bd
