quandrant_models/trained_model_topleft.tflite (tflite, 341936 bytes, 12 tensors)

sequential_4/dense_9/BiasAdd/ReadVariableOp f4 [10]
000000 61 48 54 3e 50 8f 7c 3e 0d 60 6c 3a 52 a8 87 be
       0.20730735 0.24664044 0.0009016998 -0.26495606
000010 e7 49 54 be 85 ec 12 be 97 b6 69 3d 06 19 35 bc
       -0.20731317 -0.14348038 0.057058897 -0.011053329
000020 5e 64 ca bd c8 b4 6f 3e
       -0.09882425 0.23408806

sequential_4/dense_8/BiasAdd/ReadVariableOp f4 [256]
000000 e0 ec 5a 3e 41 b1 7c 3d a3 a9 f5 3d e2 fe 86 3e
       0.21379423 0.06169248 0.11995246 0.26366335
000010 78 a9 d5 3d 58 e1 72 3e 11 e3 c2 3d f3 5a 09 3e
       0.10432714 0.23718774 0.09515966 0.134136
000020 6d 35 c1 3d b8 d7 02 3e 0a 37 56 3e 42 e7 8f 3d
       0.09434018 0.12777603 0.20919433 0.07026531
000030 19 1c 98 bc 93 c0 81 3e 65 65 e2 3c c0 b5 f3 3d
       -0.018568086 0.25342235 0.02763624 0.118999004
000040 8d 05 f4 3d e3 fe ea 3b 77 57 46 be 04 c6 2e 3e
       0.11915121 0.007171498 -0.19369303 0.17067724
000050 c9 90 45 3d 81 66 7f 3c 87 ab 16 3c 1c de 83 3e
       0.04823378 0.015588404 0.009196169 0.25755394
000060 fd a3 2c 3e 7a b2 01 3d 36 74 d6 bc 4e 66 54 3e
       0.16859432 0.03166435 -0.02617846 0.20742151
000070 97 d2 bb 3d 94 43 8e 3e 01 f0 90 3d 35 f1 a2 3c
       0.09171026 0.27785933 0.07077027 0.019890407
000080 f9 6a 14 3e 99 ac b7 3d 13 e4 ee 3c 12 52 b1 3d
       0.14493932 0.08968467 0.029161489 0.08658232
000090 01 24 13 3e eb 27 05 3e 94 fd 76 3c 0d 79 d0 3d
       0.14369203 0.13003509 0.015075106 0.101793386
0000a0 7d ef 39 3e d4 10 2b 3d 5b fb ae 3d 8c a4 f2 3c
       0.18157764 0.041764095 0.08544036 0.029619478
0000b0 1d c8 5e 3d cf b0 8b 3e f9 5a 99 3d 45 38 b2 bd
       0.05439006 0.27283332 0.07488055 -0.08702139
0000c0 a0 18 dc 3d 7a f2 5e 3e fa cf 05 be 6b 6e 58 3d
       0.10746884 0.21772185 -0.13067618 0.052839678
0000d0 71 37 57 3d 44 aa 27 3e 99 f6 43 3b 7c 75 22 3e
       0.052543107 0.16373545 0.0029901622 0.15865129
0000e0 fd 25 98 3d 4c 58 70 ba 75 ac a8 3d cc b1 16 bb
       0.07429121 -0.00091684307 0.082360186 -0.0022994159
0000f0 39 4e 97 3e 32 3e 45 3d 52 dd 87 3e f7 94 07 3e
       0.29551867 0.048155017 0.26536041 0.1324042
000100 bc 83 c0 3d 5e b7 31 3e a3 b4 4f 3e 4f bc 74 3d
       0.09400126 0.17355105 0.20283751 0.059749898
000110 04 b5 e2 3d d2 38 25 3c a2 08 a3 3d 35 00 29 bd
       0.11069682 0.010084348 0.07960631 -0.041259963
000120 b9 c8 46 3d 00 f6 e3 3d 49 b7 6f bb 64 ff 7d 3e
       0.048531268 0.11130905 -0.0036577752 0.24804455
000130 4e ae 5e 3e 2e a7 19 3d 89 bb 40 3d 29 35 23 3e
       0.2174618 0.03751295 0.047053847 0.15938248
000140 af f9 79 3d cf e1 71 bc 50 54 83 3d 9e 67 40 3d
       0.061029132 -0.01476331 0.06412566 0.046973817
000150 e4 b5 3e 3d 88 4b 5f 3e 5d 43 18 3e d7 98 7e 3d
       0.046560183 0.21806157 0.14869447 0.06215748
000160 a3 74 f6 3d 45 df 69 3e d5 d2 0e 3e 0a af 2f 3e
       0.120339654 0.22839077 0.13947614 0.17156616
000170 bc 02 00 3e 96 4b 0f 3e fe 0f 1f 3e fa f1 a2 bd
       0.12501043 0.13993677 0.15533444 -0.079563096
000180 6f 17 d4 3d 5e e2 90 3d f2 08 4c 3e 10 9b 1a bb
       0.10356032 0.07074426 0.19925287 -0.002359096
000190 96 c9 67 3c 81 c4 eb 3d 18 f0 1b 3e 12 51 8a 3d
       0.014147183 0.115120895 0.15228307 0.06753744
0001a0 dd bb 0b 3e c9 9d 8a 3d 01 a2 57 3e a3 7c b6 bb
       0.13645883 0.067683764 0.21057893 -0.005569057
0001b0 e3 b3 97 3d 44 65 df 3d 64 9d 89 3d 5f 77 a8 3d
       0.074073575 0.10907987 0.06719473 0.08225893
0001c0 83 19 1e 3e 45 28 2e 3e 75 23 21 3d 53 aa 50 3d
       0.1543942 0.17007549 0.039340455 0.050943684
0001d0 ec 37 e0 3d 04 86 44 3e 4a ab 26 3e 33 6d db 3d
       0.10948166 0.19191748 0.16276279 0.107141875
0001e0 5d 72 98 3d 3d 0f 6a 3d 59 d4 d8 bb fb bf d9 3d
       0.07443688 0.05714344 -0.0066171107 0.106323205
0001f0 6f 99 cb 3d 28 2e 36 3e 47 09 09 3e 34 84 60 3e
       0.099413745 0.17791045 0.13382445 0.21925431
000200 b0 1e e9 3d 44 61 62 3e 49 07 6f 3e f1 64 74 3e
       0.11382806 0.22107416 0.23342623 0.23866631
000210 e7 9d cd 3d 9b 1e 15 3e b7 35 3f 3e 3c 8b 21 3e
       0.10039883 0.14562456 0.18672834 0.1577577
000220 c6 75 3e 3e a9 11 3d 3e 65 ad f7 3d 46 72 a7 bd
       0.18599615 0.18463768 0.12093619 -0.08176093
000230 1b fc 3a 3e 28 14 c8 3d 2d 44 da 3c 7c 82 bb 3d
       0.18260233 0.097694695 0.026643837 0.09155747
000240 a2 15 bc 3d 04 33 a1 3d cd 59 a6 3c 40 29 ff 3d
       0.09183814 0.078710586 0.020306492 0.1245904
000250 04 26 ef 3d 1c 42 ba 3d 0e 1f a4 3d 64 52 51 3e
       0.11677173 0.090946406 0.08013736 0.20441586
000260 41 80 58 3e 5e 2b 4c be 0f 45 f5 3d 4b 26 96 3d
       0.21142675 -0.19938418 0.119760625 0.073315226
000270 ea 8c 06 3e 85 5c 0a 3e ca f9 b3 bc bb c9 30 3d
       0.13139692 0.13511856 -0.021969695 0.043161135
000280 fd 9f 44 3e b8 bc a7 3d a2 ac a2 3c 62 16 7b 3d
       0.19201656 0.08190292 0.019857708 0.061300643
000290 e2 10 ad bd bc 90 0b 3e f0 c1 48 3d b9 c4 d5 3d
       -0.08450486 0.1362943 0.04901308 0.104379125
0002a0 a8 1a 71 3e b1 db d3 3d ac 99 3d 3e b1 62 68 3b
       0.23545325 0.10344637 0.18515652 0.0035459215
0002b0 3f 5d eb 3d ab 68 fa 3d 3d a3 78 3e 8a 79 d8 3d
       0.11492395 0.12226995 0.2428102 0.10570057
0002c0 08 68 72 3d dc 3a d5 3d 96 d2 86 3e c4 fe 87 3e
       0.059181243 0.10411617 0.2633254 0.26561558
0002d0 d1 75 1d be 56 dd 04 3d a5 fe e1 3c cf cf dc 3d
       -0.15376975 0.032437645 0.027587244 0.10781824
0002e0 84 14 4c 3d 49 0c 2d 3e 74 75 86 3d 51 7f 37 3e
       0.049824253 0.16899218 0.06565371 0.17919661
0002f0 68 ae 66 3e 30 48 44 3d 64 fe 05 bd 62 68 84 bd
       0.22527468 0.047920406 -0.03271331 -0.06465222
000300 30 12 b1 bc 42 54 cd bd d4 d7 f5 3d 6b f7 04 3e
       -0.021615118 -0.100258365 0.120040566 0.12985007
000310 d0 bb 1a bd 22 50 3e 3e cd 4c 3d 3e 60 98 c3 3d
       -0.03777677 0.18585256 0.18486328 0.095505476
000320 92 94 5c 3e a1 6b f4 bc bc 61 0e 3e 12 d4 cd 3d
       0.2154105 -0.029836478 0.1390447 0.10050215
000330 20 eb dd 3d 42 50 56 3e 4f 9b ab 3e 48 77 67 3e
       0.10835862 0.20929053 0.3351693 0.22604096
000340 6e 6e b5 3d 98 c5 36 3d 02 b5 76 3e bf 06 c9 3d
       0.088589534 0.044622034 0.24092487 0.0981574
000350 50 ac 3e 3e 9b 44 b2 ba d1 61 72 3e ee 94 b1 3b
       0.1862042 -0.0013600768 0.23670126 0.005419365
000360 76 6e 8e 3d 61 a0 14 3e b2 71 0d 3e 2c cc f4 3d
       0.069546625 0.14514305 0.13812903 0.11953005
000370 e5 fc 30 3e d6 fb de 3d 3c eb 03 3e 52 93 2d 3d
       0.17283972 0.10887878 0.12882704 0.042376824
000380 c7 91 d9 3d ee 71 3f 3d f3 23 b4 3d ab ef 1a 3e
       0.10623508 0.04673951 0.08795919 0.15130489
000390 3a ae 01 3e f6 16 dd 3d 32 e4 d4 3d c9 ea fe bb
       0.12664118 0.10795395 0.10395087 -0.0077794534
0003a0 cd 4b 56 3e cd 72 62 3d 93 d9 72 3d 05 d7 69 3e
       0.20927353 0.055285264 0.059289526 0.2283593
0003b0 c0 c6 b9 3d 1d 1e b2 3d ba fe c6 3d 6b a7 96 3e
       0.09071112 0.0869715 0.09716554 0.29424605
0003c0 44 39 1e 3e c6 54 f8 3d 20 60 47 3e f3 74 4b 3c
       0.15451533 0.12125544 0.19470263 0.01241802
0003d0 c0 51 e3 bc d3 c7 2d 3e ef 72 fd 3d f1 1d 1d 3e
       -0.027748942 0.16970758 0.123754375 0.15343453
0003e0 5c b8 f9 3a ca b5 0b 3e b1 2c 1f 3e 02 a8 83 3e
       0.0019052136 0.13643566 0.15544392 0.25714117
0003f0 cb 87 1b 3e 34 c7 66 3d e4 9c 23 3e 2f ce 6d 3d
       0.1518852 0.05634232 0.15977818 0.05805796

sequential_4/activation_16/Relu;sequential_4/batch_normalization_16/FusedBatchNormV3;sequential_4/conv2d_16/BiasAdd/ReadVariableOp;sequential_4/conv2d_16/BiasAdd;sequential_4/conv2d_17/Conv2D;sequential_4/conv2d_16/Conv2D f4 [32]
000000 0b 70 9d 3e d0 98 7c bf 30 32 55 3e 40 5d 61 bf
       0.30749545 -0.98670673 0.20819926 -0.88032913
000010 3e 6a be 3e e4 b7 9f be 3b 03 87 be 63 3f 77 bf
       0.3719043 -0.31194985 -0.26369652 -0.96581095
000020 7a e9 7b 3e 85 2c 7b bf 3e 9a d3 3d 31 c5 66 3e
       0.24600783 -0.98114806 0.10332154 0.2253616
000030 9b 40 86 3e d3 94 36 3e 57 5b 4c bf c6 6b a0 3e
       0.26221165 0.1783021 -0.79826874 0.31332225
000040 a1 b5 82 3e 42 c8 00 3f 01 bc b5 3e 32 bc f0 be
       0.25529197 0.5030557 0.35494998 -0.47018582
000050 2d 01 bb 3e 08 b9 03 3f 94 6b fb 3e cf ee 46 bf
       0.36524335 0.5145421 0.49105513 -0.77708143
000060 9a 8d 4f 3e 67 79 bb 3e d5 b2 20 3e 55 22 60 3e
       0.2026886 0.3661606 0.15693219 0.21888097
000070 6d 4b 3e 3e 10 0f 7a 3e 63 b9 a0 3e 75 e0 db 3e
       0.1858346 0.24419808 0.3139144 0.42944685

sequential_4/activation_17/Relu;sequential_4/batch_normalization_17/FusedBatchNormV3;sequential_4/conv2d_17/BiasAdd/ReadVariableOp;sequential_4/conv2d_17/BiasAdd;sequential_4/conv2d_17/Conv2D f4 [32]
000000 fb 6d bd 3e c8 e0 9a 3f cc 64 ee be 2d 69 fd 3e
       0.3699797 1.2099848 -0.46561277 0.49494305
000010 d5 94 f1 3e ec 3b c2 3f db ed f0 3e f9 7f d8 3e
       0.47183862 1.5174537 0.4705647 0.42285135
000020 a3 10 36 3e 1b e4 7e 3f 5e d4 e3 3d 7f e7 4c bc
       0.17779784 0.9956681 0.1112449 -0.012506365
000030 45 f4 e5 3e 09 9a 13 3f b1 be 10 be 05 2a 83 3f
       0.44912925 0.57656914 -0.14135243 1.0247198
000040 bf 9b 8f 3f 4f bc c3 3f 83 6c f8 3d 32 19 80 3e
       1.1219405 1.5291842 0.12130072 0.25019222
000050 e1 ba 39 bf 5d 27 f7 bc fd 14 a1 be 69 e3 48 3f
       -0.7255078 -0.030170137 -0.31461325 0.78472
000060 b4 70 ce be 4d 45 27 3d 40 44 73 3c 96 19 8d 3f
       -0.4032036 0.040837575 0.014847815 1.1023433
000070 5a bd 4b 3f 4a c7 84 3f 29 5d 95 3f eb 77 d1 3f
       0.795858 1.0373318 1.1669055 1.6364721

sequential_4/activation_18/Relu;sequential_4/batch_normalization_18/FusedBatchNormV3;sequential_4/conv2d_18/BiasAdd/ReadVariableOp;sequential_4/conv2d_18/BiasAdd;sequential_4/conv2d_19/Conv2D;sequential_4/conv2d_18/Conv2D f4 [64]
000000 5b 92 46 3e 5d 95 93 3e 23 88 90 be 82 8c 04 3f
       0.19391768 0.28824893 -0.28228864 0.517769
000010 c7 af 13 3f 90 af bd bf aa d8 1f bf c5 bf 33 be
       0.5769009 -1.4819202 -0.6243998 -0.17553623
000020 95 6a c6 3e 2c 9c 32 3f ed 1f 31 bf 73 af 36 be
       0.3875319 0.6976955 -0.6918934 -0.17840366
000030 e9 20 8f bf 94 bd 32 3f d4 2f 3c bf f8 8f 1f bf
       -1.1181918 0.69820523 -0.7351048 -0.62329054
000040 db 75 10 3f 4b 7e f5 3e 84 f1 fb be 7a 8c 3d bf
       0.56429833 0.47947916 -0.492077 -0.74042475
000050 bc 66 82 bd 2c 67 e4 bf 3d c8 8f 3e 7e b5 dd 3c
       -0.06367251 -1.7843986 0.28082457 0.027064081
000060 d7 e9 1d bf 7e 51 ec 3e 6b 4a 13 bd a6 36 3a bf
       -0.61684936 0.46155924 -0.035959642 -0.72739637
000070 18 35 e4 3e 12 5d 14 3e 8f 0d 2a 3e be 7a d4 bf
       0.44571757 0.14488629 0.16606735 -1.6599958
000080 34 2c 35 bf 35 8f e4 3e c6 fb ac bf 6b 84 13 3e
       -0.70770574 0.44640508 -1.3514335 0.14405982
000090 69 2a a4 3e 13 91 6a bf af 5d 46 bf e4 3c a9 3e
       0.32063606 -0.91627616 -0.774867 0.33054268
0000a0 01 2e c1 3e c9 53 1b 3e 83 73 9a bf b1 0f 25 bf
       0.3773041 0.1516868 -1.2066501 -0.6447707
0000b0 84 05 91 3e 93 47 47 3d 92 ab 27 3e ae e4 53 3f
       0.2832452 0.048652243 0.16374043 0.8277081
0000c0 b2 d4 b3 bc 6f 78 72 3e 11 a1 7d be ab 69 da 3e
       -0.021952007 0.23678754 -0.24768473 0.42658743
0000d0 24 25 c9 be ca a3 10 bf a5 a8 4c 3e 09 c1 a9 3e
       -0.3928615 -0.5649992 0.19986208 0.33155087
0000e0 1e 87 77 3f 02 4d bd bd b1 d4 1b bf 98 75 5c bf
       0.9669055 -0.09243204 -0.60871416 -0.86116934
0000f0 fa c3 05 3e 4e b3 c0 be e2 80 0c 3f 0c f8 3c 3e
       0.1306304 -0.376368 0.5488416 0.18453997

sequential_4/activation_19/Relu;sequential_4/batch_normalization_19/FusedBatchNormV3;sequential_4/conv2d_19/BiasAdd/ReadVariableOp;sequential_4/conv2d_19/BiasAdd;sequential_4/conv2d_19/Conv2D f4 [64]
000000 2b 8b a4 3d 95 9b eb 3c 6c 36 02 3e c0 13 be 3b
       0.08034357 0.02876071 0.12716073 0.005800694
000010 3a ed 78 be 31 c8 3b 3e 84 6b e0 be dc e6 a3 be
       -0.24309245 0.18338086 -0.43832028 -0.3201207
000020 06 49 17 be c5 e0 62 3d 6c 15 af 3c d7 8e 05 3e
       -0.1477395 0.05539014 0.02137252 0.1304277
000030 82 6c f5 be 9f f2 09 3d e5 20 37 bf 72 82 a6 3c
       -0.47934347 0.033678647 -0.7153457 0.020325873
000040 6b 47 e6 3d 98 44 c4 3d e9 c0 56 3e a5 5f 09 bf
       0.11244091 0.09583396 0.20972027 -0.53661567
000050 47 eb 5f be c8 92 83 3c f3 ef c6 3e fa e1 f0 be
       -0.21867095 0.016061202 0.38854942 -0.47047406
000060 24 6d ac be a4 41 bf be 0a ca 0f bf 75 6d e8 3d
       -0.33677018 -0.37354767 -0.5616766 0.11349002
000070 1b f9 a5 bd 2e 5c 07 3d 9c 36 6b 3e b7 e7 19 be
       -0.08104154 0.033046894 0.2297005 -0.15029798
000080 b8 3c b6 be 55 fb 46 bd d3 86 90 3e 5b 41 c1 bd
       -0.355932 -0.048579533 0.28227863 -0.09436294
000090 58 82 f7 be 05 f0 15 be 60 cc c2 be e9 2e 9f 3c
       -0.48341632 -0.14642341 -0.3804655 0.019431548
0000a0 9a 6c 0c bf 2d c0 ab bd 83 d6 86 be e0 82 d7 bd
       -0.5485321 -0.08386264 -0.26335534 -0.10523009
0000b0 71 54 c7 ba 08 31 13 bf b0 f9 c1 be cb 62 8f bd
       -0.0015207661 -0.5749669 -0.3788581 -0.07001265
0000c0 f2 e9 e9 be 4f d4 9a bc e7 26 98 3d bf 96 4f bf
       -0.456863 -0.018900065 0.07429295 -0.81089395
0000d0 30 f6 16 bf e1 fe 2a bf 06 f2 15 bc bc ef e1 bd
       -0.589694 -0.66795164 -0.009151941 -0.11032054
0000e0 11 69 5f be 60 f1 9b bd 1a ff bc bd 52 48 6e 3e
       -0.21817423 -0.07614398 -0.09228344 0.23269776
0000f0 c2 62 be bd e5 5e db 3e e3 e1 17 bd 9c 78 cc b9
       -0.0929618 0.42845836 -0.037080657 -0.00038999773

sequential_4/dense_8/MatMul f4 [256, 64]
000000 93 88 d2 3d a6 cb 44 bc 63 0a c9 3d 8d c4 4c bb
       0.10279956 -0.012011444 0.09816434 -0.0031245083
000010 0f 14 7c 3d 46 6a b1 bc 67 e8 05 bd 34 9d c2 be
       0.061542567 -0.02165712 -0.03269234 -0.3801056
000020 8b 58 98 bd a2 1c 88 be fc e0 a7 bc 25 0d 88 bd
       -0.07438763 -0.26584345 -0.020493023 -0.06643132
000030 ae e2 16 3e 44 a5 06 3c 81 80 da bd 25 d9 26 bc
       0.14734909 0.008218113 -0.106690414 -0.010183607
000040 0a 46 48 bf 81 68 ce be 20 f6 f5 3c f5 95 94 be
       -0.7823187 -0.40314105 0.030024588 -0.29020658
000050 c9 02 81 3c a8 ff 71 38 c1 25 95 be 00 26 4c 3d
       0.015748398 5.7696976e-05 -0.29130366 0.049840927
000060 8a 41 81 bc e1 7a 1a be 2d ea c3 3d fb 16 6b be
       -0.015778322 -0.15085937 0.0956615 -0.22957985
000070 f1 31 79 3e 09 be cf bd 24 d2 45 bf 46 95 a8 bc
       0.24335457 -0.10143668 -0.77273774 -0.020578992
000080 52 0b 8b bd a2 3e 50 3d 8f 9f 46 3e b5 b0 2d 3d
       -0.067892686 0.05084098 0.19396804 0.04240485
000090 ee d1 0b be 35 29 9c be e4 08 7f 3c be 4a 9e be
       -0.136543 -0.30500188 0.0155660845 -0.309164
0000a0 8e 3c 02 be 5d 5f 7c be 22 e6 44 bd 8a b3 0d 3e
       -0.12718412 -0.24645753 -0.048071034 0.1383802
0000b0 ef 37 c2 bd 3c f0 c0 be f5 e1 2c be a6 8a ff 3d
       -0.09483325 -0.37683284 -0.16883071 0.12477617
0000c0 b8 c8 da bc b1 6d a5 be 48 0c b4 bd f9 93 84 be
       -0.026707038 -0.3231025 -0.08791405 -0.25894144
0000d0 e6 d0 85 bd 00 a4 4d 3e 65 66 e1 3d b0 0a b7 3d
       -0.06533985 0.20082092 0.11005858 0.08937585
0000e0 81 85 81 be 69 de 16 3e e9 ad 2c bd 76 a5 12 3e
       -0.25297168 0.1473328 -0.04215804 0.14320931
0000f0 3d 19 d3 3d 2d 3c 1a 3e 67 90 f5 bc 2d 73 62 be
       0.10307548 0.15062018 -0.029976083 -0.22114249
000100 88 a6 1a be 97 43 49 bd 87 8a e1 bd 83 09 6c be
       -0.15102589 -0.049136724 -0.1101275 -0.23050503
000110 0a fe fa bd 32 58 4c be 26 a7 23 be 2f 40 b6 bc
       -0.12255485 -0.19955519 -0.15981731 -0.022247402
000120 3e 36 85 3b c3 94 b4 3d d3 9a fd 3c eb 4e 3d be
       0.004065304 0.088174365 0.030957615 -0.18487136
000130 5e 43 c9 3d b5 9c e5 3c b3 ff 07 be a7 14 66 3e
       0.098273024 0.028028825 -0.13281135 0.22468816
000140 a0 3e 49 be eb e9 f2 3d 34 55 f7 3c 44 c1 e7 3b
       -0.19652796 0.118610226 0.030191995 0.0070725996
000150 c4 2c 00 bf 66 d4 3c 3c c8 42 a6 bd ee 2e e2 bd
       -0.50068307 0.011525249 -0.08118206 -0.110441074
000160 28 1e 0c bf 46 08 a8 bd bb b4 54 be 35 22 ea bd
       -0.54733515 -0.08204703 -0.20772068 -0.11432306
000170 05 37 0a 3e 5f 36 2e be 80 f2 e4 b9 68 56 00 3e
       0.13497551 -0.17012928 -0.00043668225 0.12532961
000180 ce bc ff be 8a 66 58 3e 8c 7b b3 bd f9 d7 57 3d
       -0.49948734 0.21132866 -0.08763799 0.052696202
000190 65 21 20 3e a0 81 ec 3d c8 2a 97 3d c3 a5 0a 3e
       0.15637739 0.115481615 0.07381207 0.13539796
0001a0 1e 32 1a 3e a6 3d 51 3e 13 5e d5 3d 90 d6 5b 3c
       0.1505818 0.20433673 0.10418334 0.013417855
0001b0 9e e3 98 be 00 8f 18 bf d0 26 a5 3b 6f d9 31 be
       -0.29861158 -0.595932 0.005040027 -0.173681
0001c0 ca ca 41 be 00 de 35 3e 8b 73 23 3e 04 1b 01 be
       -0.18925014 0.17760468 0.15962045 -0.12607962
0001d0 fb 82 90 be 91 18 80 bd af c7 40 3e 3d 66 7d bc
       -0.2822493 -0.06254686 0.18826173 -0.01546627
0001e0 e2 82 9a be ae c6 0e 3d f1 4e 7e 3e d6 03 1f be
       -0.3017798 0.034857444 0.24834801 -0.15528807
0001f0 f9 48 08 bf c1 28 88 be 01 3e 8f be 2a 8a f7 3d
       -0.5323635 -0.26593593 -0.27976993 0.120868996
000200 25 5b 02 3c 30 20 35 be ad 23 15 be e2 b5 f4 3d
       0.007956301 -0.1768806 -0.1456439 0.11948754
000210 02 ed 2d 3d 58 e6 a3 3e c3 04 85 bd ed 50 c5 bd
       0.042462356 0.32011676 -0.06495049 -0.09634576
000220 c1 37 2c 3e 91 15 9f bc ca 15 21 be c2 88 77 bd
       0.16818143 -0.019419463 -0.15730968 -0.060433157
000230 0b 80 4b 3d da b2 dc 3d a8 15 88 be b4 07 97 be
       0.04968266 0.10776301 -0.26579022 -0.29498065
000240 2a a6 d2 3b 1a 49 a6 be 54 1c a1 bd cc c1 4c 3e
       0.0064284997 -0.32477647 -0.07866731 0.19995803
000250 66 65 22 be 90 65 28 3e 44 ff 5f be 67 e4 8c bd
       -0.15858993 0.16444993 -0.2187472 -0.06879502
000260 12 8e 94 3d 09 f2 81 be dc f5 c8 3d bb 96 00 bf
       0.0725366 -0.2537997 0.09812519 -0.50229996
000270 1b 83 b6 be d4 82 fe 3d 78 77 f3 bd fd 82 76 3c
       -0.356469 0.12427297 -0.11888021 0.0150458785
000280 95 f2 81 3e bb c8 47 bd be d2 26 be 39 9c 88 bc
       0.25380388 -0.048775416 -0.1629133 -0.016676055
000290 cd df 93 3d 4d d2 26 be f9 98 d6 3d 70 e9 7a be
       0.07220421 -0.16291161 0.10478396 -0.24503112
0002a0 d4 e1 6b be 4e 16 8a be 7d e3 44 3e 56 d7 c7 be
       -0.23035365 -0.26970142 0.19227405 -0.39031476
0002b0 c0 34 9d be fa 7b d3 bd a1 77 86 3e 0c ce 73 3e
       -0.30704308 -0.10326381 0.26263145 0.2380907
0002c0 d3 8e 06 be e9 f1 e4 bd 75 55 78 be 7c a7 2f bd
       -0.1314042 -0.11178953 -0.2425135 -0.042884335
0002d0 71 cf c6 be 97 f4 14 be 85 62 ae be 87 23 87 3c
       -0.3883014 -0.14546429 -0.3405954 0.016496433
0002e0 1f 4e 6a bd a0 bd 05 be 47 a1 5c be e8 dc bf bd
       -0.05720341 -0.13060617 -0.21545897 -0.093683064
0002f0 0a d2 53 be 02 29 76 bd dc 4b 95 be 7c 19 31 3c
       -0.20685592 -0.0600977 -0.2915944 0.010809299
000300 78 a1 eb bb 00 fb b9 3d 8f 8c 91 be 1d 9d e7 3c
       -0.0071908794 0.090810776 -0.2842755 0.02827316
000310 25 d1 57 3e 2e f4 44 3e e1 b7 36 3d 95 9c 1f 3d
       0.21075876 0.19233772 0.044608954 0.038967688
000320 7b 2f 97 be 17 7a aa b8 dc a7 32 be 6d 46 1c be
       -0.29528412 -8.128973e-05 -0.17446846 -0.1526124
000330 4f 41 0a 3e 79 af c9 3d 7c 26 33 be 46 51 92 be
       0.13501476 0.09847922 -0.1749515 -0.28577632
000340 98 dc 97 bc 01 38 42 be 3b 01 37 bb 97 4d 47 3c
       -0.018537804 -0.18966676 -0.0027924317 0.012164495
000350 22 54 b3 bd 08 05 11 3e 23 f4 9b bd ab 3b 01 bd
       -0.087562814 0.14162076 -0.07614925 -0.031551044
000360 f3 0b 35 bd 72 1b a2 3b 2a c2 8a 3e c4 25 ad 3d
       -0.04420085 0.0049471194 0.2710126 0.08454469
000370 13 03 b2 be 79 fa 21 3e ca 8d c9 bd 6a 7a cb 3d
       -0.3476797 0.15818204 -0.09841497 0.09935458
000380 91 64 47 3d 7f 36 ea 3d 3d 87 a3 be 3d b2 b9 3d
       0.048679892 0.114361756 -0.31939116 0.090671994
000390 83 cd f1 3d 37 28 e5 bd 35 d0 3a 3d 5b 3e f3 bc
       0.118067764 -0.11189311 0.045608718 -0.02969282
0003a0 ac 17 34 bf e8 cc 5e be 26 26 f0 bc ff 4c 65 be
       -0.7034862 -0.21757853 -0.029315066 -0.22392653
0003b0 eb 8e ef 3d 43 86 83 3c 8a 65 57 3e 17 9e 1b bd
       0.11697181 0.016055232 0.21034828 -0.037992563
0003c0 70 85 2f bd 11 a3 5b be aa 0c 39 3e b3 56 b4 3d
       -0.042851865 -0.21448924 0.18071237 0.08805599
0003d0 71 08 e5 bd 9c 59 49 bd c3 5b 83 be 1a 62 59 3c
       -0.11183251 -0.049157724 -0.25655946 0.013268018
0003e0 bd 28 53 bc c4 bb f1 bd 8f 5e 30 be 1d ef f2 be
       -0.012888131 -0.118033916 -0.17223571 -0.47448054
0003f0 f7 64 ae bd bd 12 e4 3d 2c b0 f0 3c a0 9c 3f 3c
       -0.08515351 0.111363865 0.02938088 0.011695057

sequential_4/dense_9/MatMul f4 [10, 256]
000000 88 cc 1c 3e 24 73 25 be 74 47 2d 3e a7 4a 31 3e
       0.15312397 -0.16157204 0.16921788 0.17313634
000010 64 09 9e 3d f6 3c f9 3d f7 75 83 3c cf 77 99 bc
       0.07716635 0.121698305 0.016047461 -0.018733887
000020 fe 2d ae be be 13 c7 bd 0c 46 d6 3b ea 1d f3 be
       -0.34019464 -0.097205624 0.006539112 -0.4748376
000030 75 f1 ab be 0c aa f0 3d 0a 85 5b 3d c3 61 7d be
       -0.33582655 0.11751184 0.053593673 -0.24744324
000040 5e 9e cd 3d a3 08 21 be fc 00 6e be 88 8b 62 3d
       0.10039972 -0.15725951 -0.23242563 0.05530885
000050 52 5c aa be 38 cc ab be d2 02 6b bd b0 d0 08 3e
       -0.3327356 -0.33554244 -0.057375737 0.13360858
000060 6d e8 11 3e e3 76 aa be ab 82 08 be e1 d0 13 3e
       0.1424882 -0.33293828 -0.13331096 0.1443515
000070 34 d9 85 3d 71 dc cc 3c b5 14 4c be 2d 0a 4d be
       0.06535569 0.025007458 -0.19929774 -0.20023413
000080 72 fd 9f 3c f0 33 e9 be b3 55 02 bf 2f f7 d0 be
       0.019530032 -0.45547438 -0.50912017 -0.40813586
000090 ae f7 e3 3d 4c 9c 5f 3c 7e 06 62 3c fe c8 e2 3d
       0.111312255 0.013648104 0.013795493 0.110734925
0000a0 57 51 19 bd fc c0 1e 3a 6f 60 17 3e c4 8a ae be
       -0.037431087 0.00060559786 0.1478288 -0.34090245
0000b0 b0 de e4 bd c5 0c 70 bd 46 59 82 be c1 45 65 be
       -0.11175287 -0.058605928 -0.25458735 -0.2238989
0000c0 ac 1e 8c bd 29 7e d3 be e6 f8 a7 be 17 59 8e 3d
       -0.06841788 -0.4130719 -0.32807082 0.06950586
0000d0 d7 4c 05 be 3f 35 af 3d 96 42 37 bd 98 87 88 3d
       -0.13017593 0.08555078 -0.044741236 0.066664875
0000e0 b6 92 46 be 64 b7 e3 be 75 25 0f bf 6f 7f 5f be
       -0.19391903 -0.44475853 -0.5591653 -0.21825956
0000f0 8d be 03 3e 30 2c 9e 3a f1 a6 18 3e 53 b7 9a 3d
       0.12865658 0.0012067612 0.14907433 0.075544976
000100 23 44 1a be 4b 65 dc bd f3 6a 00 be 39 3c 9a bb
       -0.15065055 -0.107615076 -0.12540798 -0.004706886
000110 ad 7b cd 3d e5 58 dd 3d cc 84 61 3d b2 85 bb bd
       0.10033355 0.10807971 0.055058286 -0.0915636
000120 21 82 d0 bd 55 7e b7 be d1 c0 7e be 48 a6 14 3d
       -0.1018107 -0.3583857 -0.24878241 0.03629139
000130 00 5a 1f 3e 80 34 57 3c 42 43 01 bf 0e 9f 1a 3e
       0.15561676 0.013135076 -0.5049325 0.15099737
000140 70 d0 2e 3e 80 f1 88 be 58 1b a1 bd 32 f2 f8 bd
       0.170717 -0.2674675 -0.078665435 -0.1215557
000150 35 76 c2 bd 71 3a 06 3d 04 b7 bb bb 3c 92 c8 3c
       -0.094952025 0.032770578 -0.0057286043 0.024483792
000160 48 c5 6b 3c bd df 08 3e 6f e0 27 3e 96 10 ea bc
       0.014390297 0.133666 0.16394208 -0.028572362
000170 4f a6 ae 3d d3 4c 4f 3d a2 b0 c8 3c b1 ea 4e be
       0.085278146 0.050610375 0.024498288 -0.20206715
000180 7a 4f 9a bd 3d 9a 83 be 20 a8 a9 3d 7f 4c 8a be
       -0.0753469 -0.25703612 0.082840204 -0.27011487
000190 fe ab 3b be eb 8c 50 3d 45 72 f6 bd 11 29 4f be
       -0.18327329 0.05091564 -0.12033514 -0.2023051
0001a0 36 31 b0 3d 56 8c 43 3e e5 c4 15 3d 8f d0 68 3e
       0.08603136 0.19096503 0.036564726 0.22735809
0001b0 82 87 95 be 3a ac 1d be 05 57 4d be 3c 85 21 3d
       -0.29204947 -0.1539773 -0.20052727 0.039433703
0001c0 c2 4a 31 be 03 0f 89 bd 7d 29 85 3d e1 72 07 bf
       -0.17313674 -0.066923164 0.06502054 -0.52909666
0001d0 64 c9 90 bc 73 28 26 3e 71 47 da 3d b3 fb 1c be
       -0.017674156 0.16226368 0.106581576 -0.1533039
0001e0 5f c7 9f 3c b2 dc 31 bd 6f 57 9f bc 96 a4 ee 3c
       0.019504247 -0.043423362 -0.019450871 0.029131215
0001f0 41 b2 11 be 0d 3d 19 3e cd b6 de 3d d1 95 c4 3d
       -0.14228155 0.14964695 0.1087471 0.09598888
000200 0d 08 a1 3d 3a 85 b4 3d 7e 53 82 3d 0c 04 b2 bd
       0.07862864 0.088144735 0.06363581 -0.08692178
000210 5f 02 a6 3c 9b 11 0f be 80 3d a7 3d b0 c1 6a 3b
       0.020264803 -0.1397156 0.08166027 0.0035821013
000220 3c 64 99 3d ca ea 86 be ad a2 68 bd ed 06 44 bc
       0.07489821 -0.26351005 -0.056795765 -0.011964542
000230 e1 75 c1 3d 15 30 6b be 30 84 e9 bc ec 7a 46 bd
       0.09446312 -0.2296756 -0.028505415 -0.04845707
000240 bf b5 95 be 88 d3 96 3c f1 c7 92 be 46 a4 b5 be
       -0.29240224 0.018411413 -0.28668168 -0.35476893
000250 83 3a 05 be 5d 0f 81 3d df 82 a9 3d 9e 49 12 3e
       -0.13010602 0.063017584 0.08276915 0.14285895
000260 eb 8a 62 3d 46 ab f4 bd 25 ac a2 3d 4d 2c 77 3b
       0.055308264 -0.1194673 0.0794299 0.0037715614
000270 cf c6 89 be 48 57 2c be a4 1c 8b be e1 42 d2 bd
       -0.2690949 -0.1683017 -0.2717029 -0.102666624
000280 20 58 72 3d ef 27 22 3e 47 8e 48 be 5f 38 29 3e
       0.059166074 0.15835546 -0.19585524 0.1652541
000290 87 1e 4e be 94 8f 42 be 2a 4a a3 be 35 e8 80 be
       -0.20128833 -0.19000083 -0.3189252 -0.2517716
0002a0 bf 58 bb 3d fb 00 e8 be 9e 06 32 3e 99 f3 13 bf
       0.09147786 -0.45313248 0.17385337 -0.57793576
0002b0 e9 23 ec bd ba 48 84 3d 4b 63 41 3e 18 d3 fb 3c
       -0.11530287 0.06459184 0.18885534 0.030740306
0002c0 4e ef 9c bd 30 0c c5 bd d8 3c 91 3d e8 13 35 3d
       -0.07662831 -0.09621465 0.07091683 0.044208437
0002d0 71 0a b0 be f2 3a 0d 3c 1b 4c f2 be 2a aa bd be
       -0.34382966 0.008620011 -0.4732369 -0.37043887
0002e0 84 88 92 3d df 93 f1 3d cb 66 8a be 5d 04 2b 3e
       0.071549445 0.11795782 -0.2703155 0.16700883
0002f0 28 a7 c4 3d b9 31 e0 bd 68 68 f6 bc e1 c6 38 3d
       0.09602195 -0.10946984 -0.030079082 0.04511154
000300 af fa f7 3c 73 92 84 bd 35 d0 08 be 29 59 84 be
       0.030270902 -0.064732455 -0.13360675 -0.25849274
000310 64 4f e1 bc 2b 7c 54 be a7 d1 29 3d 33 c7 51 bd
       -0.027503677 -0.20750491 0.041459706 -0.05121536
000320 de cd a8 3b 3f 7e 44 3d c4 8b 5d 3d 77 93 5c bd
       0.0051514944 0.04797196 0.05408837 -0.05385157
000330 68 b9 2c be a4 4a 6c 3d 45 60 cb 3d ac d7 19 be
       -0.16867602 0.05768837 0.09930471 -0.15023679
000340 77 f1 2f bc af b0 d9 be 89 ce 96 3d 44 72 33 bf
       -0.010738722 -0.4251761 0.07363612 -0.7009623
000350 9e a9 99 3d 6d 77 ae bc 30 30 07 3d a6 6a ca be
       0.07503055 -0.021297181 0.03300494 -0.3953449
000360 8e 33 a3 be 9b 0b bf bd 07 a3 5f be 33 8e 2f be
       -0.3187527 -0.093283854 -0.21839534 -0.17144088
000370 72 4a 9c 3d df af 81 be 8a 30 96 be 8f ee f5 bd
       0.07631387 -0.25329491 -0.29333907 -0.12008392
000380 2c 64 3a bf dd 3d c4 be d2 59 04 bd d9 c9 b9 3c
       -0.728091 -0.38328448 -0.03231222 0.022679256
000390 88 21 d5 3d fc fc 53 bd b9 e4 b1 be c8 ff 6d 3d
       0.10406786 -0.051754937 -0.34744814 0.05810526
0003a0 09 06 04 3e d7 d8 36 3e 0d 91 96 bd d9 3c 7e 3c
       0.12892927 0.17856155 -0.07351885 0.015517437
0003b0 96 54 f7 be 4a 00 b7 be cd 0d c0 bd 72 bb 97 3d
       -0.4830672 -0.35742408 -0.09377632 0.07408799
0003c0 e7 2e d8 3d 72 f1 c0 3d 5a bc 5a bd d1 be 2d be
       0.10555821 0.09421052 -0.053402282 -0.16967322
0003d0 a8 40 8c be 6d 48 cd 3d 79 1b 50 be 9f 5b e9 bd
       -0.2739308 0.1002358 -0.2032298 -0.113944285
0003e0 32 32 1a bf 4b e5 c4 3d d0 45 f7 3d 83 6c a4 3d
       -0.6023284 0.09614047 0.120738626 0.080285095
0003f0 91 35 61 3e 2b 66 c1 be 8b b6 04 3e 46 a8 22 be
       0.2199309 -0.3777326 0.1296026 -0.15884504

sequential_4/conv2d_16/Conv2D f4 [32, 3, 3, 1]
000000 b0 6a 88 3b d0 1a 66 ba 5f f6 9e 3b 9b 98 99 bb
       0.0041631088 -0.0008777799 0.004851147 -0.0046873814
000010 d3 ed 19 bb 27 ef 60 bb 87 6e 3a bb 35 c3 ab bb
       -0.0023487702 -0.0034322233 -0.0028447227 -0.0052417764
000020 cd 75 13 3c b5 55 88 39 3e 69 3e 3b a0 32 8a 3a
       0.009000254 0.00026003798 0.0029054428 0.0010543652
000030 a1 ff 45 bb 47 9e a7 ba 0f b4 88 ba fe 71 55 3b
       -0.003021218 -0.0012788259 -0.0010429638 0.0032569165
000040 71 1a 29 ba a6 c7 95 3b f2 30 3e b9 aa 29 23 3b
       -0.00064507785 0.004570919 -0.00018138046 0.002489666
000050 15 cd 4b 3b ee c1 d3 bb d4 32 53 bb 7d 4a c3 bc
       0.003109758 -0.006462327 -0.003222634 -0.02383923
000060 4d 6c 89 3a 44 1a 22 3b e9 ab e5 39 25 39 ce b9
       0.0010484547 0.0024734894 0.00043806367 -0.00039333958
000070 94 15 5f bb 69 62 e1 39 66 46 e5 3a c2 c9 d3 ba
       -0.0034039961 0.00042988666 0.0017492294 -0.0016158151
000080 6b cb ba 3a 7c 77 8c 3b 48 ca de ba a7 b1 9d 3b
       0.0014251297 0.0042867046 -0.001699754 0.0048124376
000090 2d 63 cf bb c2 53 07 bc 40 af ef bb 77 2f 4b 3a
       -0.0063289613 -0.0082597155 -0.0073145926 0.0007750908
0000a0 d6 e0 73 3a d6 fd 50 bc 27 de 25 3b 0c 4c fb 3b
       0.00093032175 -0.012755832 0.0025309415 0.0076689776
0000b0 fb 91 13 3a 33 71 3d 39 a4 fe a2 3a 96 0b bd ba
       0.0005629358 0.00018066615 0.0012435508 -0.0014423009
0000c0 11 44 ac ba 6f 30 29 3b 5f d3 b0 bb ed ed 84 b9
       -0.0013142844 0.0025816222 -0.005396291 -0.0002535427
0000d0 1b 74 39 3c c8 23 9f bb 3a 84 10 bb 25 78 f2 3a
       0.011319186 -0.0048565604 -0.002205147 0.0018498941
0000e0 af ab d9 3a 92 f9 04 bb 8f e5 dd 3a 8e 21 07 3b
       0.0016606952 -0.0020290357 0.0016929376 0.0020619365
0000f0 de dc 6b 3a 07 89 67 ba aa fc 7d bb 4b 11 a3 bb
       0.00089974503 -0.00088323693 -0.0038755336 -0.0049764267
000100 92 4c 0a bb f7 94 9a 3b e2 a7 92 3b 3d 1e 72 3b
       -0.0021102768 0.004717465 0.0044755796 0.0036944293
000110 d7 d9 be bb 21 b2 10 bb 0b 55 1f bb 3e 39 12 3c
       -0.0058243084 -0.002207883 -0.0024312164 0.00892478
000120 60 fd e9 bb 87 39 3f 3b 13 15 98 3b bd 08 c9 3a
       -0.0071408004 0.0029178576 0.004641184 0.0015337687
000130 3e 82 17 bb ff 95 a1 bc a8 0d ff bb 8b f4 e7 ba
       -0.0023118402 -0.019724844 -0.0077836104 -0.0017696781
000140 01 08 07 3c ec ce a8 b8 42 77 9d 39 8d b1 02 3b
       0.008241654 -8.0494065e-05 0.00030034228 0.0019942254
000150 80 56 4f 3a c2 b9 26 ba 04 d9 aa ba 3c 14 19 3b
       0.0007909313 -0.00063600775 -0.0013034646 0.0023358008
000160 13 57 8f ba e6 66 8e 3b c4 de cf bb 26 fa 85 bb
       -0.0010935984 0.0043457625 -0.0063436944 -0.004088658
000170 92 fe 34 bb 18 12 38 b7 56 76 aa 3a e0 d8 3d ba
       -0.0027617556 -1.0971467e-05 0.0013005238 -0.0007242095
000180 f9 e6 1e 3a ca 4e cd b9 1c ca 15 3b c0 5c 40 bb
       0.0006061639 -0.0003915935 0.0022856062 -0.0029352158
000190 9d 19 e0 bb 0a ab 58 bb 16 25 11 3b 14 2f 6e 3a
       -0.006838991 -0.0033060932 0.002214735 0.00090859947
0001a0 c2 d6 4b 3c 8d 71 ea bb 32 7b 64 bc 8a 2b 96 3a
       0.012441339 -0.0071546496 -0.013945388 0.0011457067
0001b0 67 1d af 38 0e 29 f8 3b f6 cd 1e bc df 0d ae bb
       8.350127e-05 0.0075732535 -0.00969266 -0.005311712
0001c0 ad 66 08 bc 48 7a 62 bc 2b cb a4 bb a5 32 13 3c
       -0.008325261 -0.013823099 -0.0050291023 0.008984243
0001d0 d5 62 52 3b 52 e5 9d 3a dd 09 5d 3b 0f 27 93 bb
       0.0032102366 0.0012046492 0.0033727803 -0.00449074
0001e0 2e 28 ef ba b5 76 be ba b9 91 3e bc 6c 1a 36 3a
       -0.0018246227 -0.0014531227 -0.011631423 0.0006946686
0001f0 0d 0f c0 ba 30 81 8f 3c ad 9f 8d 3b ef 5b 50 ba
       -0.0014652923 0.017517656 0.0043220134 -0.00079482695
000200 a3 ba 5a bb e8 be 99 ba e5 8c 50 39 7b e4 26 3b
       -0.0033375404 -0.0011729868 0.00019888913 0.0025465775
000210 ef 49 ee 39 5b 71 dd 3a 8a 61 a0 3a a5 d1 b3 ba
       0.00045449982 0.0016894744 0.00122361 -0.0013719095
000220 a2 f1 4b 3a 22 e7 84 bb 00 59 1b 38 c2 06 df b9
       0.00077798415 -0.0040558735 3.7037767e-05 -0.0004253891
000230 16 19 22 bc 9e 8e e1 3a 84 e1 cd 38 22 ed 82 3c
       -0.009893676 0.0017208641 9.817167e-05 0.015982214
000240 57 e2 21 b9 a1 d0 62 ba 1c 80 4a 3b ce 2c db 39
       -0.00015438475 -0.0008652304 0.0030899113 0.00041804317
000250 eb 4f 83 3a 5e 0b 07 bc b6 10 bf bb dc 81 8d 3c
       0.0010018324 -0.008242456 -0.0058308495 0.017273836
000260 d0 5e 21 bc 62 67 97 39 fb 7b f2 39 71 2c b4 bb
       -0.009849265 0.0002887799 0.0004625021 -0.005498462
000270 3f 7c 76 3b 71 0d 74 ba ce 27 19 3b c7 89 4b ba
       0.0037610678 -0.0009309864 0.0023369673 -0.0007764366
000280 32 26 b6 ba 2d e1 ef bc 0b b3 72 3b 7a 13 75 3b
       -0.0013896881 -0.029282177 0.0037032987 0.0037395642
000290 a3 06 22 bc 78 48 09 3b 62 3b 1f 3c 98 ae 1d 3a
       -0.009889278 0.0020947736 0.009718748 0.0006015091
0002a0 66 b0 31 bc 63 2b d1 3b 26 cb a8 bc 23 67 d8 b7
       -0.010845279 0.006383346 -0.020604681 -2.5797233e-05
0002b0 5f e7 ae ba 5c 18 44 b9 e4 97 9d 3a 2e 14 31 3b
       -0.00133441 -0.00018701091 0.0012023416 0.0027020085
0002c0 dc 6e 34 bb 4d c8 b7 ba d6 aa 3f bb 5a c2 0f 3c
       -0.0027531898 -0.0014021486 -0.0029246113 0.008774364
0002d0 a9 37 ac 39 6d a3 09 bb 89 ae 35 bb c9 5d 0f 3b
       0.00032847867 -0.002100195 -0.002772244 0.0021875969
0002e0 7c 83 4d 3b 93 ab 37 bc 54 8c ed 3b 25 39 06 3c
       0.0031358888 -0.01121034 0.0072493944 0.008192335
0002f0 3a d6 04 bc 35 4e 3a 3b 70 b1 6f 3a 54 69 04 3c
       -0.008107716 0.0028427963 0.0009143567 0.008081753
000300 77 30 57 bb 45 1d 58 bc 40 6a 1e 3c 88 32 af 3b
       -0.0032835284 -0.013190572 0.009668887 0.0053466
000310 87 b0 ab 3a d3 f8 05 bd 2d 1d a5 3a 68 6e e0 39
       0.0013098874 -0.032708 0.0012597196 0.00042806868
000320 67 70 87 3b e6 4f 05 bb 8d 82 ec 3a 21 1c 23 3c
       0.0041332725 -0.0020341813 0.0018044278 0.009955437
000330 93 d2 cb bb ec 5a b6 bb 69 b6 5d bc 46 d7 51 3b
       -0.0062201708 -0.005565038 -0.0135322595 0.0032019182
000340 10 db 0a ba 05 d4 12 3b a5 56 7e 39 7f 11 f1 ba
       -0.0005296925 0.0022404206 0.00024255605 -0.0018392055
000350 03 09 49 3b 68 03 9e ba 02 a4 92 bb a7 0d d1 3b
       0.0030675537 -0.0012055459 -0.0044751177 0.0063798013
000360 55 e8 64 39 5f 33 cf 3a f7 00 ec 3a 5f 09 37 3b
       0.00021830325 0.0015808156 0.0018005659 0.002792917
000370 54 39 b9 3b c8 aa 9e ba e7 29 87 ba db 3e 73 ba
       0.005652586 -0.001210534 -0.001031217 -0.00092790806
000380 ff 86 38 bc eb e8 2c ba af 78 a7 bb ed 8b fa 3b
       -0.011262654 -0.0006595987 -0.005110822 0.007646075
000390 ec 2b c0 ba 03 6a 1f bc ed e8 80 bc a0 33 17 3a
       -0.0014661527 -0.009729865 -0.015736068 0.00057678856
0003a0 b5 65 70 3c df 38 2d bc 46 fc 38 3b a1 f8 b0 ba
       0.014672686 -0.010572641 0.0028226539 -0.0013501832
0003b0 e4 3f fd 3a 12 bc 4c 39 e9 e8 ec 3a 8c f7 07 3b
       0.0019321409 0.00019525018 0.0018074784 0.0020746915
0003c0 03 5d c7 ba 39 f2 d1 39 52 cc 89 bc fa 66 62 3a
       -0.0015210215 0.00040044056 -0.01682106 0.00086365605
0003d0 45 1e 14 bc 4f b1 e6 3b 87 30 4a ba ec 68 8b bb
       -0.00904042 0.00704018 -0.00077129196 -0.004254451
0003e0 e8 fc 47 3b 91 f0 7b bb a1 7b 02 bc 28 ee 41 bb
       0.0030515734 -0.003844295 -0.007964046 -0.0029591415
0003f0 ab 5d 52 3a ce 2f 4b 3a 6a a2 2f bb 2b 19 cc ba
       0.0008024822 0.0007750959 -0.0026799687 -0.0015571465

sequential_4/conv2d_17/Conv2D f4 [32, 3, 3, 32]
000000 31 ed 74 3a ce 38 51 3e 45 fb 98 bd 58 ec 47 bd
       0.00093432056 0.20431826 -0.07469801 -0.04880938
000010 19 9c a6 be 1b e0 7a bb b4 01 aa 3d 58 9f 70 3c
       -0.32540968 -0.003828055 0.08301106 0.014686428
000020 62 e8 7b bd 5e bc 03 3e 88 be 04 be 3e 45 c1 ba
       -0.061500914 0.12864825 -0.12963307 -0.0014745367
000030 03 ed 8f bd 4b e0 af bc 1e 14 29 3d 75 58 82 bd
       -0.07027628 -0.021469256 0.04127895 -0.06364528
000040 db df 0d 3d 79 f9 b6 3d 53 f1 bc 3d e3 26 b1 bd
       0.034637313 0.08934302 0.092257164 -0.08649995
000050 8d b1 ae 3d 06 3c c7 3d 8e 68 b9 bb c3 bb e4 3c
       0.08529959 0.097282454 -0.005658216 0.027921563
000060 13 2e 87 bd f1 cb d9 bd a8 74 24 3e 3b 68 16 3d
       -0.06600585 -0.10634602 0.16060126 0.036720496
000070 65 b5 20 3e 02 35 73 be e5 dd 44 3d 41 cb 06 3d
       0.15694197 -0.2375069 0.048063178 0.03290868
000080 1f 36 ac bd ef af 76 bd 15 4a 7c 3d ae 5c b8 bd
       -0.0840876 -0.060226377 0.061594088 -0.09002052
000090 7a 99 a5 be 47 97 91 3d c8 72 9d bc 1a d3 04 be
       -0.32343656 0.07108932 -0.019219771 -0.12971154
0000a0 35 21 9f 3d 5f 64 36 bd 24 2c b2 3c 65 88 35 bd
       0.077700056 -0.044529315 0.021749564 -0.04431953
0000b0 36 f2 d3 3d 5c 3f 58 bc 30 91 05 3d 71 60 97 bd
       0.103489324 -0.0131987 0.032609165 -0.073914416
0000c0 65 79 00 3d 44 c6 7a 3d 86 af 59 3d c1 e8 bf bd
       0.03136577 0.061224237 0.053145908 -0.09370566
0000d0 ff b8 34 3e 16 66 73 bd a9 c4 ca bd 40 95 ed bc
       0.17648695 -0.05942353 -0.09900791 -0.029001832
0000e0 f0 4a 2e 3d e8 73 8c bd 3e 63 42 3d 90 f3 ba 3b
       0.042551935 -0.06858045 0.047457926 0.0057053044
0000f0 9e 8d 1b 3e a2 43 57 3c 4c 8f 36 3d 56 ba c9 3c
       0.15190741 0.0131386835 0.044570252 0.024624985
000100 2a 98 ad 3c 44 4f 21 bd 7d fd ed bd 0e 9b 83 bd
       0.021190722 -0.039382234 -0.11620615 -0.06426059
000110 6e 1b 21 be b5 4f 2b bd 23 03 f5 bd b1 0e ad bd
       -0.1573312 -0.04182406 -0.11963489 -0.08450068
000120 1b c8 d9 bd e9 f1 66 bd 97 3c 49 3c 67 c4 e5 3d
       -0.1063387 -0.056383047 0.012282512 0.112191014
000130 1f 08 26 bd 00 61 aa bd 58 10 27 bd e6 f8 fd bd
       -0.04053509 -0.083192825 -0.04078707 -0.12400989
000140 a3 49 6e bd b2 d7 9f bc d1 2c 0b be b3 a4 70 bd
       -0.058175694 -0.019512031 -0.13591315 -0.05875082
000150 07 f0 b5 bb 44 28 1e be 3a fc df bd a1 87 6d bd
       -0.005552295 -0.15445048 -0.1093678 -0.057990674
000160 fe 34 e4 bc 65 75 b0 bd 39 66 c1 bc b8 cc 6d 3d
       -0.0278573 -0.08616141 -0.023608314 0.058056563
000170 e7 1c d4 3b 10 fa 6b 3d 09 c8 ab bd c5 de c3 bd
       0.006473172 0.057611525 -0.08387763 -0.09563974
000180 5d c7 cc bd b1 6a 6a 3d 86 f5 f0 bd f6 31 a8 bd
       -0.09998963 0.057230655 -0.1176558 -0.08212654
000190 85 18 c4 3c 6d 6d 13 3d 4d 63 c1 bd 65 f4 b1 3d
       0.023937473 0.03599303 -0.09442768 0.08689193
0001a0 b4 eb 4e 3c 42 18 91 3c 88 ba 8b bd f2 dd ae 3d
       0.012629438 0.017711762 -0.068226874 0.085384265
0001b0 77 bd 22 bd 21 09 56 bc f3 d4 82 bd ea 0d ed bc
       -0.03973147 -0.0130637 -0.06388273 -0.028937299
0001c0 26 35 0e 3d 2e ba cc 3d 7a b9 9c bc 4b 7b 96 3b
       0.034718655 0.099964485 -0.01913141 0.0045923344
0001d0 a8 e6 91 3d c8 ce ef bc bc d9 07 bd 92 aa a2 ba
       0.07124072 -0.029273406 -0.033166632 -0.0012410453
0001e0 64 95 7d bd 5d fc ae 3d 1a 65 fa bd 6d 85 4f 3d
       -0.061910048 0.08544228 -0.12226315 0.050664354
0001f0 50 10 8a 3d ad 23 13 bd da 6d 55 bc 65 bc e0 bd
       0.067413926 -0.035922695 -0.013026679 -0.109734334
000200 78 61 48 be c4 53 8d bd 8b be b8 bc 08 1f 1e 3d
       -0.19568431 -0.06900743 -0.022551795 0.038603812
000210 de 57 c2 bc 23 e3 a7 3d 3f eb d6 bb 8a 73 dd bd
       -0.023723539 0.0819762 -0.0065588052 -0.10813053
000220 df 0e 84 3d c0 cd 96 3d f7 56 96 3d 71 2b 97 3d
       0.06448149 0.073634624 0.07340806 0.07381333
000230 e6 b1 23 3e f9 f9 ac bd a2 7a 1c 3d 75 11 b5 bd
       0.15985832 -0.08446116 0.03820289 -0.0884122
000240 59 18 70 3d 5d e7 20 3e 18 5a 16 3d c7 2d 93 bd
       0.05861697 0.15713258 0.036707014 -0.07186466
000250 32 bc 4d 3e c2 32 3b 3d 32 11 a0 bc 0c b7 94 bd
       0.20091322 0.045702703 -0.01953945 -0.07261476
000260 51 d6 6c bd 13 6d be bc f4 b9 2d 3c ed b7 de 3c
       -0.057821576 -0.02324537 0.010603417 0.027187312
000270 1b 5b 3a 3e 23 2e 25 3e 09 fb 29 3b 64 68 00 3c
       0.18198816 0.16130881 0.0025936982 0.007837389
000280 c8 49 7a 3d f1 45 84 bd 1a b3 fd bd 81 9f 1b bd
       0.06110552 -0.06458653 -0.123876765 -0.03799391
000290 88 aa 4a be 31 ee 99 3d 5b 7d b5 3d be 29 5b bd
       -0.19791615 0.075161345 0.088618 -0.053506605
0002a0 f0 14 30 bc 00 d0 0c be d3 d8 14 3b 25 bf 89 3d
       -0.010747179 -0.1375122 0.0022712245 0.06725911
0002b0 ba bf 1f be 85 76 90 bb 6a 0f ae bd aa cb 9f bd
       -0.15600482 -0.00440866 -0.08499034 -0.07802518
0002c0 00 35 b8 3d 8e 8f 03 be 95 4d 8f bd 18 5a 0a bc
       0.08994484 -0.1284773 -0.069972195 -0.008444332
0002d0 76 26 3a 3e a7 6d db b9 b7 71 97 bc c8 46 f8 bc
       0.18178734 -0.00041852632 -0.01848684 -0.030307189
0002e0 01 9a 0f 3d e8 70 b7 bc d8 35 88 bc 38 58 08 3e
       0.03505898 -0.022392705 -0.016627237 0.13314903
0002f0 d2 99 8b 3d 11 cf 3d 3d 54 b1 73 3d a4 5f d3 3b
       0.06816448 0.046340052 0.059495285 0.0064506102
000300 23 64 18 bb 0d ac f6 bc 04 c5 06 3c 2a a9 1f be
       -0.0023253046 -0.030111337 0.008225683 -0.15591875
000310 07 de b7 3d 68 5a 17 be c2 82 36 bc 85 d2 13 be
       0.08977895 -0.14780581 -0.0111395735 -0.14435776
000320 33 8a db ba 76 b0 88 bd 2e d4 9b 3d 1a 9a 02 3d
       -0.0016749561 -0.06674282 0.076088294 0.031885244
000330 dd 1d f8 3c f0 b3 a2 bd aa 75 db bd c2 47 41 bd
       0.030287677 -0.079444766 -0.10715802 -0.047187574
000340 9f ca 4b bd 27 b8 1f bd 9e 10 d3 3d 68 95 b5 bd
       -0.04975378 -0.03899398 0.10305904 -0.088663876
000350 1e 75 11 be ca 8e 5e 3d c0 13 7a 3e b3 8f 00 3d
       -0.14204833 0.054335393 0.24421597 0.031387042
000360 44 84 b5 3a 71 e1 36 3d df 21 e6 3c ac 34 15 3e
       0.0013848622 0.04464859 0.028092323 0.14570874
000370 07 b1 56 bc c2 0f ad 3d 1c 10 ee bd 3f d5 fb 3d
       -0.01310373 0.08450271 -0.11624166 0.12296533
000380 15 84 a5 bd 8d 07 9e bd b7 68 79 3e f0 60 1c 3e
       -0.08081833 -0.07716284 0.24356352 0.15271354
000390 eb 60 37 bc 13 74 81 be ac d0 36 bc 51 fb 85 3c
       -0.011192541 -0.2528387 -0.01115815 0.016355189
0003a0 33 f8 db 3d 55 15 b0 ba 1a b6 47 3b da d0 cd be
       0.107406996 -0.0013434092 0.0030473531 -0.40198404
0003b0 87 66 03 bd 22 23 15 3c 15 a5 51 bd 04 fc b9 bd
       -0.0320802 0.009102615 -0.051182825 -0.09081271
0003c0 14 44 5b 3d 04 d5 66 3e 95 b3 22 3e a8 5e 81 bc
       0.05353172 0.22542197 0.15888818 -0.015792206
0003d0 9e e5 38 be 08 7d 94 3d 53 3a a3 3d 89 15 0f be
       -0.18056342 0.0725041 0.07970109 -0.13973059
0003e0 7b b6 17 3d 9f 5e 50 3e f8 b6 5d 3d ae 92 0c 3c
       0.03703926 0.20348595 0.05412957 0.008579893
0003f0 6a a7 cc bd fd 67 f3 3d f6 32 c9 bd e7 61 54 3d
       -0.09992869 0.118850686 -0.09824173 0.05185118

sequential_4/conv2d_18/Conv2D f4 [64, 3, 3, 32]
000000 97 a9 89 bd ca 75 4e bd 2e d5 0e 3d 36 4d fb bc
       -0.067218 -0.0504053 0.034871273 -0.030676465
000010 a6 58 0f bd 36 18 90 3d c6 90 ee 3c 7e a7 4e 3d
       -0.03499665 0.07035868 0.029121768 0.0504527
000020 47 21 a3 bd ab a1 68 bd c3 4b eb bc f6 7d 83 3d
       -0.079653315 -0.056794804 -0.02872265 0.064205095
000030 72 96 4a 3d 61 eb bc bd c0 46 13 3d 8b b7 86 bd
       0.049459882 -0.092245825 0.035956144 -0.06577977
000040 22 78 d9 bd e0 f8 83 bc d6 e9 d0 bd 4f c1 cb 3c
       -0.10618617 -0.016109884 -0.10200851 0.02487245
000050 b9 68 8a 3d ad 76 6c 3d 05 32 92 bc 9f d8 4a 3b
       0.067582555 0.057730366 -0.017846117 0.003095187
000060 55 e5 28 bd d8 cd ef bd 88 32 81 bd 2c 33 9b bd
       -0.041234333 -0.117091835 -0.06308466 -0.0757812
000070 ff 6e 4d bc 44 35 f3 bd 1a d9 a3 bc 58 ee 88 3d
       -0.012538671 -0.11875394 -0.020000983 0.066860855
000080 1f 39 03 3c aa e6 d1 bc 43 4b 33 3d 09 83 20 bc
       0.008009224 -0.025622685 0.043772947 -0.009796866
000090 3e 5d 47 3c f1 f5 c1 3b 5a 80 2e 3d f4 70 b8 3c
       0.012168227 0.005919211 0.042602874 0.022514798
0000a0 c8 4d d8 3d cd 05 b4 bd fb 4d dd bd 04 0b 14 3d
       0.105617106 -0.08790169 -0.10805889 0.036143318
0000b0 fb 5e 82 3d 10 84 21 3d 92 87 3c 3d 87 94 e2 3a
       0.06365772 0.039432585 0.046027727 0.0017286696
0000c0 d3 fb c5 bd 42 3a 8d 3d 2d df 47 3c 85 c1 c1 bb
       -0.09667172 0.068958774 0.012199205 -0.005912962
0000d0 51 66 21 3d 65 64 92 bc 37 cd 7c 3b 2a 49 f9 3c
       0.039404217 -0.017870137 0.0038574466 0.030430395
0000e0 e0 eb 4a 3c 2a ef 1b bd 27 9a ea 3b b2 a6 32 bd
       0.012385339 -0.03806988 0.0071594897 -0.043616004
0000f0 1f 35 96 bd d7 31 03 3d b9 ec 70 bc fd 6b dc 3d
       -0.07334351 0.032029953 -0.014704877 0.10762785
000100 67 f0 87 3c 55 54 13 be bc 2d 89 3d 1d ce cb 3d
       0.016594125 -0.14387639 0.06698176 0.09951422
000110 98 fb a2 3d 55 9e df 3d 63 da cf bd 32 87 1c be
       0.07958144 0.10918871 -0.10149076 -0.15285948
000120 d9 ad 18 3b 2b 49 d7 bd ca 32 17 be 8f ed f8 3d
       0.002329698 -0.105120026 -0.14765468 0.12154686
000130 30 bc 6d 3e 8e 9a ce 3d 77 bd 1a 3d c4 06 c5 3d
       0.23216319 0.10088073 0.037778344 0.09620431
000140 88 6d 6b 3b 72 69 2c bb 33 37 5e bd e1 8b 19 3c
       0.003592344 -0.0026307967 -0.05425186 0.009371729
000150 e1 7a 08 be 5a a6 9e 3d 40 f0 86 3d 08 5e 7d 3d
       -0.13328125 0.07746573 0.06588793 0.061857253
000160 98 c6 0c 3e d8 81 aa bc 3a fc be 3b 61 9d 8c be
       0.13747633 -0.020813867 0.0058284076 -0.2746382
000170 06 33 94 3d 17 bb 81 3d a1 91 b8 3d e1 c3 97 bd
       0.072362944 0.06334513 0.090121515 -0.07410408
000180 aa 0c 1a 3c dc bb 06 bc fc 67 55 bd 6f 67 8a 3b
       0.009402433 -0.0082235 -0.05210112 0.004223756
000190 c7 5c a3 bd aa e3 d2 bd cf 9e df 3c e8 83 80 3c
       -0.0797668 -0.1029733 0.027297406 0.015687898
0001a0 1d 27 68 3d 67 73 ed bb 83 eb 6e 3c 96 a7 37 bd
       0.056677926 -0.007246423 0.014582518 -0.044837557
0001b0 e8 ee 86 bd fa 1e d1 bd 47 e2 32 bd 8a 09 ea bc
       -0.065885365 -0.102109864 -0.043672826 -0.028569002
0001c0 3e 02 96 bd 6d d1 ee bd c9 cd 3c be c6 1d 7e bc
       -0.073246464 -0.116610385 -0.18437876 -0.015510028
0001d0 d4 9d a0 3d 5a dc af bd fd 7b 9d bd c1 d2 8e 3d
       0.07842603 -0.085869506 -0.076896645 0.06973792
0001e0 ef 07 fe bd d3 8a 12 3e cc 66 86 bd 7b 20 9b bd
       -0.12403857 0.1431077 -0.06562576 -0.075745545
0001f0 d8 53 04 bd d3 3c 49 bc ba 44 45 bc 2f cc 11 3d
       -0.032306522 -0.012282568 -0.0120403115 0.035595115
000200 e1 e4 16 3c 59 b4 4c bc 60 6f 99 bd c0 39 08 3d
       0.009209842 -0.01249417 -0.07491946 0.0332582
000210 23 68 8e bc 5f e2 ca bd d9 88 89 3d 22 1c 7a bc
       -0.01738364 -0.09906458 0.06715555 -0.015265496
000220 76 a0 eb 3d 3a de 63 bd 84 dd b7 bc c0 22 3d 3d
       0.11505215 -0.055631854 -0.022444494 0.04617572
000230 db 75 34 3c d3 9a 27 bc bc d7 1d 3d 33 14 99 3b
       0.011014427 -0.010229784 0.03853582 0.0046715974
000240 b4 6e 96 3c b3 b6 e0 3c 66 6f 85 3d e4 b4 50 3d
       0.018363334 0.027430868 0.06515388 0.05095376
000250 1b c8 44 3d 4d a2 cb 3c e8 a2 a3 3d 18 db d0 3d
       0.048042398 0.024857664 0.07990056 0.10198039
000260 25 69 e1 3c 1e c5 84 bc 3a 52 9d 3d 07 70 69 bd
       0.027515957 -0.016207274 0.07681699 -0.056991603
000270 0a 87 31 bc 22 5f 25 3d e3 c0 02 bd ac 35 38 3d
       -0.0108354185 0.04037393 -0.031922232 0.04497306
000280 a1 b4 e3 bd 83 35 cd bc 52 80 ab bc e7 99 5d 3d
       -0.111184366 -0.02504993 -0.020935211 0.05410185
000290 90 1e 07 3e d9 e8 89 bc 42 ef 6c bc e7 06 55 3b
       0.13195252 -0.016834663 -0.01446134 0.0032505335
0002a0 a2 6c 09 bc 49 35 00 bd e6 65 76 bd dc 3e 25 3d
       -0.0083877165 -0.031300817 -0.06015577 0.04034315
0002b0 8b 40 02 be 28 e4 8f bd 82 dd 6c bd a6 2f a8 3d
       -0.12719934 -0.07025939 -0.057828434 0.08212213
0002c0 cd 9e 24 bd ad d9 a8 bd 21 c4 f6 bc 82 57 e1 bd
       -0.040190507 -0.08244643 -0.030122818 -0.11003019
0002d0 e2 72 63 bd 46 99 83 3a 4b 7a 35 bd 7e b1 06 3d
       -0.055529483 0.0010040186 -0.04430608 0.032884113
0002e0 f0 16 a3 3d 87 e7 da 3c fc bf eb bd d1 6c 96 bc
       0.07963359 0.026721729 -0.115112275 -0.018362435
0002f0 71 a7 f2 3c d1 67 84 bd 7a cd ff bd 85 64 39 3c
       0.029620858 -0.06465114 -0.124903634 0.01131547
000300 44 08 d6 3d e1 b2 fc ba c1 ee 28 bd 60 5a 05 be
       0.10450795 -0.0019279384 -0.04124332 -0.13022757
000310 9f fa 8b bd b0 6f eb 3b 5e 95 a3 bd 0b b9 46 bd
       -0.068349116 0.007184945 -0.07987474 -0.048516314
000320 e5 14 70 3c 84 37 3d 3d b6 4b db 3c 0c 52 27 3d
       0.014653419 0.046195522 0.0267695 0.04084973
000330 05 b4 ca bd 59 c4 9c bd 8e 4c 16 3c a2 b1 7f be
       -0.09897617 -0.07654638 0.0091735255 -0.24970105
000340 43 99 36 bd 27 31 0a 3e eb fb 99 3c 6a 82 6e bd
       -0.044579756 0.13495313 0.018796882 -0.05822984
000350 a3 8d 91 3d 8d 6c c6 3c 68 1c 6f bc ac 3d d3 bd
       0.07107093 0.024221683 -0.014594175 -0.10314497
000360 1c 97 94 be ad 74 b7 3c c2 f9 9d bd d8 2c fe 3d
       -0.29021537 0.022394503 -0.07713653 0.12410897
000370 ba 69 42 bd f3 dc f4 bd 29 47 8e bc 5e dd 95 bd
       -0.04746411 -0.11956205 -0.017367916 -0.07317613
000380 98 e9 a6 3c 1c bf 9a bb 97 09 f6 bd 0b 81 d9 bd
       0.020375058 -0.004722489 -0.12013548 -0.10620316
000390 84 87 c3 bc 64 5a 88 bb c6 4e 11 bd 77 06 45 bd
       -0.02386833 -0.004161166 -0.035475515 -0.04810187
0003a0 05 8a 2a 3c 1a 49 a4 3d 4e 19 d5 3d 32 a2 82 bd
       0.010408883 0.080217555 0.10405217 -0.063785926
0003b0 7e 4a 86 bc b7 ba 87 bd 35 c6 dc 3c e9 08 d0 bd
       -0.016392943 -0.0662741 0.026949981 -0.101579495
0003c0 d9 9c a4 bd 77 6f 9c 3d cc 93 c7 bb 9c ed 1d 3d
       -0.08037729 0.07638448 -0.006090617 0.03855668
0003d0 7f ff 60 3d 52 3e 23 bd 8f ab a5 bc b6 12 1b 3c
       0.05493116 -0.039854355 -0.020223407 0.00946491
0003e0 23 0d 0a be 3b 44 c7 3d 15 e0 0a 3d f8 0d f3 3d
       -0.13481574 0.09729811 0.033905108 0.11867899
0003f0 8b e7 94 bd c3 f5 2e bd d3 51 b6 3c cd 2a 0d 3d
       -0.07270726 -0.042714845 0.022255814 0.034464646
