quandrant_models/trained_model_bottomright.tflite (tflite, 341960 bytes, 12 tensors)

sequential_7/dense_15/BiasAdd/ReadVariableOp f4 [10]
0.40859544 0.3163034 -0.014109605 0.11071864 -0.14073937 -0.19580767 -0.16933413 -0.047730647
-0.06987704 0.0010564654
00000000: 6c33 d13e 85f2 a13e f92b 67bc 74c0 e23d
00000010: fb1d 10be ce81 48be ed65 2dbe 3681 43bd
00000020: b21b 8fbd 1979 8a3a

sequential_7/dense_14/BiasAdd/ReadVariableOp f4 [256]
0.11817162 0.058715824 0.07185272 0.18020973 0.17742202 0.11411458 0.14101227 0.04184379
0.16252899 0.1491931 0.028817715 0.18740949 0.097528525 0.11263415 0.1306711 0.09073368
0.017049536 0.2751823 0.22461861 0.14944084 0.08659836 0.14726157 0.27612963 0.15666898
0.11286864 0.21091448 0.20812716 0.22696102 0.06841855 0.20153597 0.082723625 0.19565687
0.14356811 0.15092072 0.18260922 0.21370846 0.07758873 -0.08280602 0.06766798 0.18143994
0.14869276 0.16477415 0.19138777 0.09652135 0.1662082 0.0753655 0.17587858 0.20570903
0.15901913 0.15582 0.22804074 0.12655629 0.2885072 0.12930712 0.20151898 0.21791032
0.09817434 -0.13860743 0.22853638 0.079955764 0.14722127 0.032109838 0.013080504 0.19951646
0.20253523 0.16777098 0.11887025 0.12865742 -0.011605942 0.07321874 0.033587225 0.125874
0.08451822 -0.010192598 0.1556993 0.17196822 0.14879645 0.18966235 0.06573215 0.16245171
0.13988465 0.231247 0.16210444 0.2249131 0.19575846 0.10435343 0.11826189 0.23246148
-0.020800693 0.09825366 0.29286045 0.18259965 0.036829326 0.16947578 0.10305903 0.061048623
0.28198805 0.22545493 0.08406752 0.23765394 0.22157164 0.09658677 0.028226625 0.098009855
0.08415223 0.0042929584 0.12673785 0.058565397 0.08632456 0.040434875 0.07683354 0.25286266
-0.0047633667 0.12993316 0.105784826 0.16033453 0.13051718 0.13150659 0.13262339 0.049529094
0.22812892 0.12569347 0.22170074 -0.11816492 0.078096084 0.21090484 0.29464442 0.064024016
0.16851626 0.10817888 0.21683066 0.23849174 0.13999315 0.12363712 0.16322553 0.21282281
0.15050496 0.0064589744 0.20923187 0.08811878 0.14113277 0.050709303 0.07091243 0.14300448
0.24407066 0.2125659 0.12441702 0.13724981 0.14667124 0.07667086 0.1593337 0.18613774
0.02792433 -0.11506393 0.18680978 0.24900442 0.2171107 0.117886834 0.11425802 0.055460874
0.12559618 0.14275411 0.26165995 0.20313482 0.16106762 0.116617545 -0.08376981 0.07521545
0.12506734 0.09926986 0.1063836 0.16883425 0.09737985 0.17878565 0.20087661 0.066638574
0.14645106 -0.012662525 0.023216177 0.05565466 0.18016054 0.100743026 0.0664058 0.06310068
0.13503164 0.13392495 0.11543781 0.16412234 0.1440377 0.20354763 0.23441824 0.10432133
0.092964485 0.11349453 0.15835766 0.1549322 0.28332767 0.10508502 0.07987986 0.11581932
0.28802723 0.1147356 0.22142757 -0.008375161 0.18092676 0.1499432 0.2577939 0.037059404
0.10588657 0.084245674 0.1931772 0.18025614 0.19119626 0.14126055 0.08050139 0.07334581
0.15213294 0.17147033 0.16605128 0.2631692 0.1890057 0.06808129 0.15732506 0.07705636
0.24821004 0.23019917 0.18678276 0.050363958 0.13110676 0.1764887 0.15520078 0.098239735
0.19812393 0.20045738 0.12584424 0.11067177 0.2091437 0.22447264 0.14547749 0.16760226
-0.017210193 0.11363106 0.050411537 0.024010643 0.12142754 0.049141005 0.0920662 0.098057196
0.23344083 0.09133642 0.25430515 0.17066118 0.13397644 0.08549371 0.22427596 0.14977461
00000000: f603 f23d 0180 703d 8527 933d e688 383e
00000010: 1eae 353e e8b4 e93d 8565 103e 6564 2b3d
00000020: 006e 263e 13c6 183e 2113 ec3c 46e8 3f3e
00000030: 09bd c73d bcac e63d a5ce 053e 94d2 b93d
00000040: 78ab 8b3c b2e4 8c3e 6c02 663e 0507 193e
00000050: 7b5a b13d bdcb 163e dd60 8d3e d56d 203e
00000060: ac27 e73d f7f9 573e 491f 553e 7868 683e
00000070: 061f 8c3d 725f 4e3e 016b a93d 465a 483e
00000080: 8503 133e f68a 1a3e e9fd 3a3e 64d6 5a3e
00000090: d7e6 9e3d 3496 a9bd 8395 8a3d 64cb 393e
000000a0: ea42 183e 8eba 283e 28fb 433e fcac c53d
000000b0: 7b32 2a3e 3a59 9a3d 8419 343e 63a5 523e
000000c0: e9d5 223e 478f 1f3e 8383 693e f997 013e
000000d0: 37b7 933e 1669 043e fe5a 4e3e e223 5f3e
000000e0: a10f c93d 1bef 0dbe 7105 6a3e d9bf a33d
000000f0: 2cc1 163e 9b85 033d 9c4f 563c 0b4e 4c3e
00000100: 6565 4f3e 28cc 2b3e 3f72 f33d c5be 033e
00000110: d926 3ebc b5f3 953d c292 093d 1de5 003e
00000120: e317 ad3d dbfe 26bc a36f 1f3e 7018 303e
00000130: 195e 183e d936 423e 949e 863d be59 263e
00000140: ec3d 0f3e 03cc 6c3e b5fe 253e 9f4f 663e
00000150: e874 483e 40b7 d53d 4a33 f23d 620a 6e3e
00000160: 3766 aabc 3739 c93d cef1 953e 67fb 3a3e
00000170: 59da 163d 0f8b 2d3e 9d10 d33d 1f0e 7a3d
00000180: bd60 903e a8dd 663e 982b ac3d 8e5b 733e
00000190: ade3 623e 49cf c53d 863b e73c 64b9 c83d
000001a0: 0158 ac3d f2ab 8c3b 91c7 013e 45e2 6f3d
000001b0: eeca b03d 0a9f 253d e75a 9d3d 3777 813e
000001c0: 0416 9cbb 330d 053e b7a5 d83d bc2e 243e
000001d0: 4ca6 053e aaa9 063e 6dce 073e 05df 4a3d
000001e0: a19a 693e cab5 003e 8505 633e 7300 f2bd
000001f0: d7f0 9f3d 70f7 573e a2db 963e 061f 833d
00000200: 878f 2c3e e38c dd3d db08 5e3e 2e37 743e
00000210: 5d5a 0f3e 7535 fd3d 9824 273e 39ee 593e
00000220: f91d 1a3e cea5 d33b e140 563e 9e77 b43d
00000230: 1c85 103e 8fb4 4f3d 893a 913d c46f 123e
00000240: a9ed 793e e0aa 593e 5ace fe3d 378b 0c3e
00000250: fc30 163e 9d05 9d3d 6028 233e e49a 3e3e
00000260: 91c1 e43c a3a6 ebbd 104b 3f3e 04fb 7e3e
00000270: 4452 5e3e a76e f13d 1c00 ea3d f12a 633d
00000280: 499c 003e 222e 123e 4bf8 853e 9302 503e
00000290: e9ee 243e 2ed5 ee3d 828f abbd 8f0a 9a3d
000002a0: a711 003e ff4d cb3d a5df d93d e3e2 2c3e
000002b0: 166f c73d 9613 373e 99b2 4d3e ce79 883d
000002c0: 44f7 153e 7b76 4fbc da2f be3c 24f6 633d
000002d0: 017c 383e 5c52 ce3d c4ff 873d ee3a 813d
000002e0: bc45 0a3e 9f23 093e a96a ec3d b00f 283e
000002f0: 9e7e 133e ca6e 503e 560b 703e 6ca6 d53d
00000300: 2a64 be3d d26f e83d 8328 223e 8ca6 1e3e
00000310: 5310 913e d136 d73d 0d98 a33d ae32 ed3d
00000320: 4e78 933e 80fa ea3d e9bd 623e f937 09bc
00000330: dd44 393e b68a 193e 90fd 833e 9acb 173d
00000340: 0fdb d83d ff88 ac3d 3ed0 453e 1195 383e
00000350: f4c8 433e 9ba6 103e eadd a43d 5436 963d
00000360: bdc8 1b3e eb95 2f3e 5909 2a3e 1dbe 863e
00000370: b68a 413e 346e 8b3d d219 213e bacf 9d3d
00000380: c62a 7e3e 55b9 6b3e fb43 3f3e 704a 4e3d
00000390: da40 063e 74b9 343e f4ec 1e3e ea31 c93d
000003a0: 00e1 4a3e b344 4d3e 50dd 003e e2a7 e23d
000003b0: c429 563e 28dc 653e 0df8 143e ed9f 2b3e
000003c0: 64fc 8cbc 67b7 e83d 547c 4e3d f8b1 c43c
000003d0: 01af f83d 1448 493d 348d bc3d 36d2 c83d
000003e0: 1d0b 6f3e 970e bb3d 4934 823e cec1 2e3e
000003f0: 1f31 093e 5417 af3d 99a8 653e 845e 193e

sequential_7/activation_28/Relu;sequential_7/batch_normalization_28/FusedBatchNormV3;sequential_7/conv2d_28/BiasAdd/ReadVariableOp;sequential_7/conv2d_28/BiasAdd;sequential_7/conv2d_29/Conv2D;sequential_7/conv2d_28/Conv2D f4 [32]
0.10684865 -0.94872624 0.19297947 -0.9098587 0.26070055 -0.92270714 0.11452782 -0.5080079
0.44586167 -0.13825144 0.39567354 0.15415595 0.21788546 -0.5496303 0.44271708 0.3790974
0.4816698 0.20513727 0.41013 0.3751231 -0.85393995 0.0624042 0.1458892 -0.16447085
0.35114124 0.23129591 0.3392288 -0.054150604 0.20602715 0.23260026 -0.05049861 0.25909042
00000000: 77d3 da3d b9df 72bf 699c 453e 80ec 68bf
00000010: 8b7a 853e 8936 6cbf 908d ea3d ce0c 02bf
00000020: fb47 e43e c991 0dbe b995 ca3e 0fdb 1d3e
00000030: 5e1d 5f3e 92b4 0cbf d0ab e23e 0e19 c23e
00000040: 6d9d f63e 810f 523e 8ffc d13e 2310 c03e
00000050: cf9b 5abf 8c9b 7f3d fa63 153e 0c6b 28be
00000060: c9c8 b33e d6d8 6c3e 66af ad3e 06cd 5dbd
00000070: c8f8 523e c32e 6e3e a1d7 4ebd 80a7 843e

sequential_7/activation_29/Relu;sequential_7/batch_normalization_29/FusedBatchNormV3;sequential_7/conv2d_29/BiasAdd/ReadVariableOp;sequential_7/conv2d_29/BiasAdd;sequential_7/conv2d_29/Conv2D f4 [32]
0.29843578 0.8827656 0.5477582 0.9456187 -0.37043506 0.20350021 0.011118049 0.32036868
0.7160697 0.6568413 0.32708398 0.35625285 -0.15644631 -0.4700376 0.58192295 -0.39523336
0.475732 1.112846 0.58368033 0.01830098 1.3322353 0.59867245 0.2974688 0.5350073
0.919931 0.79803497 0.69217587 0.5583287 -0.025708089 0.40970162 -0.41090035 -0.1881139
00000000: 93cc 983e edfc 613f e239 0c3f 1114 723f
00000010: aaa9 bdbe 5c62 503e 7a28 363c 5d07 a43e
00000020: 5850 373f c026 283f 8d77 a73e c666 b63e
00000030: 7633 20be c5a8 f0be e7f8 143f 075c cabe
00000040: 2593 f33e bd71 8e3f 136c 153f f0eb 953c
00000050: b086 aa3f 9942 193f d54d 983e 3df6 083f
00000060: 9980 6b3f 054c 4c3f 7032 313f a1ee 0e3f
00000070: c599 d2bc 69c4 d13e 8861 d2be eea0 40be

sequential_7/activation_30/Relu;sequential_7/batch_normalization_30/FusedBatchNormV3;sequential_7/conv2d_30/BiasAdd/ReadVariableOp;sequential_7/conv2d_30/BiasAdd;sequential_7/conv2d_31/Conv2D;sequential_7/conv2d_30/Conv2D f4 [64]
-0.02050773 0.40377775 -1.1270931 -0.43343088 0.2887395 0.73520917 -0.6676266 0.67913336
0.4996276 0.5841166 0.74877435 -0.03599065 0.88022625 -0.67558086 -0.16270012 0.3274601
0.30308107 1.3250277 -0.56271076 -0.23311684 0.30519608 -0.74075824 0.7166821 0.7936533
0.34421027 0.09790872 0.48702836 0.015044108 0.31532043 -1.3290784 0.34760803 0.6448032
-0.86453456 0.98854065 -0.25224426 0.029902708 -0.4702859 0.28891462 -0.46921846 -0.1683226
0.7087879 0.36106646 0.09499852 -1.0186256 -0.73666877 -0.0017569028 -0.62868416 -1.4847031
0.0612219 -0.7048538 -0.266227 -0.45569372 1.157449 0.18391448 -0.24978785 0.26010293
-0.010771475 -0.26130995 -0.09677744 0.54587317 0.6547545 0.2076428 0.34671223 -0.7856109
00000000: d4ff a7bc f5bb ce3e 9644 90bf a7ea ddbe
00000010: aad5 933e ab36 3c3f 94e9 2abf afdb 2d3f
00000020: 30cf ff3e aa88 153f adaf 3f3f ef6a 13bd
00000030: 8256 613f def2 2cbf dc9a 26be daa8 a73e
00000040: 712d 9b3e 829a a93f d00d 10bf 2eb6 6ebe
00000050: a942 9c3e 55a2 3dbf 7a78 373f dd2c 4b3f
00000060: 543c b03e 5e84 c83d c85b f93e 907b 763c
00000070: ae71 a13e 3e1f aabf aef9 b13e d311 253f
00000080: 2352 5dbf 0011 7d3f 2926 81be 86f6 f43c
00000090: 50c9 f0be 9eec 933e 673d f0be c25c 2cbe
000000a0: 2073 353f b4dd b83e 968e c23d 5362 82bf
000000b0: 5396 3cbf e047 e6ba 72f1 20bf c00a bebf
000000c0: d1c3 7a3d 4c71 34bf e84e 88be b050 e9be
000000d0: 4a27 943f 1454 3c3e 63c8 7fbe 362c 853e
000000e0: d77a 30bc 6bca 85be 4033 c6bd 58be 0b3f
000000f0: fe9d 273f 50a0 543e 4484 b13e cc1d 49bf

sequential_7/activation_31/Relu;sequential_7/batch_normalization_31/FusedBatchNormV3;sequential_7/conv2d_31/BiasAdd/ReadVariableOp;sequential_7/conv2d_31/BiasAdd;sequential_7/conv2d_31/Conv2D f4 [64]
-0.09156511 -0.20502561 0.060068235 -0.19814287 -0.019333838 -0.38044485 -0.6486693 -0.17223229
-0.5818179 -0.04779642 -0.27789122 0.06693302 0.025441177 -0.11146067 -0.4129499 -0.20578893
-0.23749168 0.040191315 -0.32245773 -0.481722 -0.3626819 -0.17651878 -0.2156639 0.08312686
-0.37267902 -0.41660535 -0.026492711 -0.54933214 -0.5307039 -0.023446737 -0.18209803 -0.27658194
-0.3479978 0.020147363 -0.44627097 -0.06361187 -0.25169635 -0.13445605 0.01633432 -0.15122366
-0.17453176 -0.1449905 0.042938385 0.33035395 -0.49889228 -0.09677455 -0.28266805 -0.3094968
-0.5407858 -0.07732744 0.3050148 -0.072267406 -0.2266653 -0.47687218 -0.0037095817 -0.19641677
0.20269987 -0.31504786 -0.17784041 -0.011220124 -0.33364722 0.22527954 0.18472773 0.28688905
00000000: 7d86 bbbd 3cf2 51be 1c0a 763d f7e5 4abe
00000010: ff61 9ebc abc9 c2be 310f 26bf a95d 30be
00000020: 05f2 14bf 2ec6 43bd c247 8ebe 2e14 893d
00000030: 046a d03c 7e45 e4bd 2b6e d3be 55ba 52be
00000040: 0531 73be a69f 243d 2e19 a5be 44a4 f6be
00000050: 71b1 b9be 57c1 34be ffd6 5cbe 6a3e aa3d
00000060: c9cf bebe 4c4d d5be 3e07 d9bc 08a1 0cbf
00000070: 36dc 07bf 5f13 c0bc e877 3abe 269c 8dbe
00000080: c52c b2be 150c a53c a17d e4be f146 82bd
00000090: 58de 80be d9ae 09be 8dcf 853c 60da 1abe
000000a0: 74b8 32be 6478 14be 29e0 2f3d 2724 a93e
000000b0: cf6e ffbe bc31 c6bd deb9 90be 5d76 9ebe
000000c0: f070 0abf d95d 9ebd e62a 9c3e ef00 94bd
000000d0: f31a 68be 9728 f4be 741c 73bb 7a21 49be
000000e0: 8e90 4f3e f44d a1be cc1b 36be 9cd4 37bc
000000f0: cfd3 aabe aeaf 663e 4429 3d3e 1fe3 923e

sequential_7/dense_14/MatMul f4 [256, 64]
-0.25482145 0.16764405 0.14571759 -0.037638746 -0.122371346 0.19256361 0.14725518 -0.14190012
-0.11591392 -0.09609826 -0.6917854 0.22113605 0.12010271 0.08953799 -0.13851658 -0.043148354
-0.060683984 0.013372027 0.13906968 -0.30054864 0.11671377 -0.7043659 -0.10451408 0.030135812
0.13276817 -0.33848035 0.03881616 0.020510871 -0.23990728 -0.12654811 -0.0653372 -0.108490855
-0.06200849 -0.23839878 0.28006932 0.20616439 -0.018614352 0.14144696 -0.52156776 -0.031370282
0.007996895 0.08145998 -0.23074031 -0.078498214 0.11003418 0.047663644 0.22882459 -0.31633946
-0.017430805 0.03580164 0.25956872 0.108964294 0.18181643 -0.079063065 0.033388585 0.06998244
0.023553984 0.124323994 -0.10351186 -0.40339008 -0.14150678 0.015672404 -0.059067152 0.06945746
0.066344835 -0.17429395 0.062284853 0.07940163 -0.101698734 -0.2618525 0.1270092 0.17602842
-0.38759935 0.15399161 -0.46803027 -0.17998567 -0.28797737 0.024057684 0.24804579 0.2535581
0.0071170283 0.18937504 0.06080618 0.060971797 -0.30491415 0.052619576 0.08716014 -0.007946377
-0.35243836 0.011356871 -0.043391593 -0.24305266 0.11845007 -0.1852155 0.044885002 -0.017082186
-0.1522789 -0.29147372 0.25682727 -0.14558794 -0.11891596 0.37502256 0.13782038 -0.009625521
0.012596327 -0.3621021 0.030943885 0.008901849 -0.28336316 -0.008870821 -0.15318845 -0.21281411
0.13838297 -0.034172032 -0.08041555 -0.47546175 -0.19504859 0.2625263 -0.2963323 -0.27677006
-0.120438114 -0.31098312 -0.016586188 -0.22104256 -0.26062673 -0.3151533 -0.66220534 -0.014415554
-0.3227244 -0.04894582 0.22019428 -0.040364314 -0.15720774 -0.13448514 0.029700762 -0.120047525
-0.01840886 0.0002800503 -0.47020978 -0.05581397 -0.053103577 0.06433207 0.07842923 -0.092719994
0.17936286 0.20356922 0.2099029 -0.404615 -0.26510534 -0.06505729 -0.40324193 0.107711405
-0.23837379 -0.21005847 -0.29051197 0.118202485 -0.20658153 -0.2153632 -0.1273194 0.045362897
0.06848199 -0.42995453 0.14783286 0.22559883 0.0592093 0.14858493 -0.019075364 -0.07776578
0.0034480877 0.29886216 -0.21430944 -0.12368694 0.04493514 -0.10980354 -0.16591209 -0.36271822
0.06874375 0.17383453 0.06661713 -0.69879574 -0.3300865 0.0015815723 -0.24151434 -0.05015824
-0.2894491 0.06442713 -0.44653052 0.051178988 -0.15681493 -0.0057619703 -0.017742706 -0.04314474
0.07318339 -0.24519148 -0.36776108 -0.16973434 -0.019986711 -0.26129764 -0.706732 -0.06765327
0.042194355 -0.13375409 -0.119839035 -0.20786458 0.10474656 0.10301456 -0.4039516 0.019466985
-0.3822829 -0.07599753 -0.03785591 -0.3306639 -0.055117175 0.031530995 0.042564567 0.3051726
0.022073047 0.2534049 -0.3745165 -0.11799594 -0.17369488 0.06626663 0.21244983 -0.048160996
0.17427757 0.07906301 -0.09009478 -0.5407782 -0.09779266 -0.07480639 -0.0705568 0.183394
-0.01493808 -0.013088295 -0.39322826 0.03446505 -0.18864577 -0.15623593 0.1505049 -0.1259195
0.0031664155 0.11900697 -0.17351857 0.10063315 0.14451952 0.0596853 0.0029629988 -0.022631047
0.052206945 -0.22249362 -0.15217541 -0.30458426 0.18160145 0.0027039521 0.064404994 0.33106017
00000000: f577 82be e2aa 2b3e fe36 153e 162b 1abd
00000010: d49d fabd 652f 453e 10ca 163e 444e 11be
00000020: 4764 edbd 2acf c4bd d918 31bf 7d71 623e
00000030: 69f8 f53d b25f b73d 4ad7 0dbe 54bc 30bd
00000040: c58f 78bd 5916 5b3c 4868 0e3e 83e1 99be
00000050: a107 ef3d 5351 34bf 7a0b d6bd 61df f63c
00000060: 61f4 073e 4c4d adbe b2fd 1e3d 6a06 a83c
00000070: 41aa 75be d495 01be 83cf 85bd 7430 debd
00000080: 9dfc 7dbd cf1e 74be 3f65 8f3e c21c 533e
00000090: 207d 98bc 79d7 103e 7785 05bf 207e 00bd
000000a0: 6905 033c 7dd4 a63d 3047 6cbe acc3 a0bd
000000b0: 9a59 e13d f43a 433d fe50 6a3e 3ff7 a1be
000000c0: 0ccb 8ebc bea4 123d 31e6 843e ac28 df3d
000000d0: 162e 3a3e d1eb a1bd 78c2 083d f452 8f3d
000000e0: 49f4 c03c 949d fe3d 07fe d3bd 2589 cebe
000000f0: 27e7 10be 6a63 803c 66f0 71bd b63f 8e3d
00000100: cddf 873d 1d7a 32be 671e 7f3d 529d a23d
00000110: 6d47 d0bd 8811 86be b30e 023e cb40 343e
00000120: 6c73 c6be faaf 1d3e aaa1 efbe 2a4e 38be
00000130: c571 93be 9f14 c53c b7ff 7d3e 5ed2 813e
00000140: f635 e93b 88eb 413e e70f 793d 90bd 793d
00000150: b51d 9cbe a087 573d 0481 b23d 8531 02bc
00000160: cd72 b4be 2b12 3a3c 62bb 31bd cce2 78be
00000170: f395 f23d 22a9 3dbe 56d9 373d f1ef 8bbc
00000180: 00ef 1bbe 0b3c 95be dd7e 833e 0115 15be
00000190: 368a f3bd f502 c03e c920 0d3e 5cb4 1dbc
000001a0: d360 4e3c 7265 b9be 087e fd3c 10d9 113c
000001b0: fa14 91be ec56 11bc 6fdd 1cbe f1eb 59be
000001c0: 44b4 0d3e f9f7 0bbd e8b0 a4bd b96f f3be
000001d0: d1ba 47be d969 863e deb8 97be ceb4 8dbe
000001e0: 42a8 f6bd 2e39 9fbe c2df 87bc fb58 62be
000001f0: de70 85be c65b a1be 4a86 29bf 372f 6cbc
00000200: 223c a5be 6a7b 48bd 9c7a 613e 0d55 25bd
00000210: 11fb 20be 79b6 09be 034f f33c 7adb f5bd
00000220: 2dce 96bc b7d3 9239 56bf f0be 309d 64bd
00000230: 2383 59bd 88c0 833d 819f a03d fbe3 bdbd
00000240: e6aa 373e 7374 503e c9f0 563e b329 cfbe
00000250: e3bb 87be c23c 85bd ba75 cebe cc97 dc3d
00000260: 4218 74be 9119 57be fcbd 94be 2514 f23d
00000270: 1c8a 53be 2c88 5cbe 0460 02be 72ce 393d
00000280: 4940 8c3d 0023 dcbe 7f61 173e 6103 673e
00000290: 7385 723d a626 183e f043 9cbc aa43 9fbd
000002a0: 50f9 613b 7604 993e ef73 5bbe 944f fdbd
000002b0: e90d 383d aee0 e0bd dce4 29be 34b6 b9be
000002c0: 86c9 8c3d ae01 323e 906e 883d 47e4 32bf
000002d0: 1901 a9be c34c cf3a 894f 77be ba72 4dbd
000002e0: ac32 94be 5ff2 833d a69f e4be 0fa1 513d
000002f0: 1894 20be e9ce bcbb 2759 91bc 8ab8 30bd
00000300: 2ce1 953d 7a13 7bbe 2e4b bcbe d7ce 2dbe
00000310: 2cbb a3bc cec8 85be 63ec 34bf cc8d 8abd
00000320: fdd3 2c3d d5f6 08be 2b6e f5bd 74da 54be
00000330: 5d85 d63d 4cf9 d23d bed2 cebe 3a79 9f3c
00000340: 96ba c3be 98a4 9bbd cc0e 1bbd c74c a9be
00000350: 8cc2 61bd a526 013d 2f58 2e3d 953f 9c3e
00000360: 89d2 b43c 49be 813e a0c0 bfbe dba7 f1bd
00000370: 12dd 31be cdb6 873d 738c 593e 7744 45bd
00000380: d275 323e caeb a13d 9d83 b8bd 7170 0abf
00000390: 8547 c8bd 1834 99bd 1580 90bd a3cb 3b3e
000003a0: d9be 74bc 4a70 56bc 3755 c9be 392b 0d3d
000003b0: 5b2c 41be 50fc 1fbe f51d 1a3e 0bf1 00be
000003c0: a383 4f3b edb9 f33d daae 31be c118 ce3d
000003d0: edfc 133e 9378 743d df2e 423b bf64 b9bc
000003e0: f3d6 553d 5ed5 63be dfd3 1bbe 78f2 9bbe
000003f0: bbf5 393e ca34 313b c4e6 833d b880 a93e

sequential_7/dense_15/MatMul f4 [10, 256]
0.13421148 -0.5082154 -0.590278 0.04955379 0.1089953 -0.42706174 0.0833334 0.089462236
0.07310355 0.0047456874 0.08965446 -0.28140134 -0.4172168 -0.35182092 -0.31308755 -0.16265161
-0.13923155 -0.38642594 -0.31406033 -0.2268632 -0.1270481 0.070499286 -0.026932513 -0.6788034
0.02850869 0.1442851 -1.1503599 -0.07375014 -0.5406657 -0.5066277 -0.41969594 0.10804699
-0.87552506 -0.20895939 -0.25279593 0.086964056 0.038201094 0.069480486 0.123328485 -0.5488452
0.13736321 -0.25863338 -0.34294185 -0.11970371 -0.2415476 0.18125778 -0.24024129 0.12799713
-0.5992444 0.055527166 0.14519551 -0.1128999 -0.1577473 -0.18734203 -0.26113003 -0.02026535
-0.51673305 0.08796398 -0.62283033 0.14462234 -0.27146643 -0.553904 -0.47972107 -0.39226854
0.14195514 0.059255276 0.10927634 -0.10120159 -0.28128046 0.12824102 -0.13106573 -0.29967195
0.14145488 -0.08457099 0.13687915 -0.46168798 0.057605404 0.08007313 -0.071286604 0.111772075
-0.46246478 -0.27236468 -0.3157143 -0.4638895 -0.43405366 0.03745205 -0.14759102 0.05183812
0.06915413 0.058419526 0.1299868 -0.43218866 -0.53034157 -0.010253723 -0.027746623 -0.43038213
-0.54652405 0.09303607 -0.35201833 0.048796456 -0.58712375 0.04546436 -0.36744085 -0.57087153
-0.020935632 -0.90208024 0.0648412 0.1121321 0.0492302 -0.4147168 0.0008661931 0.11010556
-0.29087374 0.14770651 0.0949079 -0.28398925 0.059238918 -0.51046205 0.017161764 -0.1811436
-0.19251782 -0.25053275 0.04898142 -0.07107373 -0.5789104 -0.12958452 0.17999496 -0.12909552
0.09465138 -0.461875 0.0742492 -0.23842643 -0.64356863 -0.24450852 0.11321318 -0.062896684
-0.31109598 -0.91981155 0.06568875 -0.42707896 -0.2123135 0.124308884 -0.27689254 0.034833543
0.051603734 0.21205051 0.10266408 -0.7026388 -0.47360796 -0.40619057 -0.38689923 0.010720809
0.03687522 -0.008894225 0.047201812 -0.2112325 -0.20248775 0.09246307 0.005655357 0.07843164
-0.3949867 0.05901412 -0.0033179363 -0.56994045 -0.5468593 -0.29821986 -0.5966237 0.078873515
-0.13032135 -0.3239825 0.0014315579 0.11057175 -0.12736553 -0.03388974 0.14452516 0.05497776
0.19776694 0.09077211 0.09370945 -0.19042268 -0.2011594 0.06961951 -0.071218945 -0.32341954
-0.49234954 -0.30860883 -0.5766369 -0.6563033 0.11170245 0.049797744 0.10083331 -0.2571938
-0.4103372 0.07719478 -0.17860986 -0.16277018 -0.5780838 0.14735328 -0.3870518 -0.08546725
-0.254187 0.1457111 -0.33805236 -0.2992122 0.10147218 -0.62255204 0.11251941 -1.4496844
0.18200961 0.13486363 0.10756955 0.0904743 -0.30010194 -0.3959011 -0.4648405 -0.9070845
-0.2599059 0.08134245 -0.69161755 0.0013275023 0.13834566 -0.29532433 -0.13864097 -0.10523163
-0.07752839 0.099108 -0.2869312 -0.14379069 0.10829626 -0.4019277 -0.39017054 -0.39309645
-0.08724611 0.15558054 0.1365861 -0.017786995 -0.62018096 -0.32692707 0.037510443 -0.22279647
-0.3420326 0.036607996 -0.1680447 -0.29037222 0.1255558 -0.20088737 -0.43377152 -0.314801
-0.5018444 -0.13266014 -0.3177852 0.10450636 -0.1090518 -0.30324396 0.07910647 0.0962681
00000000: bc6e 093e 681a 02bf 761c 17bf eaf8 4a3d
00000010: ee38 df3d d6a7 dabe b4aa aa3d fa37 b73d
00000020: 50b7 953d b681 9b3b c29c b73d d613 90be
00000030: 719d d5be df21 b4be 034d a0be 258e 26be
00000040: b792 0ebe 9fd9 c5be 84cc a0be d44e 68be
00000050: e618 02be ee61 903d 93a1 dcbc 0fc6 2dbf
00000060: 0e8b e93c 79bf 133e fe3e 93bf 500a 97bd
00000070: 1169 0abf 5ab2 01bf 63e2 d6be be47 dd3d
00000080: 6922 60bf 73f9 55be 786e 81be 361a b23d
00000090: c078 1c3d c94b 8e3d a593 fc3d 1e81 0cbf
000000a0: f1a8 0c3e 986b 84be 1396 afbe 3827 f5bd
000000b0: 4158 77be a49b 393e d001 76be ae11 033e
000000c0: 1568 19bf 7470 633d 22ae 143e 1038 e7bd
000000d0: 8288 21be 97d6 3fbe d6b2 85be 8503 a6bc
000000e0: 9e48 04bf 7626 b43d cf71 1fbf e117 143e
000000f0: a6fd 8abe a7cc 0dbf 009e f5be 6cd7 c8be
00000100: b05c 113e a9b5 723d 46cc df3d c742 cfbd
00000110: fe03 90be 9d51 033e 1836 06be 9a6e 99be
00000120: 8cd9 103e 8e33 adbd 0c2a 0c3e 5e62 ecbe
00000130: a5f3 6b3d 62fd a33d b6fe 91bd c2e8 e43d
00000140: 2fc8 ecbe 6273 8bbe 4ea5 a1be ed82 edbe
00000150: 483c debe 5267 193d 1a22 17be 3554 543d
00000160: aea0 8d3d 5049 6f3d 421b 053e d547 ddbe
00000170: 77c4 07bf 3bff 27bc e34c e3bc 0c5b dcbe
00000180: 00e9 0bbf b289 be3d bf3b b4be cbde 473d
00000190: be4d 16bf d638 3a3d 3521 bcbe a324 12bf
000001a0: 3481 abbc bbee 66bf 77cb 843d 84a5 e53d
000001b0: 9ba5 493d c355 d4be 3c11 633a 067f e13d
000001c0: 67ed 94be 6040 173e 135f c23d 0a67 91be
000001d0: 82a4 723d a4ad 02bf d496 8c3c b57d 39be
000001e0: 6423 45be d445 80be bea0 483d 1b8f 91bd
000001f0: 7933 14bf ceb1 04be 9950 383e 9e31 04be
00000200: 95d8 c13d e17a ecbe f70f 983d 0f26 74be
00000210: eac0 24bf 7160 7abe 50dc e73d facf 80bd
00000220: f947 9fbe c578 6bbf d387 863d 18aa dabe
00000230: b668 59be a895 fe3d dcc4 8dbe 9ead 0e3d
00000240: 705e 533d c523 593e 8c41 d23d 23e0 33bf
00000250: be7c f2be 36f8 cfbe a817 c6be 55a6 2f3c
00000260: 780a 173d 15b9 11bc b056 413d 554d 58be
00000270: f358 4fbe 475d bd3d 9350 b93b c5a0 a03d
00000280: b23b cabe cab8 713d bc71 59bb 9ee7 11bf
00000290: f9fe 0bbf 46b0 98be 55bc 18bf 7088 a13d
000002a0: f672 05be 09e1 a5be 1da3 bb3a 7173 e23d
000002b0: 1c6c 02be f8cf 0abd 67fe 133e 5c30 613d
000002c0: 6b83 4a3e bae6 b93d bdea bf3d 2afe 42be
000002d0: bbfc 4dbe ac94 8e3d 3ddb 91bd 3f97 a5be
000002e0: 3d15 fcbe fa01 9ebe 7a9e 13bf 7e03 28bf
000002f0: 41c4 e43d b8f8 4b3d b281 ce3d e8ae 83be
00000300: b817 d2be 4c18 9e3d 81e5 36be 3aad 26be
00000310: 4dfd 13bf c7e3 163e a72b c6be 7409 afbd
00000320: cc24 82be 4a35 153e 3315 adbe 5732 99be
00000330: a5d0 cf3d 925f 1fbf 9470 e63d 428f b9bf
00000340: ba60 3a3e b119 0a3e 6d4d dc3d 974a b93d
00000350: f6a6 99be 8db3 cabe 93ff edbe b136 68bf
00000360: 6312 85be df96 a63d d90d 31bf 96ff ad3a
00000370: 7caa 0d3e c034 97be e6f7 0dbe ae83 d7bd
00000380: 34c7 9ebd 23f9 ca3d a5e8 92be de3d 13be
00000390: 6eca dd3d 78c9 cdbe 6fc4 c7be f043 c9be
000003a0: 17ae b2bd 8150 1f3e 3add 0b3e 08b6 91bc
000003b0: 2ec4 1ebf fc62 a7be 8da4 193d c224 64be
000003c0: e61e afbe 44f2 153d e913 2cbe abab 94be
000003d0: b391 003e 6bb5 4dbe 4d17 debe 992d a1be
000003e0: e078 00bf 0fd8 07be beb4 a2be 6e07 d63d
000003f0: 8d56 dfbd cb42 9bbe 9302 a23d 3628 c53d

sequential_7/conv2d_28/Conv2D f4 [32, 3, 3, 1]
9.934103e-06 0.006209743 -0.0009046064 -0.0139044095 0.010186889 -0.006572131 0.007977573 -0.010291748
-0.005407723 0.009180406 -0.0018229702 -0.00015005254 -0.0007275218 -0.0013548299 0.0011773127 0.00015268956
-0.0010502809 0.001361236 -0.00010148103 -0.004819386 -0.0055682897 0.0010523488 -0.0015406177 1.1120342e-06
0.0021513018 -0.00036654738 0.0007975266 0.0060690236 -0.0005759903 0.0025487079 -0.0037390008 -0.0024760035
0.0016699149 0.0030224603 -0.00043356136 0.0016816923 -0.0061174096 0.0058857333 0.003513925 -0.0068029063
-0.0015496211 5.3000924e-05 -0.0059532085 0.003986291 0.0018600606 0.00780872 0.00033086183 0.0011782125
0.0013368345 0.00032768957 -0.0029489074 -0.0063942885 0.0022757514 0.0018554998 0.0027443497 -0.006726153
-0.0040929606 0.00058995455 0.0010187121 -0.001276747 -0.0010825326 -0.0017099553 -0.0019882657 -0.010102065
0.004852045 0.004091445 0.0012753579 0.002074284 -0.0020675855 0.0027185506 0.00026716356 -0.0022737246
-0.01903186 -0.0029630656 -0.00034740558 0.022800066 -0.0006106644 0.0043237647 -0.021143425 -0.0023074406
0.0037285835 0.007595099 0.0029914584 0.0025023029 -0.0063460246 0.002996632 0.0013943039 -0.01170306
0.0010040533 -0.0034390034 -0.012139128 -0.00393443 -0.0055673183 0.0058035967 -0.00040935448 -0.0070830253
0.0062386454 -0.0008781704 -0.0013966375 0.0013287419 0.00020794691 0.0042466605 -0.012699054 -0.004965602
-0.0013333752 0.00816469 -0.005597855 -0.0030852135 0.0064652977 -0.0053262925 -0.0025518253 -0.0064507904
-0.005397657 0.0040610963 -0.0044013904 0.0013671368 -0.0008583127 0.010485924 -0.00036568815 -0.0014026623
-0.0035558266 6.826727e-05 -0.0014122669 -0.0026119924 0.0015216134 0.00088589016 -0.0147364065 -0.0088545345
-0.001451624 0.013793978 0.0052243946 0.0018390625 0.0009941943 -0.0003589995 0.0003280139 -0.011944939
0.005257821 0.0009846394 -0.0005951618 0.004604739 0.0010605191 -0.00039676236 0.0013028351 -0.0013578418
-0.0066486136 0.009687298 0.0046631517 -0.009762911 0.0012706743 0.0008955882 -0.0025576078 -0.0036009634
-0.004294929 -0.0054742536 -0.005259346 0.0023751794 0.012308394 0.009819771 -0.007699777 -0.012418842
-0.006660426 -0.005389578 -0.021359537 -0.0035619643 -0.0009770709 0.0027504915 0.0016688064 0.0015415554
0.0010515607 0.0018433467 0.001690773 -0.01809326 0.008972758 0.0022733368 0.005346752 0.0049379915
-0.0043519703 -5.3225787e-05 -0.0009042525 0.0029106 0.002088841 -0.001493236 0.0037888805 1.4961335e-05
-0.0016644598 0.00034568782 0.002751294 -0.00020485267 -0.00012849331 0.0029922728 -0.003924937 0.0005229533
0.0029334377 -0.0027213462 0.0021052344 -0.0076847603 -0.002062435 0.0026867113 -0.00050671067 0.0014391
0.0024083168 0.00056236767 -0.002664386 0.0013325805 -0.010367287 -0.0019665845 -0.000872189 0.0062192967
-0.0014835207 -0.0037670943 0.0020624232 -0.00058714766 -0.0009709953 -0.0010568397 0.00020997974 -0.0028524003
-0.0013134864 0.0025573312 0.0006290964 0.0027306075 0.0025324048 -0.005397096 -0.019829795 -0.0041277246
0.0023228314 -0.0135984095 0.014286999 -0.0012338749 -0.0014987548 -0.0022615697 -0.010626819 0.0032977648
0.0028369192 0.00080097694 0.0004398335 -0.009407453 -0.0025016896 0.010429642 -0.007514827 0.0015579741
-0.004683756 -9.3122755e-05 -0.0020149155 0.0018526305 0.00041303269 -0.001095019 -0.0009678615 0.0013663714
-0.003935273 -0.00046891917 -0.0033927336 -0.0028545107 0.0023888217 0.009788115 -0.0021514741 -0.014213774
00000000: a6aa 2637 1a7b cb3b 1c23 6dba 52cf 63bc
00000010: e9e6 263c 085b d7bb 5eb4 023c b89e 28bc
00000020: 4533 b1bb 6a69 163c bbf0 eeba 6c57 1db9
00000030: 29b7 3eba 8c94 b1ba 0f50 9a3a 4b1b 2039
00000040: 94a9 89ba 806b b23a 37d2 d4b8 f1eb 9dbb
00000050: 3376 b6bb f7ee 893a 8dee c9ba 3441 9535
00000060: dbfc 0c3b 282d c0b9 1b11 513a a9de c63b
00000070: 0efe 16ba 3908 273b 060a 75bb 7244 22bb
00000080: 0ce1 da3a 7814 463b 9f4f e3b9 3b6c dc3a
00000090: 8d74 c8bb 1cdd c03b e149 663b eaea debb
000000a0: a81c cbba 4f4d 5e38 2213 c3bb 6f9f 823b
000000b0: 47cd f33a 4be0 ff3b 8677 ad39 406e 9a3a
000000c0: b938 af3a c0cd ab39 7542 41bb 2e87 d1bb
000000d0: c624 153b 3e34 f33a 8cda 333b 1067 dcbb
000000e0: 3e1e 86bb 2ea7 1a3a 4e86 853a 8558 a7ba
000000f0: c4e3 8dba 9420 e0ba 904d 02bb 2283 25bc
00000100: e7fd 9e3b 8711 863b e929 a73a b6f0 073b
00000110: 5480 07bb b629 323b 1612 8c39 c502 15bb
00000120: b4e8 9bbc fe2f 42bb fd23 b6b9 34c7 ba3c
00000130: ff14 20ba 5eae 8d3b fa34 adbc 6e38 17bb
00000140: 405b 743b 4fe0 f83b 580c 443b adfd 233b
00000150: 50f2 cfbb 2463 443b 13c1 b63a 31be 3fbc
00000160: 709a 833a e760 61bb 31e3 46bc 64ec 80bb
00000170: 0d6e b6bb 192c be3b a19e d6b9 b918 e8bb
00000180: 8d6d cc3b 0535 66ba 610f b7ba 2e29 ae3a
00000190: 530c 5a39 9227 8b3b b10f 50bc 7db6 a2bb
000001a0: a6c4 aeba 31c5 053c 366e b7bb 4b31 4abb
000001b0: d9da d33b 2e88 aebb 863c 27bb 2761 d3bb
000001c0: d4de b0bb f212 853b 8a39 90bb 8031 b33a
000001d0: 6400 61ba 27cd 2b3c d5b9 bfb9 89d9 b7ba
000001e0: df08 69bb b62a 8f38 d01b b9ba f62d 2bbb
000001f0: e070 c73a 153b 683a f870 71bc 9c12 11bc
00000200: 6b44 beba 2300 623c 6631 ab3b b30c f13a
00000210: a04f 823a 1938 bcb9 48f9 ab39 b5b4 43bc
00000220: cd49 ac3b 040f 813a a204 1cba 5ae3 963b
00000230: 1e01 8b3a 8b04 d0b9 e4c3 aa3a 9cf9 b1ba
00000240: 9ddc d9bb 79b7 1e3c 5acd 983b 9ef4 1fbc
00000250: c18c a63a e8c5 6a3a 8a9d 27bb 24fe 6bbb
00000260: 7abc 8cbb 5e61 b3bb 9856 acbb e6a8 1b3b
00000270: 25a9 493c 1be3 203c 694e fcbb 6678 4bbc
00000280: b43f dabb 0f9b b0bb 32fa aebc d86f 69bb
00000290: 0f11 80ba 9741 343b dabb da3a 040e ca3a
000002a0: 86d4 893a 749c f13a ed9c dd3a 5138 94bc
000002b0: 7a02 133c 43fc 143b ce33 af3b e0ce a13b
000002c0: f99a 8ebb c13e 5fb8 5c0b 6dba c4bf 3e3b
000002d0: f0e4 083b b0b8 c3ba de4e 783b 7202 7b37
000002e0: 012a daba 6f3d b539 0e4f 343b b8cd 56b9
000002f0: 29bc 06b9 021a 443b c29c 80bb cd16 093a
00000300: eb3e 403b 9d58 32bb f9f7 093b 71d0 fbbb
00000310: eb29 07bb 8913 303b c7d4 04ba 2fa0 bc3a
00000320: dad4 1d3b db6b 133a fb9c 2ebb fba9 ae3a
00000330: 8edb 29bc d0e1 00bb 9da3 64ba 3ecb cb3b
00000340: b272 c2ba 5be1 76bb b829 073b d0ea 19ba
00000350: 648a 7eba a885 8aba 022e 5c39 56ef 3abb
00000360: 4a29 acba e698 273b f2e9 243a fef3 323b
00000370: b4f6 253b 1fda b0bb 1872 a2bc dd41 87bb
00000380: a53a 183b ddcb 5ebc 0414 6a3c f9b9 a1ba
00000390: de71 c4ba d836 14bb 1c1c 2ebc 501f 583b
000003a0: 9beb 393b a7f8 513a 7499 e639 b821 1abc
000003b0: 63f3 23bb 17e1 2a3c f03e f6bb f034 cc3a
000003c0: 317a 99bb e64a c3b8 ac0c 04bb f7d3 f23a
000003d0: 4f8c d839 be86 8fba 16b8 7dba d117 b33a
000003e0: 76f3 80bb 44d9 f5b9 a058 5ebb be12 3bbb
000003f0: c78d 1c3b 545e 203c bfff 0cbb e4e0 68bc

sequential_7/conv2d_29/Conv2D f4 [32, 3, 3, 32]
-0.060237538 -0.037265256 -0.10385764 0.06057475 -0.045151155 0.032483995 -0.049022745 -0.07875217
0.04913055 0.08916284 0.020329537 -0.020275772 0.018535363 -0.063360974 -0.23590037 -0.03604428
-0.0040963297 -0.027753428 -0.23145263 -0.05751608 0.010952216 0.016563103 0.011033038 -0.12433122
-0.016734997 -0.122681715 -0.079183735 -0.06579637 -0.024414837 -0.05828281 0.05912914 -0.09422288
-0.04238969 -0.0066438424 -0.015703397 0.008015972 0.05900176 -0.021242984 0.026853452 -0.03489534
0.07470809 -0.017262569 -0.028687023 -0.10945672 -0.07297351 -0.0379636 -0.18132967 0.019390611
0.011654651 -0.13663083 -0.06292998 -0.0037573671 0.07851748 0.032646164 -0.014863225 -0.007817338
-0.05702193 0.010287924 0.054215394 -0.019716572 0.043194175 -0.12319552 -0.0131377615 0.07889785
-0.025596285 0.06367446 -0.03262962 0.0050833398 0.11413918 0.02976676 0.099199064 -0.009294575
0.023752403 -0.031620562 -0.08958493 -0.0009938558 -0.00924576 0.07192114 -0.2539378 0.02019141
0.15477456 -0.12275272 -0.073508024 -0.012593022 0.019918447 0.09800398 -0.050238278 0.092208885
-0.13205992 0.06755565 -0.032258965 0.03437786 -0.10676056 -0.033306975 0.09560445 -0.056221757
0.06822986 -0.109759934 -0.08575228 -0.070553325 -0.007331396 -0.03993352 -0.061457675 0.084670134
0.12627327 0.029806955 -0.055474382 -0.09685555 0.0018058298 -0.042381156 0.04965835 0.07734924
0.00083308865 0.059547476 0.021350607 0.05330351 -0.042433538 0.059569713 0.01020719 -0.19926791
0.012876319 0.071512274 -0.029111642 -0.08533755 0.060149007 -0.044436794 -0.0717771 0.055639595
-0.07552513 0.047167785 0.023624983 -0.014723319 0.02458345 0.037111256 0.035627257 -0.018592836
-0.0005496367 0.03791837 0.0077001294 -0.14256787 -0.11704164 0.03568127 -0.028644778 0.027944557
-0.007911064 -0.027104093 0.011046587 0.019593416 0.043487977 -0.043609746 -0.025197877 0.0021420694
-0.034176696 0.050707027 0.029114494 -0.055238258 0.031551976 -0.026666697 0.075537026 -0.034161735
-0.0073608146 0.02869883 0.03113131 -0.05962799 -0.012381968 -0.027152956 -0.042729102 0.027588448
-0.032009214 -0.044173684 -0.042702567 -0.15317382 0.015671005 0.0033192409 0.001938136 -0.003257359
0.032051407 0.025434596 -0.0050232974 -0.06058187 -0.065246224 -0.03341829 0.008733373 0.050124172
-0.037984665 -0.06328988 -0.028739994 0.04574507 0.009253788 0.0036831833 -0.007821888 -0.054522716
0.055480704 -0.13086948 -0.051656507 0.017222764 -0.0071670404 -0.05021818 -0.105826035 0.057501223
-0.0014945552 -0.050178207 0.06630227 0.0066096107 -0.0012261875 -0.10962016 0.058983255 0.047908816
-0.0023742246 0.05757701 0.060760092 0.010823151 0.017090159 -0.031115433 -0.012910087 -0.08966489
-0.09541158 0.08022174 -0.100213796 -0.08329411 0.022970738 -0.060359687 -0.047283817 0.04455299
0.0054375534 -0.0049798135 0.041091293 -0.052823268 -0.058040213 -0.07258685 0.0705348 0.0757571
-0.05483509 0.014853315 -0.04185557 -0.035188347 -0.049941253 -0.007805658 0.006941883 0.032843016
0.041275907 0.013287607 -0.013714468 0.030641187 -0.07839111 -0.05620858 -0.05750646 0.04868495
-0.0557352 0.16960785 0.04173684 0.019078633 0.018604735 -0.036344133 0.046479277 -0.10449409
00000000: a3bb 76bd 74a3 18bd 50b3 d4bd 3b1d 783d
00000010: 6bf0 38bd f00d 053d 13cc 48bd d148 a1bd
00000020: 1e3d 493d 029b b63d 218a a63c 6019 a6bc
00000030: 79d7 973c 66c3 81bd de8f 71be 2ba3 13bd
00000040: 813a 86bb 285b e3bc eb01 6dbe fb95 6bbd
00000050: ec70 333c 58af 873c eac3 343c 5ea1 febd
00000060: d517 89bc 8d40 fbbd 152b a2bd 3fc0 86bd
00000070: a001 c8bc f5b9 6ebd 6631 723d edf7 c0bd
00000080: d0a0 2dbd 97b4 d9bb 69a4 80bc 6c55 033c
00000090: d4ab 713d c405 aebc c5fb db3c 6bee 0ebd
000000a0: 8e00 993d 3b6a 8dbc 0c01 ebbc d82a e0bd
000000b0: 2373 95bd b87f 1bbd 7cae 39be 0fd9 9e3c
000000c0: 26f3 3e3c f4e8 0bbe 6fe1 80bd 293e 76bb
000000d0: c6cd a03d fcb7 053d e284 73bc 4b14 00bc
000000e0: d48f 69bd ae8e 283c f610 5e3d a684 a1bc
000000f0: 60ec 303d ef4d fcbd c43f 57bc 3295 a13d
00000100: 4daf d1bc c167 823d a3a6 05bd 2592 a63b
00000110: cdc1 e93d 6cd9 f33c e128 cb3d 4648 18bc
00000120: 6694 c23c 9084 01bd 4e78 b7bd 4444 82ba
00000130: 877b 17bc 644b 933d 2304 82be 7568 a53c
00000140: 397d 1e3e c765 fbbd 608b 96bd f652 4ebc
00000150: 032c a33c 50b6 c83d a7c6 4dbd 03d8 bc3d
00000160: b73a 07be 9e5a 8a3d fa21 04bd cdcf 0c3d
00000170: 48a5 dabd e56c 08bd 44cc c33d c948 66bd
00000180: 19bc 8b3d d1c9 e0bd e49e afbd 437e 90bd
00000190: 353c f0bb 5591 23bd 0bbb 7bbd 8967 ad3d
000001a0: c84d 013e b72d f43c 1b39 63bd 345c c6bd
000001b0: 98b1 ec3a dd97 2dbd 8e66 4b3d 4769 9e3d
000001c0: a263 5a3a 0ee8 733d 78e7 ae3c c854 5a3d
000001d0: cace 2dbd 5fff 733d 0f3c 273c e30c 4cbe
000001e0: 32f7 523c 0775 923d 8a7b eebc 74c5 aebd
000001f0: ce5e 763d 5b03 36bd dfff 92bd 58e6 633d
00000200: ebac 9abd 0233 413d 2e89 c13c 133a 71bc
00000210: 3b63 c93c f901 183d e3ed 113d 0150 98bc
00000220: 7f15 10ba 4b50 1b3d 5e51 fc3b 50fd 11be
00000230: 87b3 efbd 8626 123d 74a8 eabc fceb e43c
00000240: 689d 01bc 6709 debc befc 343c 5f82 a03c
00000250: 7320 323d 22a0 32bd c76b cebc f661 0c3b
00000260: ddfc 0bbd 2cb2 4f3d 8581 ee3c 8341 62bd
00000270: a53c 013d 1e74 dabc 28b3 9a3d 2ded 0bbd
00000280: fd32 f1bb cf19 eb3c 1707 ff3c 7b3c 74bd
00000290: bddd 4abc e06f debc b604 2fbd 2b01 e23c
000002a0: 181c 03bd 77ef 34bd e3e8 2ebd 99d9 1cbe
000002b0: 7b60 803c 9f87 593b 0d09 fe3a 6a79 55bb
000002c0: 5648 033d 375c d03c 799a a4bb b224 78bd
000002d0: d09f 85bd 9ee1 08bd 6c16 0f3c 014f 4d3d
000002e0: cf95 1bbd 209e 81bd 2370 ebbc 2f5f 3b3d
000002f0: 339d 173c 9061 713b 6027 00bc 3653 5fbd
00000300: bc3f 633d a602 06be c695 53bd c116 8d3c
00000310: 7ed9 eabb 94b1 4dbd 52bb d8bd 6786 6b3d
00000320: f3e4 c3ba aa87 4dbd 7cc9 873d 6f95 d83b
00000330: 06b8 a0ba 8980 e0bd 6d98 713d 093c 443d
00000340: e198 1bbb dfd5 6b3d 93df 783d 9653 313c
00000350: a900 8c3c cbe5 febc d484 53bc 3aa2 b7bd
00000360: 2567 c3bd 4c4b a43d e43c cdbd 1a96 aabd
00000370: 212d bc3c b83b 77bd adac 41bd 327d 363d
00000380: 812d b23b b42d a3bb 584f 283d 365d 58bd
00000390: 93bb 6dbd 6aa8 94bd 8d74 903d 8a26 9b3d
000003a0: c29a 60bd 525b 733c bf70 2bbd a821 10bd
000003b0: 338f 4cbd 9bc6 ffbb bc78 e33b 6686 063d
000003c0: ed10 293d 43b4 593c a6b2 60bc 3a03 fb3c
000003d0: 858b a0bd f83a 66bd e58b 6bbd df69 473d
000003e0: 984a 64bd aead 2d3e 40f4 2a3d cb4a 9c3c
000003f0: f568 983c 96dd 14bd 0e61 3e3d ff00 d6bd

sequential_7/conv2d_30/Conv2D f4 [64, 3, 3, 32]
-0.113212205 0.053223327 -0.0630607 -0.048547994 0.104607366 -0.01684066 0.04686267 0.0012734906
0.030291192 0.09294487 0.073652364 -0.13973305 0.054969195 0.20607273 -0.057101168 -0.11203055
-0.031135444 0.01765808 -0.16682908 0.02686703 -0.024203181 0.058717534 0.13026322 -0.027364468
-0.15796515 -0.15214434 -0.10120455 0.067686826 -0.035051744 -0.18798596 0.087267786 -0.10523857
-0.14492226 0.05460696 -0.05959082 -0.102256365 0.09174487 0.0032581883 0.019327153 -0.02526699
-0.028916312 0.08531146 -0.025222512 -0.0620153 0.06500922 0.05878789 -0.06424194 -0.03391883
-0.13078284 -0.007673293 -0.02413418 0.010271563 0.0075771078 -0.0573964 -0.07034426 -0.05760404
-0.15215985 -0.111901335 0.031861935 -0.060238667 -0.13487586 -0.110903345 0.07022809 -0.17225006
-0.16836642 -0.037810408 0.05367642 -0.10964775 0.20448276 -0.035185 0.013069382 -0.00048636284
0.051800724 0.021056123 0.0075457543 -0.07982967 -0.04775348 0.106662326 -0.018989751 -0.07992198
-0.19016147 -0.08821909 0.016540524 -0.033344187 -0.0592777 0.017040167 -0.05322004 -0.12309829
-0.21135607 -0.13407949 0.17108032 0.0947861 0.010425737 -0.07827738 -0.07292682 -0.115523696
0.06453618 0.07011505 0.03455128 -0.07727409 -0.039894894 -0.012731901 0.07089665 0.024157008
0.023572214 0.06973098 -0.04228701 -0.044871356 0.021181481 0.0060362373 0.07799375 -0.07245946
-0.13007288 0.01295955 -0.10691061 0.09879327 0.006856343 -0.02104302 -0.024158873 0.019521024
-0.07295512 -0.14700131 0.010152294 -0.008895098 0.15806301 -0.012681735 0.03803644 0.05683673
-0.004034392 -0.0760488 -0.06439177 -0.035054058 -0.026928233 0.0025555158 0.011703925 -0.045293912
0.001417987 0.06870563 -0.02504844 -0.05790276 -0.057927907 0.010650357 0.041808527 0.010147748
-0.05750207 0.014395881 -0.011708342 0.0978144 0.1277538 0.015065486 0.022675514 -0.06395165
0.047073647 0.026448276 0.00784534 0.059324153 -0.06343734 -0.05457543 0.06333628 -0.015003507
-0.012601661 0.003310084 0.0020817795 0.055313505 0.033658616 -0.08701013 -0.024834283 -0.021015575
-0.01837016 -0.042846613 0.041395493 0.0055641755 0.012821824 -0.033862345 -0.006715445 -0.06230101
-0.040461026 -0.052381948 0.016002947 -0.024130538 0.053146843 -0.03426267 0.00978088 -0.04445675
-0.041479617 -0.085251376 0.0801576 0.033503998 -0.052410774 -0.023787335 0.033628624 -0.03044405
-0.020896628 0.029434502 0.16962215 0.030897379 0.013840873 0.016984709 0.051933464 0.024511166
0.08270484 0.027621407 0.05911887 0.08942811 -0.019686434 0.04639457 -0.08827287 -0.13520004
-0.026337598 0.042466063 -0.020838706 0.089844994 -0.026529798 0.037686527 0.0105663845 0.13996883
0.070281014 0.011191739 0.0024207707 0.11088008 0.10457409 0.05974073 0.012168932 0.11321887
-0.048569 0.03037344 0.030402683 0.001955577 0.086169936 0.057694387 0.009283998 0.009204276
0.18485188 -0.0069430843 -0.02866875 -0.071198724 0.10486787 0.008343529 0.019214476 -0.045246538
-0.114241354 -0.086658694 -0.17863953 0.05002724 0.08173351 0.007626919 -0.03487464 -0.08146085
-0.015871543 -0.056865573 -0.0003911876 0.0824622 -0.01823255 -0.017783388 0.0035390253 -0.029952377
00000000: cddb e7bd b400 5a3d f825 81bd 43da 46bd
00000010: 633c d63d 6cf5 89bc 12f3 3f3d 41eb a63a
00000020: 3c25 f83c e159 be3d 0dd7 963d 2e16 0fbe
00000030: 6127 613d bb04 533e eae2 69bd 4670 e5bd
00000040: c20f ffbc aea7 903c 3ed5 2abe 3f18 dc3c
00000050: c045 c6bc cc81 703d b963 053e 732b e0bc
00000060: 9ec1 21be bacb 1bbe 5544 cfbd 649f 8a3d
00000070: 6b92 0fbd 647f 40be 74b9 b23d 5287 d7bd
00000080: 8066 14be 8cab 5f3d 8115 74bd c96b d1bd
00000090: bce4 bb3d 5487 553b fa53 9e3c b8fc cebc
000000a0: e7e1 ecbc c6b7 ae3d 719f cebc c103 7ebd
000000b0: 8e23 853d 92cb 703d 4791 83bd 79ee 0abd
000000c0: f0eb 05be 3f70 fbbb 0bb5 c5bc 0f4a 283c
000000d0: 6349 f83b 7d18 6bbd a710 90bd 37f2 6bbd
000000e0: cbcf 1bbe 872c e5bd a981 023d d2bc 76bd
000000f0: e61c 0abe 4b21 e3bd bfd3 8f3d 5262 30be
00000100: 3f68 2cbe 16df 1abd cedb 5b3d 008f e0bd
00000110: ee63 513e 261e 10bd f620 563c 84fe feb9
00000120: ff2c 543d e47d ac3c 6042 f73b bd7d a3bd
00000130: 2799 43bd c771 da3d 6590 9bbc 23ae a3bd
00000140: b0b9 42be 36ac b4bd fe7f 873c ea93 08bd
00000150: 2ccd 72bd d297 8b3c 42fd 59bd f51a fcbd
00000160: ba6d 58be 224c 09be ae2f 2f3e 371f c23d
00000170: b6d0 2a3c e44f a0bd a85a 95bd b097 ecbd
00000180: 8b2b 843d 7b98 8f3d a585 0d3d e141 9ebd
00000190: d468 23bd 7799 50bc 4332 913d ebe4 c53c
000001a0: 841a c13c 1ecf 8e3d 2535 2dbd 07cb 37bd
000001b0: c984 ad3c a1cb c53b 30bb 9f3d a065 94bd
000001c0: d331 05be 4b54 543c f3f3 dabd 2054 ca3d
000001d0: 2cab e03b 6962 acbc d4e8 c5bc 8eea 9f3c
000001e0: 7e69 95bd 8387 16be cf55 263c bfbc 11bc
000001f0: 45db 213e 0dc7 4fbc 19cc 1b3d a2cd 683d
00000200: ef32 84bb 79bf 9bbd d5df 83bd d894 0fbd
00000210: 9998 dcbc 717a 273b d2c1 3f3c 1c86 39bd
00000220: c0db b93a 8ab5 8c3d 6332 cdbc 722b 6dbd
00000230: d045 6dbd d67e 2e3c 6b3f 2b3d bd42 263c
00000240: 4a87 6bbd b4dc 6b3c 58d4 3fbc eb52 c83d
00000250: e4d1 023e 3ad5 763c 00c2 b93c 15f9 82bd
00000260: 4cd0 403d 0eaa d83c be89 003c e2fd 723d
00000270: 70eb 81bd 7c8a 5fbd 74b6 813d 45d1 75bc
00000280: 3277 4ebc ffed 583b 776e 083b 6a90 623d
00000290: 9edd 093d 5e32 b2bd 4471 cbbc db28 acbc
000002a0: 057d 96bc ee7f 2fbd 528e 293d b053 b63b
000002b0: a112 523c 3eb3 0abd 3c0d dcbb 582f 7fbd
000002c0: 76ba 25bd 748e 56bd 9d18 833c 68ad c5bc
000002d0: 81b0 593d 0357 0cbd fc3f 203c 4818 36bd
000002e0: 88e6 29bd 4698 aebd ab29 a43d 7d3b 093d
000002f0: aeac 56bd a8dd c2bc 2bbe 093d cd65 f9bc
00000300: 682f abbc a020 f13c 6eb1 2d3e 801c fd3c
00000310: d4c4 623c 8423 8b3c 2fb8 543d a4cb c83c
00000320: 2861 a93d 4a46 e23c a126 723d 1626 b73d
00000330: 7245 a1bc 3c08 3e3d 68c8 b4bd e171 0abe
00000340: f2c1 d7bc e5f0 2d3d efb5 aabc a700 b83d
00000350: 0555 d9bc 305d 1a3d a11e 2d3c fd53 0f3e
00000360: 7eef 8f3d 8e5d 373c cba5 1e3b 1815 e33d
00000370: f12a d63d b2b2 743d 3360 473c 4bdf e73d
00000380: 4af0 46bd b8d1 f83c 0c0f f93c 2329 003b
00000390: dd79 b03d f350 6c3d e91b 183c 88cd 163c
000003a0: d049 3d3e d082 e3bb bada eabc a3d0 91bd
000003b0: f7c4 d63d 4cb3 083c ad67 9d3c 6f54 39bd
000003c0: 5ff7 e9bd 1d7a b1bd 48ed 36be 5de9 4c3d
000003d0: e663 a73d 3ceb f93b b6d8 0ebd f2d4 a6bd
000003e0: 0a05 82bc e0eb 68bd 5018 cdb9 f1e1 a83d
000003f0: 6e5c 95bc 78ae 91bc feee 673b b05e f5bc

sequential_7/conv2d_31/Conv2D f4 [64, 3, 3, 64]
0.06552627 -0.07210758 -0.0064501935 -8.325225e-05 0.031162541 -0.06329402 -0.00823066 -0.07137009
0.11021698 -0.0780471 0.11513191 -0.08807912 0.014457975 0.050386507 -0.054281693 0.049821705
0.009961632 0.12329426 0.012715391 -0.017141277 0.054058637 0.07420411 -0.15068142 0.037985846
-0.04362285 -0.054361843 0.0032880274 0.028060993 -0.029940454 0.055656187 -0.011169173 -0.0145752095
-0.044766743 -0.002587774 -0.18409334 -0.05365669 -0.07560146 0.08808757 2.724649e-05 -0.036912706
0.051090762 0.023074 0.13020994 0.008495812 -0.049827024 -0.0145700695 -0.037530467 -0.0634156
-0.045365773 -0.09551528 0.013750065 -0.048694797 0.025171263 -0.013077127 -0.054043233 0.041204307
-0.048356306 -0.053388655 0.059371784 0.048600484 0.102760956 0.049079396 0.02603553 -0.092364855
0.0034349177 -0.03420487 -0.04345596 0.0043904465 0.02903394 0.06657296 -0.024812067 -0.031067137
0.025483062 0.053917173 -0.033198215 0.043723904 -0.022680532 -0.01557602 0.0070334286 0.020377835
-0.0066882647 0.02981592 -0.066111244 -0.0020604809 0.06420551 -0.029353326 0.015267415 -0.04457555
-0.039346825 -0.026855055 -0.03146097 0.04981875 -0.0070429565 0.025190597 0.07260934 0.0131271025
-0.048055742 7.604628e-05 -0.0008827958 -0.119176835 -0.022563333 0.0630997 0.009629598 0.014449327
-0.0078003663 -0.017117387 0.01108672 0.024994286 0.05771625 -0.1629179 -0.028247776 -0.055344418
-0.035150412 0.02237123 -0.014292054 -0.049833745 0.007550293 -0.06816295 -0.009544244 -0.035277367
-0.035258375 0.03664771 0.014699305 0.058534384 0.018046776 0.022207204 -0.021236217 0.017085262
0.008039764 0.02176396 -0.03711644 0.045731537 0.064767115 -0.009504324 -0.10449825 -0.0068316255
-0.02727637 0.078870036 -0.009151273 -0.031822354 -0.03827293 -0.065335855 0.040016018 -0.02195982
-0.017263632 -0.026778782 -0.0787234 0.0029637648 -0.013750753 -0.015072346 -0.014652618 -0.016452003
0.030113034 0.0009042587 -0.013947615 -0.03333647 -0.020998424 0.026273876 0.06455422 0.002249546
0.010329854 0.013058823 0.04714105 -0.087949134 -0.061297715 -0.06751678 0.12983814 0.09238826
0.03797673 0.018214654 -0.047731355 0.055017132 -0.019108506 -0.005117132 -0.03655552 -0.08066831
-0.06571498 0.042803235 0.000688377 -0.019467294 -0.018576084 -0.051129468 0.020686744 0.008313501
-0.045746 -0.075891174 0.04930577 0.0041639954 -0.003946141 0.055935796 -0.008166319 0.021114353
0.033575244 -0.1135594 0.023803625 0.0007409809 -0.014739337 -0.035123054 0.014347535 -0.037545573
0.019845162 0.018624233 0.0038226643 -0.054321196 -0.0775107 -0.023012206 -0.037945457 0.046547752
-0.0030194386 -0.018005371 -0.0026927772 0.011691168 0.006037932 0.07087379 -0.04417237 -0.019297158
-0.069302574 -0.11074958 -0.005892716 0.04792112 -0.012654402 0.07582215 -0.0020639307 0.020753048
-0.0022251839 0.1113831 0.013621388 0.04146639 0.023101676 0.06538865 -0.022470012 -6.125575e-05
0.018918307 -0.052498244 0.099553004 0.05346604 0.07907992 -0.06064032 0.021745104 -0.014318546
-0.026205689 -0.03188396 -0.012468787 -0.038183965 -0.026548984 0.004863016 -0.026484162 -0.028927311
-0.038143504 -0.0059948093 -0.036187906 0.015273431 0.08543801 0.029173354 -0.033229455 -0.061693903
00000000: a332 863d 24ad 93bd 255c d3bb b697 aeb8
00000010: 9648 ff3c 4ca0 81bd e4d9 06bc 7b2a 92bd
00000020: 71b9 e13d 28d7 9fbd 47ca eb3d d362 b4bd
00000030: 24e1 6c3c 1562 4e3d 7b56 5ebd d811 4c3d
00000040: 1d36 233c b381 fc3d 3754 503c dd6b 8cbc
00000050: 976c 5d3d 53f8 973d 3b4c 1abe 0c97 1b3d
00000060: e0ad 32bd 86aa 5ebd f27b 573b 2be0 e53c
00000070: af45 f5bc bef7 633d e8fe 36bc dccc 6ebc
00000080: 555d 37bd a597 29bb f782 3cbe 1ec7 5bbd
00000090: f0d4 9abd 4267 b43d 648f e437 c731 17bd
000000a0: 8c44 513d af05 bd3c c155 053e 0532 0b3c
000000b0: 6c17 4cbd 4db7 6ebc 8cb9 19bd 0ae0 81bd
000000c0: 76d1 39bd 849d c3bd f447 613c 3274 47bd
000000d0: f733 ce3c 7241 56bc 705c 5dbd d9c5 283d
000000e0: 4311 46bd 10ae 5abd d42f 733d 4d11 473d
000000f0: 5674 d23d 7a07 493d 7748 d53c c929 bdbd
00000100: 5b1c 613b 681a 0cbd e0fe 31bd bcdd 8f3b
00000110: 96d8 ed3c 6757 883d ad42 cbbc 8280 febc
00000120: dbc1 d03c 41d8 5c3d dafa 07bd d617 333d
00000130: 86cc b9bc 9032 7fbc ad78 e63b 6bef a63c
00000140: 3b29 dbbb 8440 f43c 5565 87bd 2209 07bb
00000150: 2e7e 833d 6376 f0bc 2e24 7a3c da94 36bd
00000160: 232a 21bd 22ff dbbc 38dd 00bd bf0e 4c3d
00000170: 9ac8 e6bb 835c ce3c 35b4 943d 0f13 573c
00000180: 19d6 44bd 097b 9f38 6c6b 67ba fc12 f4bd
00000190: bdd6 b8bc 6a3a 813d 76c5 1d3c dfbc 6c3c
000001a0: 379a ffbb c339 8cbc 13a5 353c d1c0 cc3c
000001b0: e067 6c3d f3d3 26be e167 e7bc d4b0 62bd
000001c0: e1f9 0fbd df43 b73c 3829 6abc 781e 4cbd
000001d0: 7368 f73b 0499 8bbd 765f 1cbc 007f 10bd
000001e0: 166b 10bd e91b 163d 5bd5 703c c0c1 6f3d
000001f0: d5d6 933c e2eb b53c 93f7 adbc 64f6 8b3c
00000200: 37b9 033c 554a b23c 6807 18bd fe50 3b3d
00000210: 9fa4 843d 06b8 1bbc 2e03 d6bd d4db dfbb
00000220: b272 dfbc 9d86 a13d 39ef 15bc 2858 02bd
00000230: 13c4 1cbd cece 85bd d6e7 233d 15e5 b3bc
00000240: 766c 8dbc 2d5f dbbc bc39 a1bd b93b 423b
00000250: d74a 61bc 00f2 76bc 8911 70bc 5ac6 86bc
00000260: 9caf f63c c60b 6d3a 8a84 64bc d38b 08bd
00000270: e304 acbc 503c d73c 0135 843d 1f6d 133b
00000280: 8c3e 293c acf4 553c f916 413d ad1e b4bd
00000290: 5013 7bbd 3d46 8abd 4af4 043e 0e36 bd3d
000002a0: 7d8d 1b3d e636 953c f481 43bd a559 613d
000002b0: 7189 9cbc 9dad a7bb 3ebb 15bd 6d35 a5bd
000002c0: 9395 86bd 7252 2f3d 3374 343a e079 9fbc
000002d0: df2c 98bc 226d 51bd 3f77 a93c 5a35 083c
000002e0: 2860 3bbd d56c 9bbd d9f4 493d 2072 883b
000002f0: a14e 81bb ef1c 653d 06cc 05bc 02f8 ac3c
00000300: 3286 093d d591 e8bd d2ff c23c 633e 423a
00000310: 437d 71bc 31dd 0fbd ec11 6b3c 63c9 19bd
00000320: 5292 a23c d991 983c aa85 7a3b e77f 5ebd
00000330: eebd 9ebd 1884 bcbc b26c 1bbd dba8 3e3d
00000340: c6e1 45bb 0080 93bc 4e79 30bb 508c 3f3c
00000350: d8d9 c53b 4726 913d 16ee 34bd 1315 9ebc
00000360: 82ee 8dbd add0 e2bd af17 c1bb f048 443d
00000370: 6954 4fbc a548 9b3d 0343 07bb 4c02 aa3c
00000380: 64d4 11bb d31c e43d 3e2c 5f3c a9d8 293d
00000390: ba3f bd3c 7cea 853d 0813 b8bc 6e76 80b8
000003a0: 91fa 9a3c 6608 57bd 72e2 cb3d 35ff 5a3d
000003b0: a7f4 a13d fc61 78bd ca22 b23c 5698 6abc
000003c0: 50ad d6bc c198 02bd e249 4cbc ca66 1cbd
000003d0: 417d d9bc ef59 9f3b 50f5 d8bc f8f8 ecbc
000003e0: 5d3c 1cbd 1b70 c4bb c539 14bd 6a3d 7a3c
000003f0: 20fa ae3d f5fc ee3c 9c1b 08bd bfb2 7cbd
